best_model.pth (torch, 714082 bytes, 20 tensors)

layers.0.weight f4 [128, 633]
00000000: b4f9 d83c a6bd e4bb 31a6 a6bc dbfb 9c3c
00000010: 0f8b 5e3c 3cba b63c d4aa a9bb e0a4 d73c
00000020: fdef 2f3d 1d15 1bbc b419 173d cbdc c33a
00000030: af5a 3a3c 2465 bd1e bc94 583c ecb0 d83c
00000040: 03ae 9a3d 6645 2dbc 6b30 95bb 55d3 adbb
00000050: 265b b3bc 08b3 2c3d e28f 113c 81a7 2b3d
00000060: 6f7b 17bd a9be 243a 2a9f 6fbc 3212 07ba
00000070: da3e c0bc 053d 5cbd d4c8 cb3b 912d 80bd
00000080: 0f66 1a3d d5b2 6dbc 0601 083c 690f 9520
00000090: a46f d73c 5072 0a3d 1ebd 9f3b cfd2 243c
000000a0: 767d 86bc a9bd c5bc cf2f 6fbb e61c e23c
000000b0: c029 993b 5c49 213c e7af 293d 2167 80bb
000000c0: 5419 1420 bd21 c7bc 31f1 68bb f6aa 8fbb
000000d0: ee14 643c 5d60 843d 9cfe bf3c 3cfd 083d
000000e0: 9d11 eb1f b65b 97bc a7ba e43c 7a9c c8bb
000000f0: d5be fdbc 7a25 7bbc 3cf4 d43c 4214 6cbc
00000100: 313b 043d c617 23bc e1b6 6e3d 3d49 9220
00000110: b5b3 ce3a 08f6 5f39 de9a f93c 3e50 73bc
00000120: 24f1 c83b 3725 36bd 9f0e 03bd 8ad3 c0bc
00000130: dbbc 55bb 26d3 ebba 6e08 8dbc 246c 433c
00000140: 0015 5d3c 9517 abbc 5fb5 e03c a051 74ba
00000150: 8180 0b3c 564d 9abc 8ec7 d1bc 04b9 c8bc
00000160: 3ac5 f43c 0a01 db3c c8aa 06bb 4323 243a
00000170: 25ac 313d b1d6 bb3b 762b 6b3c 8587 dabc
00000180: 42f0 7b3d 84df 453d cc1e 803c 19c0 cebc
00000190: 6b42 81bc b7a6 8e3c 508b d2bb 59ea 0bbd
000001a0: 2e41 c63c a155 c13c d935 60bd 6c7e 3dbd
000001b0: 073f ae3c 97a1 b7bc 8770 303d 5aff df3a
000001c0: d25f 07bb 8f06 8cbc 42e1 9b3b 73e1 943c
000001d0: fad9 22bd 5917 70bd d017 0ea0 dd99 a1bc
000001e0: ef38 c9bb 3b63 fbbb 36a6 833b 88ad 0fbd
000001f0: b73f 94bd defe 5f3c bbca e2bc 0e15 bbbc
00000200: fe14 953d 48bf 3cbb 5f05 8f3c b0dd 3abc
00000210: d7f1 0bbd 0c42 503c 2e28 0dbc e5f4 fa9f
00000220: 774c 9cbc 1b7e dcbc c173 c0ba 1766 17bc
00000230: 1924 823d d0e2 48bc 6f14 81bb bf1b 92bd
00000240: cbd5 913c dd88 e43b 30c2 ad3c a45b ed1e
00000250: f984 8a3d 76bc b0bc 8481 f83c 136b 743c
00000260: 8454 b13b e827 28bc 5354 363d ec92 3abc
00000270: a608 50a0 2219 4f3d 6f76 adba 5b5a d03b
00000280: 7cc7 1221 2d5e bdbb 0a59 173d 2687 71bb
00000290: cda2 963c fe79 b43c 442c 85bc 5190 363d
000002a0: c6c1 12bc 1c74 553c 91d0 11bc 3e04 bfbb
000002b0: e645 eb3c 8aa0 a93c 0122 23bc 7f4e 5c3a
000002c0: f1b3 25bd c365 95bb e767 9c3c 7816 40bd
000002d0: 3a05 28bc d343 463d f839 bd3b 0d6c 3cbd
000002e0: 423d 3d3d a067 8e3a 3eed b3bb 1886 61b9
000002f0: 664f 16bd 699c ac9e 05e5 5fbc 8151 ccbc
00000300: 2700 93bc f605 2e3d 894d e2bc d84a a53a
00000310: a3f1 283c b956 a8bc cd42 b83c 100e 681e
00000320: 649b 0cbd d05a 6b3c 54ff 3120 5878 9fba
00000330: f7f3 1abc 3376 84bc 0dcd 1bbb 0a88 99bb
00000340: b7dc 0a3c 3192 283b 4fa3 f43c a76d f3bb
00000350: bdce 42bc 0ce0 32bd 1ee8 ca3c abf7 893d
00000360: 9e31 c9bc a771 193d a775 b23b 76ef 813b
00000370: 0ece 38bc a0ee 9b3b 273c 2a3c 42fd c6bc
00000380: 5316 58bd f26e d71f 4f9d d83c 6079 1c3c
00000390: dbd9 353d 78eb 7f3c 4582 873c 289c 073d
000003a0: 517c 703c 30b0 083c 9102 033d d6fa 9339
000003b0: ba3a 8dbc 98dd edbc e12a 1c3d 64b1 93bc
000003c0: 0530 d93b c3d0 333c b7b0 2cbd 8643 f0bc
000003d0: f9cf 343c 7872 27bc be87 16bd 43cd 51bc
000003e0: b38b 0d3c 1868 b6bc dc86 eabc 208c 83bd
000003f0: d246 bcba 1f9b 3f3c ddd4 a63b 3283 11bd
0.026486255 -0.0069806157 -0.020342918 0.019163063 0.013582959 0.0223056 -0.005177835 0.026323736
0.04295348 -0.009465483 0.036889747 0.0014943121 0.01137416 2.0052984e-20 0.013219055 0.02645155
0.07552721 -0.010575628 -0.004552891 -0.0053047338 -0.021894049 0.042162925 0.008884402 0.04190779
-0.03698295 0.0006284514 -0.01462535 -0.00051525526 -0.02346747 -0.05376913 0.006219009 -0.06258691
0.037694987 -0.014507969 0.008301025 2.525178e-19 0.026298352 0.033800423 0.0048748394 0.010060026
-0.016417246 -0.024138289 -0.0036497002 0.02760167 0.0046741664 0.00984415 0.04142752 -0.003918544
1.2544468e-19 -0.02430808 -0.0035544152 -0.004384394 0.013921006 0.06463692 0.023436837 0.033444628
9.955551e-20 -0.018476348 0.027921034 -0.006122169 -0.030974785 -0.015328759 0.025995366 -0.014409127
0.03228301 -0.0099543985 0.058279876 2.4781827e-19 0.001577011 0.00021358591 0.030469354 -0.014850674
0.006132262 -0.044469085 -0.031996366 -0.02353837 -0.0032613787 -0.0017992004 -0.017215934 0.011927638
0.013493776 -0.020885268 0.027430234 -0.00093200244 0.008514524 -0.018835705 -0.02560785 -0.024502285
0.029879201 0.026733894 -0.002054857 0.0006261358 0.04337706 0.0057323803 0.014353624 -0.026675949
0.061508425 0.048308864 0.015639685 -0.025238084 -0.01577874 0.01741348 -0.0064252988 -0.03415904
0.024201002 0.023600401 -0.054738853 -0.046263143 0.021270288 -0.02241592 0.043076064 0.001708965
-0.0020656479 -0.017092971 0.0047570774 0.018173909 -0.03975866 -0.058616016 -1.2035747e-19 -0.019726688
-0.00614082 -0.0076717413 0.0040176166 -0.0350776 -0.07238715 0.013671605 -0.02768456 -0.022837188
0.072793946 -0.0028800536 0.017458616 -0.0114053935 -0.034166183 0.012711059 -0.008615537 -1.0628426e-19
-0.01907943 -0.0269156 -0.0014682935 -0.009240649 0.06354541 -0.012261108 -0.0039392035 -0.071341984
0.01780214 0.006974323 0.02121076 2.5131253e-20 0.06763644 -0.02157424 0.030335195 0.014918107
0.0054116864 -0.010263421 0.04451401 -0.011387568 -1.7621147e-19 0.050561078 -0.0013234149 0.0063584275
4.973074e-19 -0.005779049 0.03695015 -0.0036854236 0.018388176 0.022030827 -0.016256459 0.044571225
-0.008957332 0.013028171 -0.008899824 -0.005829363 0.028719854 0.020706434 -0.009956838 0.0008404031
-0.04045481 -0.00455925 0.019092513 -0.046896428 -0.010255152 0.048404526 0.0057747327 -0.046001483
0.046200998 0.0010864623 -0.005490928 -0.00021507626 -0.036696814 -1.8275898e-20 -0.013665442 -0.024941208
-0.017944409 0.042486154 -0.027624862 0.0012610806 0.010311517 -0.020549165 0.02249279 1.2284886e-20
-0.03432788 0.014364913 1.5076964e-19 -0.0012166603 -0.00945758 -0.016169643 -0.0023773343 -0.0046854066
0.008475474 0.0025721902 0.029863028 -0.007428843 -0.011890111 -0.0436707 0.024768885 0.06736692
-0.024559792 0.037461903 0.005446154 0.0039653135 -0.011279596 0.004758671 0.010390318 -0.024290685
-0.052755665 9.1239585e-20 0.026442198 0.009550422 0.044397216 0.015620105 0.01654161 0.033107907
0.014678077 0.008342788 0.03198487 0.00028224912 -0.017239917 -0.029036328 0.03812683 -0.018028922
0.006628039 0.010975066 -0.042160716 -0.029329073 0.011035913 -0.010220163 -0.036750548 -0.012805286
0.008639264 -0.022266433 -0.02862876 -0.06423211 -0.0014364368 0.011694699 0.0050912932 -0.03552551

layers.0.bias f4 [128]
00000000: 8b9f 90b9 cfa2 e0b8 0f67 8638 7137 3839
00000010: e178 20b8 97b6 0039 884f 18b8 ae98 c5b9
00000020: 675e 9fb7 6563 c9b8 42d6 a638 37ba 09b8
00000030: 2cee e7b8 8921 c3b8 8acf f038 73f8 3f38
00000040: 5101 8039 9214 7338 3653 30b8 8e9e 4ab7
00000050: bc8c 6b39 ca8d cbb7 4297 80b8 18ba 92b6
00000060: e451 3bb9 222a 1339 15df bf37 7210 ff38
00000070: 68e3 14b9 7613 19b9 cb2f 2739 00a8 ec38
00000080: 0a1d 7838 4db3 b938 d4ce 3439 3a21 72b8
00000090: 6c24 46b5 ed65 0b37 25a0 7d39 0d6a 0d38
000000a0: 2e84 9cb9 0697 cbb7 7697 8539 2e95 6cb9
000000b0: bcb1 4eb8 4a6d 24b8 eeeb ecb6 422d 1a39
000000c0: 8583 b039 6eb8 f438 c4cd 0ab8 e83f cd38
000000d0: 3faa 1938 b0c4 8839 08bc ffb8 e831 3739
000000e0: f375 2bb9 7742 30b8 4060 bab8 64ea b3b8
000000f0: 5284 bc38 1a61 86b9 d88b f6b8 5154 3938
00000100: c01c 4539 4fab 28b8 f96d 90b9 f4d6 ad38
00000110: 188f 9bb7 acd1 5db8 780d ceb7 5977 d2b8
00000120: 2c75 0d39 e9d4 16ba 3143 0cb8 6bea 1cb9
00000130: 0fac 0cb9 7b11 d2b8 8a88 0639 3816 ceb8
00000140: 2db0 6e39 389f 82b9 0f10 4639 2c9b 22b7
00000150: 8cb3 97b7 5d65 ec36 e1ee 5cb8 d5b9 ba37
00000160: 9478 4c38 4df6 c6b8 1d96 16b9 a365 d6b8
00000170: 256d d538 cedf 5238 42eb 3eb9 0476 d238
00000180: aa5b 7cb9 7fbb 47b9 737e 4e39 7e62 99b9
00000190: 14f6 b9b8 8054 ce38 a0ad 2639 98d7 81b8
000001a0: 9000 16b7 9e2e e238 f526 4eb9 5a78 0a39
000001b0: 5ad0 4439 395f 54b8 3eed 9f38 afb4 3d39
000001c0: 58c4 f938 0885 a5b8 26e0 b8b8 dc43 5cb8
000001d0: 049c 2538 5760 e738 b5bf de38 69a0 8238
000001e0: 346a 9537 9042 40b8 6cc9 2eb9 5845 cb38
000001f0: 9c15 3639 0c37 69b8 8a48 37b7 8d1c 1f39
-0.0002758469 -0.00010711478 6.408814e-05 0.00017568261 -3.825955e-05 0.00012275051 -3.6313693e-05 -0.00037688523
-1.8998237e-05 -9.6029406e-05 7.9554055e-05 -3.283677e-05 -0.00011059301 -9.304571e-05 0.00011482749 4.5769335e-05
0.00024415043 5.7954872e-05 -4.2039166e-05 -1.2077055e-05 0.00022463774 -2.4265511e-05 -6.1316896e-05 -4.3728032e-06
-0.00017864216 0.00014034708 2.2872855e-05 0.00012162411 -0.00014199095 -0.00014598467 0.00015944165 0.000112846494
5.9154852e-05 8.854885e-05 0.00017243187 -5.772824e-05 -7.381375e-07 8.308777e-06 0.00024187619 3.3715787e-05
-0.0002985312 -2.4269812e-05 0.00025480584 -0.00022562288 -4.9279755e-05 -3.920243e-05 -7.060814e-06 0.00014703444
0.00033667326 0.000116691794 -3.3093398e-05 9.787065e-05 3.6636597e-05 0.00026086485 -0.00012194371 0.00017470832
-0.0001635177 -4.202357e-05 -8.887099e-05 -8.579044e-05 8.989185e-05 -0.00025630818 -0.00011756242 4.4185963e-05
0.00018798094 -4.0213865e-05 -0.00027547756 8.289321e-05 -1.8544073e-05 -5.2885778e-05 -2.4563386e-05 -0.000100358106
0.00013490458 -0.0005753772 -3.3441178e-05 -0.00014964647 -0.00013415537 -0.00010016836 0.000128301 -9.826984e-05
0.0002276308 -0.0002491416 0.00018888734 -9.692081e-06 -1.808421e-05 7.0451483e-06 -5.267456e-05 2.2259463e-05
4.8749687e-05 -9.487253e-05 -0.00014361036 -0.000102232465 0.00010176961 5.0276336e-05 -0.00018207452 0.000100355624
-0.0002406674 -0.00019047967 0.00019692797 -0.00029255816 -8.867323e-05 9.838585e-05 0.00015895674 -6.191357e-05
-8.940828e-06 0.00010785203 -0.00019660204 0.0001320554 0.00018769634 -5.063342e-05 7.6259006e-05 0.00018091754
0.00011909817 -7.892592e-05 -8.8155546e-05 -5.2515286e-05 3.9484366e-05 0.00011032883 0.00010621493 6.228762e-05
1.7811639e-05 -4.583836e-05 -0.00016668969 9.6927106e-05 0.00017364923 -5.5602795e-05 -1.0924539e-05 0.00015174058

layers.1.weight f4 [128]
00000000: 7580 7b3f a726 7e3f 6a7b 843f 0d11 783f
00000010: 4e19 793f af06 7c3f 9291 773f 8491 823f
00000020: 4195 803f 1c10 7c3f 12bd 7f3f ae3f 793f
00000030: ba0d 823f c8e3 733f d6d9 7f3f c6ee 813f
00000040: 0b7a 813f 0a59 803f 0d9b 803f da2e 7d3f
00000050: 3786 833f 7e1a 813f b53f 7e3f 2ab6 7b3f
00000060: ba67 823f e4f0 773f c8c2 7b3f beae 803f
00000070: 19fb 803f 7149 7e3f 2c91 813f 6333 7e3f
00000080: 986f 833f c5e1 7b3f 98be 803f 1d04 7a3f
00000090: be3d 783f aaca 7f3f b21b 803f cc5c 7b3f
000000a0: 9795 7b3f 548c 7e3f 83c8 823f 330b 7f3f
000000b0: 8870 7f3f 9227 7d3f d926 773f a71a 843f
000000c0: c774 803f c28c 7f3f 08ee 7d3f 3e2e 7c3f
000000d0: a897 823f e682 823f 3bcc 833f 152d 803f
000000e0: 864b 843f 3934 7c3f eb79 7a3f 07fa 7c3f
000000f0: dccc 823f de3e 813f 49a7 813f 5e18 833f
00000100: f820 7e3f 2ce1 7b3f 8165 803f 757b 823f
00000110: c064 7d3f 3893 813f d0d4 773f 6ab6 803f
00000120: 9cb4 813f 9051 823f 2439 7d3f 9a32 773f
00000130: 42ba 813f 6a95 7c3f 150c 803f 4de8 7a3f
00000140: d29b 7d3f eb02 803f 3838 7f3f 4106 803f
00000150: efd4 813f 31cc 7e3f a759 813f f08d 7f3f
00000160: 39c9 7e3f 300d 7a3f 6e4e 823f 7aab 773f
00000170: b315 733f e81e 803f 2f19 7d3f ae07 813f
00000180: 0c99 843f 25c6 823f c486 803f 85c7 7b3f
00000190: a750 7d3f 903f 823f 0306 843f a0b5 7b3f
000001a0: 058a 823f c2a9 803f 5677 7d3f 0c16 7e3f
000001b0: 47d8 803f 234d 823f dcd5 7a3f fb83 7a3f
000001c0: 2d58 7e3f d537 823f 4f66 7a3f 9684 7e3f
000001d0: 43ea 813f 51ef 7d3f dabe 7e3f 6f7b 833f
000001e0: 2e9a 7e3f c7ed 803f 59af 7c3f fefe 7f3f
000001f0: bf3f 7c3f f82c 823f 53b1 813f 91cd 803f
0.98242885 0.9927773 1.0350163 0.9690102 0.97304237 0.984477 0.967065 1.0200658
1.0045549 0.9846208 0.99897873 0.9736279 1.0160439 0.9526944 0.99941766 1.0150993
1.011537 1.0027173 1.0047318 0.98899615 1.0275334 1.008621 0.9931596 0.98324835
1.0187905 0.96851945 0.9834409 1.0053327 1.0076629 0.9933081 1.0122428 0.9929716
1.0268431 0.9839137 1.0058165 0.97662526 0.9696921 0.99918616 1.0008452 0.9818847
0.9827513 0.99432874 1.0217441 0.99626464 0.99781084 0.98888505 0.9654365 1.0320634
1.0035638 0.99824154 0.9919133 0.9850806 1.0202532 1.0196197 1.0296701 1.0013758
1.0335548 0.98517185 0.9784228 0.9881901 1.0218768 1.009731 1.0129176 1.0241811
0.99269056 0.9839046 1.0030977 1.0193926 0.9898186 1.0123053 0.968091 1.0055668
1.0133243 1.0181141 0.98915315 0.96561587 1.0134966 0.9866549 1.0003687 0.9801071
0.9906589 1.000089 0.9969516 1.0001909 1.0143107 0.9953032 1.0105485 0.99825954
0.9952579 0.9767637 1.0180185 0.9674603 0.94954985 1.0009432 0.9886655 1.0080469
1.0359206 1.0216719 1.0041127 0.9835132 0.9895119 1.0175648 1.0314335 0.9832401
1.019837 1.0051806 0.9901022 0.9925239 1.0066003 1.017979 0.97982574 0.97857636
0.99353296 1.0173289 0.9781236 0.9942106 1.0149616 0.9919329 0.99509966 1.0272044
0.9945401 1.0072564 0.9870506 0.9999846 0.9853477 1.0169973 1.013224 1.0062734

layers.1.bias f4 [128]
00000000: eb44 71bd 0c5c ecbc 19e2 243c 18b5 46bd
00000010: ca07 51bd 6e6a e6bc 0629 7abd a2fe 14bd
00000020: 2bc5 2e3c 051a 3cbd da86 15bc 0470 31bd
00000030: 63c6 8ebd 7fc0 94bd 1d14 463b eab2 97bc
00000040: d742 3abd ac9a 8abd 16de 753a 2b51 44bd
00000050: d9d9 80bc 8e6c 81ba 8804 28bd c074 45bd
00000060: ce9b d13b 92b4 78bd cc6c 27bc 772c 0bbd
00000070: 956c fabc a1fb dfbc ec71 2dbd 9c82 bdbc
00000080: 11c1 82bb 7cf0 64bd 28c7 e9bc 261b c9bc
00000090: 04a3 06bd abca 4ebc 8820 1fbd 7bd3 54bd
000000a0: c759 89bd bc68 ccbc d9d1 22bc c74f 6cbc
000000b0: 6fbf dbbc f409 34bd 658e 61bd a7e4 e6bb
000000c0: 5d12 b33c 03f7 69bc 5182 11bd 397e 06bd
000000d0: 29d6 0a3c 382d 12bd ac5c 06bc 66b9 d2bc
000000e0: 5b10 76bc e0aa 08bd d4b6 b8bc f1f4 aebc
000000f0: cc4e b2bc 5d4b a8bc 6478 9dbb d07b ba3c
00000100: 1629 a4bc 716c 7dbd 90e7 1cbd e2cf 86bc
00000110: ca5e 89bd c4ed a0bc 3864 85bc 2ad7 77bc
00000120: 401d b8bc 4808 8bbc a283 67bc c3bf 3bbd
00000130: 7628 a8bc c64a 77bc 50e1 14bd 9a33 abbd
00000140: 62ce efbc ea6c f1bc c4f6 58bd d2e9 40bd
00000150: 3011 48bc 77c5 17bd 4499 d03b 8451 45bd
00000160: 9baf 2abd 69bf 72bd 0035 22bc 91da c9bd
00000170: ce95 6bbd bc93 8abb b4ce 39bd 9f80 06bd
00000180: a4ad aa3c b31b c2bc 7f54 83bd fa17 0fbd
00000190: 9b83 33bd 5aed 67bc d9f1 19bc 5d20 22bd
000001a0: ee75 7dbc 6b68 babb 7328 12bd 8cea a0bb
000001b0: e1d0 10bb b27c c6bb 9dd0 82bd 2243 debc
000001c0: 3ace 03bd 924a 53bd f114 febc a005 c9bc
000001d0: 3e14 5dbc 6332 d1bc d229 33bd 2df0 88bb
000001e0: 9da5 ebbc 6011 cebb 6957 90bd b7b0 77bd
000001f0: 5398 afbc 4df6 dfba 57d2 36bc 638b a2bc
-0.058903616 -0.028852485 0.0100636715 -0.04851255 -0.05103282 -0.028126922 -0.06107428 -0.03637565
0.010667126 -0.04592325 -0.009126389 -0.043319717 -0.06971433 -0.07263278 0.003022439 -0.01851793
-0.0454739 -0.067677826 0.00093791017 -0.04792897 -0.015728878 -0.0009874271 -0.041019946 -0.048207045
0.006396747 -0.06071908 -0.01021881 -0.03397795 -0.030569354 -0.027341666 -0.042344972 -0.023133568
-0.0039903005 -0.055893406 -0.028537348 -0.024549078 -0.032870308 -0.012621562 -0.038849384 -0.051959496
-0.06706577 -0.024952285 -0.009937727 -0.014423317 -0.026824681 -0.043954805 -0.05506744 -0.0070463005
0.021859342 -0.014280084 -0.03552467 -0.03283522 0.008473911 -0.035687655 -0.008200806 -0.02572317
-0.015018548 -0.033366084 -0.022548117 -0.021357032 -0.021766089 -0.020543749 -0.0048056114 0.022764117
-0.020039123 -0.061870996 -0.038306773 -0.016456548 -0.06707533 -0.019644625 -0.01628314 -0.015126983
-0.022474885 -0.016971722 -0.014130505 -0.045837175 -0.020527106 -0.015093511 -0.036347687 -0.083594516
-0.029273216 -0.02947088 -0.05296971 -0.04709799 -0.012211129 -0.03705355 0.006365927 -0.048173442
-0.041671377 -0.059264574 -0.0099003315 -0.09856141 -0.05751591 -0.004229037 -0.045363143 -0.032837506
0.020834751 -0.023694849 -0.06412601 -0.034934975 -0.04382668 -0.01415571 -0.00939604 -0.039581645
-0.015470011 -0.005688717 -0.035683107 -0.0049107727 -0.0022097158 -0.0060573453 -0.06387446 -0.02713162
-0.032179095 -0.051584788 -0.031015845 -0.024538815 -0.013493596 -0.025536722 -0.043741055 -0.004179022
-0.028765494 -0.0062886924 -0.07047922 -0.060471263 -0.021434939 -0.0017086953 -0.011158547 -0.019841855

layers.1.running_mean f4 [128]
00000000: d3ee 5cbc fcc1 843b 6832 3abb d6fb cdbc
00000010: be1f 71bc f9f0 30bc a78a 193b 626e 31bc
00000020: 39fc 9bbb 3478 debb 0c31 803b 64ef ba3c
00000030: 3a33 9b3c 139b 213c 6d11 843c e40b d03b
00000040: 4a7d 66bb e415 553c 90e7 03bb 03db 203c
00000050: f0aa f93b 7f6f dfbb 2a60 f03c f9cf 003b
00000060: 5c63 a43c d5df 313a 76af 3abc 2015 8cbc
00000070: ec73 1c3c faaa 7ebb 748f 54bc d450 393c
00000080: 5068 76b9 584d b03c 8c86 953a 7eaa 09bc
00000090: efa2 f63b 222a a7bb 0d0a 70bb 3392 783c
000000a0: 392a 863c 496d 03bd 4b84 9c3b 48e1 4eba
000000b0: 4032 203c 8fc4 953b f941 dabb 62bb d239
000000c0: ad7b 13bc 35ae 1d3b 4ab2 babb 263d 40bc
000000d0: dc72 52bc 88c0 883b 744a 4d3b e245 603c
000000e0: def1 51ba 4c45 8e3b 8711 3abc e3b2 113c
000000f0: 2fb5 68bb 74e6 cd3c 8c83 87bc 07c6 5c3c
00000100: 4988 973b a9bc 78bc 586a 51bb a9eb 773c
00000110: 6a3b ad3c d502 3cbc 2479 103c d0ce 53bc
00000120: ab04 133b da87 a5bb 7fad 2a3c c9f0 dbbc
00000130: d5b2 7d3c 0c80 ba3b 71d4 083c 8cca 833c
00000140: c28e 04bd 3be2 7abb 5b44 26bc cee3 8b3c
00000150: 6ea0 ce3b 11b7 88bc 5237 13ba 57b2 e23c
00000160: b39a c03b 40a9 d7bc ace2 04bc 188b 633c
00000170: e286 dbba be1f 103b 6aad 323b ca1e 6dbb
00000180: fcbc 353c b4b0 89bb b5c0 65bc 881e 753c
00000190: 6294 9f3c 8550 d53c 42a3 cf3b 2be9 f73a
000001a0: c25d a73b 3828 c83b 3350 76bb 57ee 0a3c
000001b0: a011 133a 184b c73c d8de bbbc e885 91bc
000001c0: 6418 ad3b 70a6 5e3c 3ece 5bbc 68ec 4fbc
000001d0: 0ca7 a43a 983c e13b ebaa 7a3c ee49 e8bb
000001e0: ec9e 933c 5b66 f53b 02a4 e6b9 eb5f 573b
000001f0: 87f9 423c c107 1c3c 03ab 6e3b c5b6 193c
-0.0134846745 0.004051445 -0.0028411392 -0.025144499 -0.014717041 -0.01079964 0.002342859 -0.01082954
-0.004760292 -0.0067892317 0.003912097 0.022819228 0.018945325 0.009863633 0.01612159 0.0063490737
-0.0035169893 0.013005707 -0.0020127036 0.009817841 0.0076192543 -0.0068187113 0.02934273 0.0019655211
0.02006691 0.0006785368 -0.011394372 -0.017099917 0.009549122 -0.0038859234 -0.012973655 0.011310775
-0.00023499248 0.021521255 0.0011407896 -0.008402465 0.0075267474 -0.005101458 -0.0036627084 0.015171575
0.016377555 -0.032086644 0.0047765127 -0.0007891846 0.0097776055 0.0045705508 -0.0066606966 0.00040193932
-0.009001655 0.0024060134 -0.0056975232 -0.011733329 -0.012844767 0.004173342 0.0031324895 0.013688536
-0.00080087583 0.004341757 -0.011356718 0.008892748 -0.0035508384 0.025134303 -0.016542219 0.013474948
0.0046244008 -0.015181699 -0.0031954255 0.015131869 0.021146495 -0.011475285 0.008817945 -0.012927726
0.0022433202 -0.005051595 0.010417341 -0.026848214 0.015484531 0.005691534 0.008351431 0.016087793
-0.032362707 -0.0038281817 -0.010148133 0.0170764 0.006305746 -0.016688855 -0.00056158483 0.02767293
0.0058778166 -0.026325822 -0.008110683 0.013888143 -0.0016748572 0.0021991576 0.0027264007 -0.0036181682
0.011092421 -0.004201973 -0.014022996 0.0149608925 0.019479934 0.026039371 0.0063366005 0.0018914094
0.0051076123 0.00610831 -0.0037584424 0.008479676 0.00056102313 0.0243278 -0.022933409 -0.017764047
0.0052824486 0.0135894865 -0.013415871 -0.012690641 0.0012561991 0.0068736784 0.015299539 -0.007088891
0.018020116 0.0074890084 -0.00043991214 0.0032863568 0.011900312 0.009523333 0.003641785 0.009381955

layers.1.running_var f4 [128]
00000000: 1274 a73a f0f4 a83a 528c 8c3a 51fa c53a
00000010: 7813 d63a 95c8 9c3a 6006 b13a 5e96 943a
00000020: 70ba d43a 3341 d63a c3f5 ac3a 135f b73a
00000030: 22b0 9f3a 235f b03a c7f3 c83a 259c a23a
00000040: e0cf 6b3a 650e 953a a74b c63a 328e 9d3a
00000050: d03b 813a 17b8 aa3a 1ed4 a03a 3292 8b3a
00000060: 41d5 b93a cb11 9e3a 3654 a73a c6e5 bc3a
00000070: 750b 7b3a 6a45 d93a a5a6 843a 2aae aa3a
00000080: e71e a63a 5aaa 8f3a 6efc 923a 9a61 f23a
00000090: 0b5c b83a cf70 b13a abcc 943a 0d7c 883a
000000a0: d7b8 893a 77a5 cd3a 5b9b 7a3a 7060 b33a
000000b0: b73e bf3a 677a bf3a 44d9 8e3a c36e 8c3a
000000c0: 653b a63a a3ea d13a e1a3 bc3a 5b60 b53a
000000d0: 8b73 db3a a041 9c3a e567 883a 81e2 c23a
000000e0: 853a a23a 9285 883a ff4c e03a 1ceb c53a
000000f0: 8682 843a 4397 ac3a 2ecd b03a e20d c93a
00000100: 06ca a73a cb6d 8f3a d9c1 8d3a 8b18 a03a
00000110: 5f35 c23a 00c0 ae3a aa7d d93a 991f b03a
00000120: 70d8 9f3a 24a6 923a 3d1d 9a3a 216b c73a
00000130: b4a4 853a a3f3 b53a a390 883a 8401 c63a
00000140: e9da ca3a 8bd7 8b3a ab14 a33a 4d43 903a
00000150: da2c a03a 34cd 823a 3676 ad3a 47f8 953a
00000160: 43bd b13a b285 a33a 316d 863a 6b22 9d3a
00000170: 7090 d23a 96dc b63a 0ab2 b83a 13d7 913a
00000180: 029b 833a 262a 703a a2e4 653a 60df 943a
00000190: ee99 ba3a 8be3 ab3a 4ff6 903a f920 a73a
000001a0: efdf 933a bd20 ac3a 6461 b73a 5023 bf3a
000001b0: 995f c03a 01c9 a93a 2a7a 773a 4976 ca3a
000001c0: d69e 943a daca 7c3a d6ae b23a fa47 b93a
000001d0: 8fa4 ae3a 8716 dc3a 5e51 923a 1524 873a
000001e0: d1f9 ec3a be10 a73a eff3 9e3a 7924 8a3a
000001f0: f392 a63a 1992 a23a 6789 a03a 51dd a33a
0.001277568 0.001289038 0.0010722971 0.0015104507 0.0016332706 0.0011961634 0.0013505928 0.0011336317
0.0016229879 0.0016346335 0.0013195801 0.0013990126 0.0012183229 0.0013456087 0.001533144 0.0012406154
0.00089955144 0.0011372088 0.0015128747 0.0012020527 0.0009859744 0.0013024834 0.0012270247 0.0010648428
0.0014177934 0.0012059746 0.0012766186 0.001441174 0.00095765974 0.0016576473 0.0010120465 0.0013021876
0.0012674005 0.0010960803 0.0011214146 0.0018492222 0.0014065517 0.0013537648 0.00113525 0.0010412947
0.0010507357 0.0015689571 0.0009559893 0.0013685357 0.0014590834 0.0014608622 0.001089849 0.0010714162
0.0012682496 0.0016015362 0.0014392101 0.001383792 0.0016742809 0.0011921413 0.001040694 0.0014868529
0.0012377059 0.0010415784 0.001711279 0.0015099975 0.00101097 0.0013167638 0.0013488883 0.001533922
0.0012801297 0.0010942755 0.0010815217 0.0012214346 0.0014816931 0.0013332367 0.0016593237 0.0013437151
0.0012195241 0.001118843 0.0011757981 0.0015214422 0.001019618 0.0013881814 0.0010419082 0.0015106653
0.0015476617 0.0010669095 0.0012442073 0.0011006385 0.0012220398 0.0009979368 0.0013234082 0.001144179
0.0013560433 0.0012475757 0.001025593 0.0011988407 0.0016064774 0.0013951238 0.0014091146 0.0011126719
0.0010040703 0.0009161554 0.00087697257 0.0011358075 0.0014236548 0.0013114078 0.0011059734 0.0012750915
0.0011281947 0.0013132315 0.0013990817 0.0014582667 0.0014676928 0.0012953581 0.0009440506 0.0015446629
0.0011338841 0.00096432643 0.0013632427 0.001413583 0.0013324189 0.0016791382 0.0011163165 0.0010310436
0.0018079822 0.0012746078 0.0012127141 0.0010539434 0.0012708589 0.001240316 0.001224798 0.001250187

layers.4.weight f4 [256, 128]
00000000: ba01 89bc 22c0 c2bc cc88 95bd add4 983d
00000010: b47f 0d3d 596c 8abc 8e9c 493d a5a8 c83d
00000020: 22d0 ebbc 061e e5bd 563a 97bd 6534 c83c
00000030: d78a fe3c 4d3c d9bc 272d 8d3c d01a b83d
00000040: c409 55bd edb1 943c d3d6 273d 26b4 023b
00000050: 644f 4b3c 2f30 e4bd 8980 0dbd 95cc d33d
00000060: 59e8 823d b5c4 513d d777 433c b3c2 cdbd
00000070: d0aa 053d 3a8f 4a3d 9e08 db3c edd6 bbbd
00000080: a378 503d 4c26 cc3b 7e08 93bc 9de7 92bd
00000090: 96f1 e13b 1614 00be 94c1 923c 8cc7 7bbc
000000a0: b1a0 cb3c 7331 133d bab3 0cbd bcb9 9c3d
000000b0: a2e7 013d b88c 4bbd 904b a83c 8e1a 383d
000000c0: abcb 73bd 8ee0 3dbd 2587 48bd f063 203c
000000d0: 8181 c8bc 60fb 0b3d aac0 8cbd 7b3e 8e3d
000000e0: 3f86 9a3d a01d 1d3d 6289 a53d 4eac 0ebb
000000f0: 0804 05bc c5dd 80bc 57c3 2e3d ecb6 afbb
00000100: 64f8 17bb 0fa6 343d 91f7 a4bc 2160 babd
00000110: d461 5dbd 9407 71bc 7d76 9d3d caeb dbbc
00000120: a354 a33c 69c3 b33b abda 54bd 17c1 9a3d
00000130: 7f93 b3bc 6728 aa3d 35e2 99bc 8a10 5dbc
00000140: d630 f33c bacb f2bc dce1 223c a72c 88bd
00000150: b983 5fbb a0bd 343a fb8d 993d 3719 e4bd
00000160: e08d 46bd d0f3 c2bd f7a1 f83c 35e7 f4bc
00000170: 3a9d 7e3d 465c 39bd b71e cb3c 44de 99bd
00000180: 6af4 0d3e a8e1 d43c 6ce6 22bd eb17 2c3d
00000190: 16a1 a3bd f736 e43d 7b87 6b3d 276d 44bd
000001a0: b39a 9fbd b4f0 113d 825c 3f3d d11f b2bd
000001b0: 5a82 09be 09e1 a2bd 0121 e0bc e803 37bd
000001c0: 1fa0 a43c 121c 033d d394 72bd 3a0a a6bc
000001d0: 6eea 343d e70d b23d 3f81 303c 5a4f 353d
000001e0: 1ffd 4a3d 591b 5b3d d508 1f3d cf4d 893d
000001f0: 2ac3 babc dd54 8f3d d4ab 58bd bf83 923d
00000200: 7951 a2bb 7d7f 13bb 8017 4cbd cc23 803d
00000210: 2977 d83c ea55 96bd 6284 7d3d fecb 6ebd
00000220: 981b a2b9 3877 b8bd 6e64 94bc 38fa b3bd
00000230: 41b0 ebbc fdd8 5bbd 7ab1 bb3c 47dc 9b3d
00000240: 1e54 043d 9597 143d 94c6 413d 9128 5e3d
00000250: 6215 a8bc a235 c4bd ebc5 65bc b389 87bd
00000260: 8d17 fa3c a83f abbc 1326 9bbd bb45 9bbd
00000270: 92a7 b43c 9a9e b6bd cc91 57bd ac61 093d
00000280: c77d ebbc e1f7 013d 740d 0c3d 8c80 893c
00000290: fa74 3d3d 6cb9 0fbc 08fc 903c c49f 80bd
000002a0: 8e69 643d e2bd e8bd f003 dbbc a076 97bd
000002b0: fb68 b7bc 4b71 463d 8ac3 e2bc c662 febc
000002c0: 8a53 c6bb 263f b5bc cda4 66bd e6d2 2dbd
000002d0: a3e0 99bd 19d2 213d 4474 90bd ac8d 9abd
000002e0: b00e d93c 7f4c e9bd b18e 0abd 0e47 6cbd
000002f0: ec4e 89bd 99ff c33b 70c4 193d 80da 44bb
00000300: 4e36 063c 16f8 52bd a88e c9bd 6d07 0b3e
00000310: c3fa 023d 3cfc d7bd 51b2 7d3d 8335 473d
00000320: 50ee 4b3b 46e8 913d 5489 1a3d 7077 babc
00000330: 5bad 4e3d f638 ff3a 3ab0 b6bd ed58 b63c
00000340: 9bd9 fb3c 8132 9fbd b1c9 edbc 5ff3 ccbc
00000350: 02d0 18bd fd3e 103d ceee 193c 5e99 583c
00000360: db28 49bc 4307 59bc db29 c9bd 8af9 253d
00000370: 14ba 8e3d 43a8 d7bc e6e0 37bd 462e d4bb
00000380: d13b 8cbd 8fc5 c0bc 60fd 88bb e3bc 5abc
00000390: 6604 d33c d63f b73d b172 fcbd ee26 563d
000003a0: 21a7 98bc 9ae2 00be f868 373b 0c0e 8a3d
000003b0: dde3 e5bc 7de9 f5bd a5e0 ddbc e35c 8cbd
000003c0: a0ab 8abd 1f85 cf3c 1b69 24bd 1054 6a3d
000003d0: 69a9 d5bd b18e 8d3d 9ad1 693d ab6f b33c
000003e0: 63be 09be b10d 83bd 906a 4cbd 169c c8bd
000003f0: f1f0 8d3d 53ba c1bd eaa6 b5bd 133f 9bbd
-0.016724456 -0.023773257 -0.073014826 0.0746244 0.034545615 -0.016897367 0.049221568 0.097977914
-0.028785769 -0.11187367 -0.073841736 0.024439046 0.031072063 -0.026518011 0.017233444 0.08989489
-0.052011266 0.018151248 0.040976357 0.0019943803 0.012409065 -0.11142003 -0.03454641 0.10341755
0.06391973 0.051212985 0.0119304275 -0.100469016 0.032633603 0.049452998 0.026737507 -0.09171853
0.0508963 0.0062301513 -0.017948385 -0.07173083 0.0068952544 -0.12507662 0.01791457 -0.0153674
0.024856897 0.03593583 -0.034351088 0.076526135 0.031715043 -0.049694747 0.020543844 0.0449472
-0.059520405 -0.04635673 -0.04895701 0.009789452 -0.024475815 0.034175277 -0.06872685 0.06945511
0.07545137 0.03835833 0.08082844 -0.0021770182 -0.008118637 -0.015730748 0.04266676 -0.005362382
-0.0023188824 0.04410368 -0.02013758 -0.091003664 -0.054048374 -0.014711279 0.076886155 -0.026845831
0.019937819 0.005485941 -0.05196635 0.0755636 -0.021920918 0.083084874 -0.018784622 -0.013492713
0.029686373 -0.02963816 0.009941544 -0.06649142 -0.0034105612 0.00068947114 0.07497784 -0.11137622
-0.048475146 -0.0951916 0.030350668 -0.029895404 0.06216166 -0.045254014 0.02479492 -0.07513097
0.13862768 0.025986508 -0.03977053 0.042014997 -0.07989709 0.11143296 0.05750225 -0.04795566
-0.077931784 0.035629943 0.04671908 -0.08697475 -0.13428631 -0.07953078 -0.027359487 -0.04468146
0.020095883 0.03200919 -0.05922396 -0.020268548 0.044168882 0.08694058 0.010773002 0.04426513
0.0495578 0.053492878 0.038826782 0.06704294 -0.02279814 0.06998608 -0.052898243 0.07154035
-0.00495356 -0.002250641 -0.0498271 0.06256828 0.026424007 -0.073406056 0.06189383 -0.05830001
-0.00030919607 -0.09007114 -0.018114295 -0.0878796 -0.028770568 -0.053673733 0.022911776 0.07610374
0.032306783 0.036277372 0.04730852 0.054237906 -0.020518009 -0.09580542 -0.014024238 -0.06618061
0.030528808 -0.020904377 -0.075756215 -0.075816594 0.02205256 -0.089169696 -0.052629277 0.033540413
-0.028746499 0.031730536 0.034192517 0.016784929 0.046254136 -0.008772235 0.017698303 -0.06280473
0.055764727 -0.11364342 -0.026735276 -0.07395673 -0.022388926 0.04844789 -0.02768113 -0.031052958
-0.006052439 -0.022124838 -0.05630951 -0.042437457 -0.07513549 0.039507005 -0.07053426 -0.07546553
0.026496261 -0.113915436 -0.033827487 -0.05768495 -0.06704506 0.0059813973 0.037540853 -0.0030037463
0.008191658 -0.051506124 -0.09841663 0.13577051 0.031977426 -0.10546157 0.061937634 0.048635017
0.0031117387 0.07124381 0.037728623 -0.02276203 0.050458293 0.0019471932 -0.08920331 0.0222592
0.03074341 -0.07773305 -0.029026838 -0.025018392 -0.037307747 0.03521632 0.009395314 0.013220159
-0.012277807 -0.01324636 -0.098224364 0.040521182 0.06969085 -0.02632535 -0.044892214 -0.006475243
-0.068473466 -0.023531703 -0.0041805953 -0.013350698 0.025758933 0.089477226 -0.12326563 0.05228322
-0.01863438 -0.12586442 0.002798615 0.067409605 -0.028062755 -0.12007425 -0.027084658 -0.06853654
-0.06771016 0.025332032 -0.0401393 0.057209074 -0.10432703 0.06911982 0.057084657 0.021903833
-0.13451533 -0.06399096 -0.049906313 -0.09795396 0.069307216 -0.09459367 -0.08869727 -0.0758039

layers.4.bias f4 [256]
00000000: adfa 0337 f74a 46b6 b2b9 3cb6 63b7 53b5
00000010: 5e36 4fb5 8d80 0eb5 60e8 09b4 730a 5937
00000020: 6a56 bdb5 28a2 8a36 9237 88b4 c839 3636
00000030: 54dd 90b6 fd0f b9b6 e4b2 4436 4c48 9736
00000040: 8482 aa36 7088 89b5 5da6 a5b6 2d5f 8d34
00000050: 5c7e 19b7 d76b 27b6 aa76 a636 66eb 0236
00000060: 7dd4 c7b6 ec40 d2b5 e1df 4fb6 0c52 8435
00000070: 02b3 8b35 80eb 0b33 b5b7 7935 503f 89b2
00000080: 590b 92b6 00fa ab36 d4f7 9db6 0929 2f35
00000090: 4ca9 42b7 454d 5b36 a868 5736 4580 1db6
000000a0: 84ff 20b6 ca46 b7b5 cbf5 ad35 659e 6434
000000b0: f27c 4737 5481 b235 b697 8036 8215 d7b5
000000c0: 9c5b 8eb7 9e17 d335 9679 1437 93a2 6736
000000d0: 8c40 0836 b848 70b4 fa11 7c36 c31b d8b5
000000e0: b063 8f36 c916 2ab6 247e 9037 4112 99b5
000000f0: e58d 9fb5 f4d7 19b5 42f1 7236 1b24 0936
00000100: 7e49 9d35 6152 c735 e764 4636 829d 2736
00000110: 06b0 14b5 e808 aab7 d013 a835 ca27 9ab5
00000120: 5ef4 1535 758d 3635 61db ec35 7c2c 0836
00000130: 102c c2b6 1c18 1935 4f1b 5bb6 d169 9eb6
00000140: b222 98b4 44e7 87b5 6f88 de36 9462 09b4
00000150: e86d 2135 03a1 9035 6def ae34 5b5c 18b5
00000160: 608b 83b5 8993 c236 b5c8 ed36 b823 8c34
00000170: c4a4 23b6 2db5 0f37 de25 09b5 589c 9336
00000180: 172a c235 aeda 7936 b10e 6cb7 8a81 8fb6
00000190: 552e 2c37 6c1a acb6 0424 4436 7652 58b5
000001a0: 1e0c dcb5 e0ac e536 2eb0 e034 d64c 12b6
000001b0: 6c3f fab6 b27c c9b5 c137 d334 5f27 eab5
000001c0: af3e 2237 6160 4db6 c72a 93b6 4ada 7d36
000001d0: a7ba 2e36 458d 6a36 a0d7 3035 4ee9 3a35
000001e0: 68e6 0fb6 84ba bdb6 5e41 22b6 2074 2eb6
000001f0: 76ee 2835 a88f ef36 25d5 c336 53c5 e735
00000200: 7c08 35b6 8b42 5636 63b3 e035 a2c6 9fb6
00000210: 0049 bbb5 8929 0236 89a4 3d36 a0c8 c3b6
00000220: 00dc b235 6f10 8436 6c65 93b6 c5bc 11b6
00000230: 3681 ac36 01ba b535 b8a1 cc35 1366 1a36
00000240: 2d46 2535 61aa 5236 b41b 9236 3478 2136
00000250: b2d4 6936 788c eeb5 86d4 06b7 4488 4bb7
00000260: 1cb5 7bb6 f43e da33 34d4 43b6 937a 4e36
00000270: e7d2 1e36 9ac6 59b6 d28a 13b6 09c4 8eb6
00000280: d4f6 b535 2c01 df34 de36 09b7 28f8 1fb6
00000290: 71cf b8b6 1cec 85b6 50f8 0d36 0ec5 3336
000002a0: fca5 ab36 ee37 4e37 7e5c 0135 6b33 9c36
000002b0: f456 2534 e411 cbb5 103a 5736 e514 ccb6
000002c0: 307c 3d35 a978 6536 e8da 14b5 9292 13b6
000002d0: e3fc bb37 2990 3db5 f2a2 b836 dcf3 a4b6
000002e0: aa2f ca35 fc5f 2ab6 ec23 dfb6 dcfa 26b6
000002f0: f329 94b6 13f6 06b6 d20c b535 001b 3237
00000300: 8df0 cdb5 af0a 9635 1bb4 b634 909c 03b7
00000310: 1919 3bb5 5f1d cdb5 33b7 61b6 44f8 d935
00000320: 9cd1 9635 f7b3 f734 771f 8a36 41eb 0937
00000330: a782 2eb6 f850 d434 303e ab34 1685 8bb5
00000340: 3384 17b6 9818 8534 9ad5 2237 b265 7ab5
00000350: f23d 1536 f867 2935 8db8 29b5 0fd6 0036
00000360: 24b8 90b6 1ec1 7a36 0914 21b6 699d 4fb7
00000370: 0462 0436 27c6 54b7 e28c 5935 c265 56b6
00000380: 04d4 10b6 3a94 58b6 3d81 8cb4 29a7 7835
00000390: af24 c636 32fa c836 849f 9935 c2e6 f636
000003a0: e173 12b6 d2e6 5eb5 b620 bd35 5446 5636
000003b0: 6d7e db34 d3ec 39b6 ef93 d535 a138 aeb6
000003c0: 4904 e8b6 a989 7336 ac09 8036 88a7 5eb5
000003d0: 4d89 7036 599c 14b6 783a 47b6 ccfa 05b7
000003e0: 1f75 c735 42e1 1634 cd24 0635 6742 6bb6
000003f0: 20fb 2d36 c283 03b5 0b91 d336 02bf 9db5
7.8665735e-06 -2.9547934e-06 -2.8122272e-06 -7.887049e-07 -7.7192624e-07 -5.308619e-07 -1.2843657e-07 1.2936641e-05
-1.4106747e-06 4.131598e-06 -2.5372407e-07 2.7153746e-06 -4.3173004e-06 -5.515291e-06 2.9310404e-06 4.508567e-06
5.081589e-06 -1.0247004e-06 -4.9367504e-06 2.6332546e-07 -9.148931e-06 -2.494771e-06 4.961e-06 1.950853e-06
-5.955399e-06 -1.5665114e-06 -3.0975718e-06 9.858645e-07 1.0408405e-06 3.2577645e-08 9.302706e-07 -1.597769e-08
-4.35246e-06 5.125301e-06 -4.7078156e-06 6.5252294e-07 -1.1602719e-05 3.267852e-06 3.2098415e-06 -2.3469486e-06
-2.3990588e-06 -1.3655165e-06 1.296104e-06 2.1291778e-07 1.1890415e-05 1.3299673e-06 3.8323587e-06 -1.6025008e-06
-1.6970378e-05 1.5727599e-06 8.849796e-06 3.4516313e-06 2.030315e-06 -2.2378197e-07 3.756139e-06 -1.6101334e-06
4.2733373e-06 -2.5345237e-06 1.7224877e-05 -1.1404701e-06 -1.188772e-06 -5.7311195e-07 3.620124e-06 2.0435607e-06
1.1718801e-06 1.4850631e-06 2.9563032e-06 2.497662e-06 -5.5390444e-07 -2.0269727e-05 1.2522742e-06 -1.1485474e-06
5.5862427e-07 6.800613e-07 1.7647218e-06 2.0291473e-06 -5.78678e-06 5.7032025e-07 -3.2649439e-06 -4.7210856e-06
-2.833745e-07 -1.0125591e-06 6.6319985e-06 -1.2794982e-07 6.013711e-07 1.0775697e-06 3.258423e-07 -5.675881e-07
-9.800824e-07 5.798826e-06 7.086516e-06 2.610302e-07 -2.43848e-06 8.5656475e-06 -5.109158e-07 4.399142e-06
1.4466376e-06 3.723118e-06 -1.4070117e-05 -4.2768124e-06 1.0262786e-05 -5.1290754e-06 2.922724e-06 -8.0586267e-07
-1.6394804e-06 6.844857e-06 4.185144e-07 -2.180042e-06 -7.457964e-06 -1.5011958e-06 3.934238e-07 -1.7445817e-06
9.670547e-06 -3.060348e-06 -4.3859213e-06 3.7826999e-06 2.6036666e-06 3.4950947e-06 6.5878885e-07 6.96299e-07
-2.1442775e-06 -5.654352e-06 -2.417793e-06 -2.5995614e-06 6.2931883e-07 7.139479e-06 5.836266e-06 1.726827e-06
-2.697604e-06 3.1927218e-06 1.6741509e-06 -4.761693e-06 -1.3953832e-06 1.9395686e-06 2.8258967e-06 -5.8348087e-06
1.3326062e-06 3.9358197e-06 -4.3927485e-06 -2.1716562e-06 5.1410416e-06 1.3539685e-06 1.5246251e-06 2.3007203e-06
6.156941e-07 3.1391612e-06 4.354364e-06 2.4060837e-06 3.484351e-06 -1.7773264e-06 -8.036504e-06 -1.213147e-05
-3.7507334e-06 1.0162867e-07 -2.9180783e-06 3.076774e-06 2.3666596e-06 -3.245112e-06 -2.198551e-06 -4.2547513e-06
1.3557387e-06 4.153784e-07 -8.178611e-06 -2.3837292e-06 -5.5077767e-06 -3.9911956e-06 2.1155174e-06 2.678778e-06
5.1155203e-06 1.2291579e-05 4.819084e-07 4.655148e-06 1.5398456e-07 -1.5129885e-06 3.2071293e-06 -6.082106e-06
7.0588703e-07 3.4193893e-06 -5.5452847e-07 -2.1990022e-06 2.2409897e-05 -7.061777e-07 5.5025967e-06 -4.91597e-06
1.5064045e-06 -2.5387844e-06 -6.6500997e-06 -2.4881947e-06 -4.4156272e-06 -2.011079e-06 1.3489282e-06 1.0615913e-05
-1.53437e-06 1.117898e-06 3.4031186e-07 -7.844661e-06 -6.969945e-07 -1.5282238e-06 -3.3634249e-06 1.6240015e-06
1.1236875e-06 4.6138277e-07 4.1163835e-06 8.220611e-06 -2.600407e-06 3.954699e-07 3.189648e-07 -1.039504e-06
-2.2577703e-06 2.4791075e-07 9.705685e-06 -9.3280244e-07 2.2238787e-06 6.31087e-07 -6.322596e-07 1.9198085e-06
-4.312971e-06 3.7365312e-06 -2.4002532e-06 -1.2374811e-05 1.9726585e-06 -1.2682321e-05 8.104381e-07 -3.1947716e-06
-2.1581081e-06 -3.2272787e-06 -2.6171065e-07 9.263045e-07 5.9051304e-06 5.989591e-06 1.1445813e-06 7.358235e-06
-2.1823146e-06 -8.303733e-07 1.4091117e-06 3.1929421e-06 4.0883916e-07 -2.7704998e-06 1.5912791e-06 -5.1921966e-06
-6.9146377e-06 3.628995e-06 3.815823e-06 -8.2945235e-07 3.5842706e-06 -2.2144725e-06 -2.9687344e-06 -7.985811e-06
1.4860742e-06 1.4051787e-07 4.997244e-07 -3.505638e-06 2.5925183e-06 -4.8993036e-07 6.3051752e-06 -1.1753002e-06

layers.5.weight f4 [256]
00000000: 9503 813f 6787 823f af6c 823f 6af9 803f
00000010: d734 7d3f 2c90 7f3f b7c9 7f3f a6cc 823f
00000020: 0b80 7d3f 22a9 813f 8298 7c3f d33d 803f
00000030: 25fe 793f 7a48 743f d73c 7e3f 1de1 7c3f
00000040: d1bd 7c3f 877e 783f def7 7f3f 8452 793f
00000050: 5b3d 803f fd5d 813f 304d 803f bd68 7d3f
00000060: d53f 783f 9a39 813f 5660 7a3f 1694 7a3f
00000070: 4367 803f d588 7b3f 3184 7a3f 2668 7d3f
00000080: 34b2 823f 2e31 7b3f cb3f 803f 2b29 7f3f
00000090: 5e81 7b3f a7f8 7b3f e5a7 7b3f b109 813f
000000a0: 7fcd 813f 7338 7b3f 7a33 843f c67c 7c3f
000000b0: 3908 853f 4554 813f cd50 7c3f 7410 7f3f
000000c0: c629 803f 549b 7e3f 3427 7c3f 7756 783f
000000d0: 8969 7e3f 8c76 803f 207f 823f 6415 813f
000000e0: 7de0 813f 3efe 823f fc69 823f b952 7b3f
000000f0: 452b 7e3f 3dc2 7a3f 0d42 813f 651b 833f
00000100: 425e 823f 1007 7c3f 7737 7c3f 0e22 7f3f
00000110: f362 7b3f c50d 853f 7058 7d3f 907d 7e3f
00000120: 44f3 7f3f 4116 753f eae6 7f3f 2998 833f
00000130: 135f 7a3f 6c5a 803f 6e2b 813f 21a6 823f
00000140: a1de 773f 7102 7b3f f1ca 7d3f 0613 7b3f
00000150: 17c0 7c3f 6651 7e3f a82b 833f 2f2c 813f
00000160: f2a9 803f f672 803f 24e2 803f b658 803f
00000170: 2aa1 7d3f 697d 823f 94ac 803f 2df8 813f
00000180: 0e09 833f 7df6 7b3f 65f7 813f d73f 7f3f
00000190: cbb8 803f f96b 833f a0db 793f 82de 7e3f
000001a0: cc76 823f 8b38 7f3f c23f 753f 1970 813f
000001b0: 2258 793f 3000 803f 09a4 753f ec3a 7d3f
000001c0: a507 7e3f 6c2c 793f 02fd 753f 150d 803f
000001d0: 63a1 833f 2680 7c3f 977b 833f ac40 7a3f
000001e0: ed64 813f d490 813f 715f 7a3f 6753 823f
000001f0: dc79 7f3f 4d10 793f aa5d 823f d1f6 7c3f
00000200: 3c18 7d3f 39fb 833f 7020 803f b7a5 843f
00000210: fa97 823f e27c 7a3f 4389 7f3f d437 753f
00000220: 3c25 813f 7a90 743f 5514 813f 1ff2 7f3f
00000230: 3249 7e3f 156e 7c3f 2ee2 7f3f 6108 813f
00000240: 6f8f 723f 7c15 793f 5911 813f bb3c 813f
00000250: c1f6 7d3f 2811 813f c19a 823f 4723 803f
00000260: cf99 7b3f 4f2e 7f3f e0cb 783f 3ba3 7e3f
00000270: 1f37 833f 735a 823f be03 7a3f 890a 813f
00000280: 1eb1 813f 502c 7f3f 4ee3 7c3f 34e4 7e3f
00000290: 933d 813f 2ca6 7a3f 538a 813f 9a34 7c3f
000002a0: a641 823f 2158 813f 92cc 813f 8a76 7c3f
000002b0: 8b27 693f 1725 7c3f 631a 783f 5a72 7d3f
000002c0: 7982 803f a098 853f 004f 7c3f afb4 703f
000002d0: 52d9 823f 63da 7f3f 1825 813f 920a 7b3f
000002e0: 58d2 773f 674c 7e3f 3c24 823f 3798 753f
000002f0: aeb6 803f c3ed 813f 3d31 783f f09f 763f
00000300: 0b39 773f 15c1 793f 3d93 813f d559 7e3f
00000310: 8d0d 7b3f 4fea 793f b935 813f e4cb 803f
00000320: cdaf 823f 9c87 713f 9fc7 833f 66b6 7e3f
00000330: 4055 7a3f 4a70 813f 4803 7d3f f49e 833f
00000340: 19a9 843f 4990 833f 2b86 813f c876 7c3f
00000350: 0036 813f ef69 763f 9c64 803f 9c83 813f
00000360: 4df1 7f3f 4458 823f d6eb 823f b417 813f
00000370: c236 793f 33c1 743f 5982 843f 721e 813f
00000380: 406f 813f 6930 813f 8fbb 793f 06a0 803f
00000390: 0b6c 7a3f 79fa 7c3f 57cb 823f 5446 783f
000003a0: e92c 7e3f cf99 7f3f bc1d 813f e4cc 7d3f
000003b0: 3430 763f 8c01 833f dd96 7b3f 0eb9 783f
000003c0: 60bb 7a3f 408e 843f 1cad 7d3f edfe 803f
000003d0: b871 803f 53fa 7e3f ecde 7b3f 7b0d 7d3f
000003e0: 1602 853f 7fca 7a3f 47a0 823f 1a08 843f
000003f0: cdc3 753f f1db 7e3f a22d 803f 839d 813f
1.0079218 1.0197572 1.0189418 1.0076115 0.9890875 0.99829364 0.9991717 1.0218704
0.99023503 1.012974 0.9867021 1.0018867 0.9765342 0.9542309 0.99311584 0.98780996
0.98727137 0.97068065 0.9998759 0.97391534 1.0018724 1.0106808 1.0023556 0.9898794
0.969724 1.0095704 0.97803247 0.9788221 1.0031513 0.98255664 0.9785796 0.9898704
1.0210633 0.9812192 1.0019468 0.9967219 0.98244274 0.9842629 0.9830306 1.0081083
1.0140837 0.9813301 1.0328209 0.9862789 1.0393134 1.0103842 0.9856079 0.9963448
1.0012748 0.9945576 0.9849732 0.97006935 0.99379784 1.0036178 1.0195045 1.0084653
1.0146633 1.0233839 1.0188594 0.981731 0.99284774 0.97952634 1.0098282 1.0242735
1.0185015 0.98448277 0.9852213 0.9966134 0.9819786 1.0394827 0.9896307 0.99410343
0.9998057 0.9573708 0.9996172 1.028081 0.9780132 1.0027595 1.0091379 1.0206949
0.9682408 0.980506 0.9913779 0.980759 0.98730606 0.99342954 1.0247698 1.0091609
1.0051863 1.0035083 1.0069013 1.0027072 0.9907404 1.0194522 1.0052667 1.0153862
1.0237138 0.98422986 1.0153624 0.99706787 1.0056394 1.0267326 0.97600746 0.9955827
1.0192504 0.9969565 0.9580041 1.0112334 0.97400105 1.0000057 0.9595342 0.9891803
0.99230415 0.9733341 0.96089184 1.0003992 1.0283626 0.9863304 1.0272092 0.9775493
1.0108925 1.0122323 0.9780188 1.0181702 0.9979532 0.972905 1.0184834 0.9881411
0.98865104 1.0311042 1.0009899 1.0363072 1.020263 0.97846806 0.9981882 0.9578831
1.0089488 0.95532954 1.008433 0.9997882 0.9933044 0.9860547 0.999545 1.0080682
0.9475011 0.9729841 1.0083419 1.0096658 0.9920464 1.0083361 1.0203477 1.0010766
0.9828157 0.99680036 0.9718609 0.9946782 1.0251197 1.0183853 0.9766196 1.008134
1.0132177 0.9967699 0.9878434 0.9956696 1.0096916 0.9790981 1.0120338 0.98517764
1.0176284 1.010502 1.0140555 0.98618376 0.9107596 0.98494095 0.9691526 0.9900261
1.0039817 1.0437202 0.98558044 0.940257 1.0222571 0.99942607 1.0089445 0.98063004
0.96805334 0.9933533 1.0167308 0.95935386 1.005575 1.0150684 0.9695013 0.96337795
0.96571416 0.97560245 1.0123059 0.9935582 0.9806755 0.9762315 1.009452 1.0062222
1.02099 0.9434755 1.0295295 0.9949707 0.9778633 1.0112393 0.9883313 1.0282884
1.0364105 1.0278407 1.011907 0.98618746 1.0094604 0.9625539 1.0030704 1.0118289
0.9997757 1.0183187 1.0228221 1.0085359 0.9734918 0.956073 1.0352279 1.0087416
1.0112076 1.0092899 0.97551817 1.0048835 0.9782111 0.9881969 1.0218304 0.9698231
0.9928728 0.9984407 1.0087199 0.99140763 0.961673 1.0234847 0.98277074 0.9715737
0.9794216 1.0355911 0.9909227 1.0077797 1.0034704 0.99600714 0.98387027 0.98848695
1.0391262 0.97965235 1.0205163 1.0314972 0.96001893 0.99554354 1.0013926 1.0126194

layers.5.bias f4 [256]
00000000: 6629 e53b 07d3 ccbd 544d a6bd ba59 b9bb
00000010: 80e9 10bd e2df 91bd 91f3 973b 6785 a4bd
00000020: daaf 9fbc 0a5c 89ba df9a 98bc 31fb 1bbd
00000030: da58 c3bc 74af 89bc 5569 06bd c1b3 cabc
00000040: 94d5 22bd ff64 1dbd cef3 263b 6325 2b3c
00000050: 999c 11bd 0268 83bc 9a56 e2bd fc0c 1fbc
00000060: 1a16 823c 8cd9 58bd 2b10 fabc cdb9 3dbd
00000070: 0a6e 65bd 13b3 a4bd 25c1 1abc 1be5 10bc
00000080: d821 6abd 0cc9 c8bc 0472 55bd 9d28 d1bc
00000090: 9d97 7dbb 27bb 87bd 45e8 e93a 9aa9 e93c
000000a0: ff58 54bd 9a25 9d3c 9e93 15bd 79a7 5dbd
000000b0: e2d7 c4bc c354 7dbd aa71 22bd ded8 3739
000000c0: 55ef 673c e00d 20bd 681a 18bd e644 2fbd
000000d0: 381f c8bc bfc1 91bd 51d3 4abd d13b bdbb
000000e0: 6a80 fbbc 099d cabb a3f0 7ebd a4dc 62bd
000000f0: 1f36 27bd 7e66 6abd bf9b 1bbd 8e07 85bc
00000100: 50a2 eebb 4aea 71bd 6b7e 80bd 9107 4ebc
00000110: 2d1f 10bd cb6e 17bd 1e8c 45bd 0ebb 56bd
00000120: 26bc 1a3c 412a a4bd 75a9 bcbd cd5b ccbc
00000130: b941 cabc d0b8 e8bc d256 bebc 8c19 4abd
00000140: 647c 8cbd 4e13 77bd 4d28 cbbc f59c 21bd
00000150: 869b febc 6834 8cbd 4644 99bd 11ae 59bd
00000160: a71d c33b de50 07bd 54c9 21bd 89e3 35bd
00000170: 74e8 43bd f178 26bd 32de e8bc 1d37 73bd
00000180: 1764 09bd 256e 85bc 17ad 9cbc f9a2 84bd
00000190: 76fa 66bd a2ef 88bd 5756 6ebd 46a7 99bc
000001a0: 04c8 03bd 9424 34bd b584 bcbd 2ba1 913b
000001b0: fd91 0dbd 293f edba 948a b8bd 92dd bebc
000001c0: a771 d0bc 0367 09bd 68a9 a0bd de62 98bc
000001d0: 353e 35bc 86df 33bd bc16 5abd 11bb d4ba
000001e0: 902a 31bd 40c2 6fbd de2d 88bd 9551 66bb
000001f0: 2660 a2bd b7c9 e53b 99ce c2bc e8ef 3cbd
00000200: 9547 93bc 9c42 b5bd e2ef 1f3c 1cfc d9bd
00000210: 606d 77bd c7f1 20bd ba38 95bd a1fa 7ebc
00000220: 884a 9ebd 68db 88bd d6cc 6cbd 92a4 2e3c
00000230: 7a17 43bd 96b6 86bd 9f6a bdbc a587 13bd
00000240: a778 61bd c2c5 0bbd f0c5 14bd 78d6 97bd
00000250: c352 59bd f232 d3bc b18e 9cbd 9e33 1abd
00000260: 5976 11bd 43c3 10bd ef14 86bd 9237 b2bd
00000270: 3f44 2bbd 48fe 04bb b6c1 1dbd 76e5 d5bc
00000280: 2135 21bd a837 83bc be95 c9bc a415 59bc
00000290: ad5e 5bbd ec17 5abd ab2d c5bc 267f 3fbd
000002a0: 9aa3 79bc 86d4 8e3c 36cb d3bc 62ed fabd
000002b0: 4af3 0cbd 462c 86bd af1f 92bd 70bf b4bb
000002c0: 2fed 8bbd a49c 8cbc 0db4 0abd 2823 02bd
000002d0: cfad 23bd f5f8 e1b9 256b 363b 75ad 3fbd
000002e0: 5847 0cbd 146f 51bd 8009 a8bd 8267 a1bc
000002f0: c54d b2bc 3236 0fbd 0020 bb3c c280 6bbd
00000300: 21af b9bb 3ce7 2dbd 131a 03bd 742a 47bd
00000310: f086 803c 7f9b 75bd 251f 90bd 7b3a 703c
00000320: 1862 8bbd d081 46bd 3823 a73c c48c d3bc
00000330: b1f8 5cbd 6b7d 03bd 21b8 33bc 727c 84bd
00000340: 540f a8bd 5ab9 17bd feb7 c9bc 4225 95bc
00000350: 0b22 09bd 1017 33bd 5ded debd e0ed c1bc
00000360: a580 16bd 8199 9dbb 9b9a 0bbd caba cdbd
00000370: 3914 84bc 69ae 05bd e150 98bc db98 43bd
00000380: fb94 37bc 2fd3 87bd a880 31bd 1185 81bc
00000390: a3e7 99bc 0204 95bc ad48 6abd 8563 babc
000003a0: 051a 72bd d5e6 dfbc 370a 8ebd 06cf adbc
000003b0: 0eca 6fbd 5667 c4bc 37d6 d1bb 7123 25bd
000003c0: 6c80 3abd 640b 26bd dff6 7dbd a427 86bd
000003d0: d5c8 eabc dff6 96bd 8960 a5bd ee2b 85bd
000003e0: 9914 f5bc 447f a8bd 1b3c a3bd 1eda 4dbd
000003f0: fd31 bbbc 6a7e 8bbc abc2 48bd cae3 12bc
0.0069934605 -0.10001188 -0.08120218 -0.005656448 -0.035378933 -0.071227804 0.0046371897 -0.08033257
-0.019493032 -0.00104797 -0.018628536 -0.03808135 -0.023846079 -0.016807295 -0.032815296 -0.024743916
-0.039754465 -0.038426396 0.0025474909 0.010445925 -0.035549734 -0.016040806 -0.11051674 -0.009707686
0.01587968 -0.052941844 -0.030525288 -0.04631977 -0.056013145 -0.08041968 -0.009445463 -0.0088436855
-0.057161182 -0.02450993 -0.052110687 -0.025532061 -0.0038695105 -0.06627493 0.0017845711 0.028523255
-0.051842686 0.019182969 -0.03651773 -0.054114792 -0.024028722 -0.061848413 -0.03965918 0.0001753303
0.014156182 -0.039075732 -0.037134558 -0.042790316 -0.024428949 -0.07117032 -0.049517933 -0.005774953
-0.030700881 -0.006183271 -0.062241208 -0.0553862 -0.0408231 -0.05722665 -0.037990328 -0.016238954
-0.0072825328 -0.059061326 -0.06274112 -0.012575046 -0.03518598 -0.036970895 -0.04822933 -0.052424483
0.009444272 -0.08015872 -0.09212009 -0.024946118 -0.024689542 -0.028408438 -0.023234759 -0.04934077
-0.06859663 -0.060321145 -0.02479949 -0.039456327 -0.031080019 -0.06845933 -0.07483725 -0.05314452
0.0059544626 -0.033036105 -0.039498642 -0.044406448 -0.047829106 -0.040642682 -0.028426263 -0.059378732
-0.03354272 -0.016287873 -0.019125504 -0.06476397 -0.056391202 -0.06686331 -0.05818781 -0.01875652
-0.03217317 -0.043980196 -0.09204999 0.0044442615 -0.034563053 -0.0018100488 -0.09010807 -0.023299012
-0.025444819 -0.033545505 -0.07844812 -0.018601831 -0.011062195 -0.04391434 -0.053244337 -0.0016230067
-0.04325348 -0.05853486 -0.066493735 -0.0035143842 -0.07928495 0.0070125717 -0.023780154 -0.04612723
-0.017978469 -0.08850595 0.009761782 -0.10643789 -0.060407043 -0.039293077 -0.0728621 -0.015562684
-0.077290595 -0.066824734 -0.057812534 0.010659354 -0.04762981 -0.06577794 -0.02312213 -0.036018033
-0.055046704 -0.034124143 -0.03632158 -0.074139535 -0.053057443 -0.025781129 -0.07644404 -0.037646882
-0.035513256 -0.035342466 -0.065469615 -0.087020054 -0.04181313 -0.0020293165 -0.038514815 -0.026110392
-0.03935731 -0.01601775 -0.024607535 -0.013249788 -0.053557087 -0.05324547 -0.024069628 -0.046752118
-0.01523676 0.017435323 -0.025853734 -0.122523084 -0.034411706 -0.06551413 -0.071349494 -0.005515985
-0.068323486 -0.017164536 -0.033863116 -0.03177181 -0.03996068 -0.00043100832 0.002783486 -0.04679628
-0.034247726 -0.051131323 -0.08204937 -0.019702677 -0.021765599 -0.034963794 0.022842407 -0.05749584
-0.005666629 -0.04245685 -0.03200729 -0.04862447 0.015689343 -0.059962746 -0.0703719 0.01466238
-0.06805819 -0.048463643 0.020402536 -0.025823958 -0.053948108 -0.03210203 -0.010969193 -0.064690486
-0.082060486 -0.037042 -0.024623867 -0.018206242 -0.03347973 -0.043723166 -0.10885117 -0.023672998
-0.03674378 -0.004809559 -0.03408299 -0.10045393 -0.016122924 -0.032637034 -0.018593254 -0.047753196
-0.011204953 -0.06632077 -0.043335587 -0.015810521 -0.01878721 -0.018190388 -0.057198215 -0.022752533
-0.059106845 -0.027331749 -0.06935542 -0.02121688 -0.058542304 -0.023975056 -0.00640371 -0.040317003
-0.04553263 -0.040538207 -0.062003013 -0.065505296 -0.028660217 -0.07371306 -0.08075053 -0.065025195
-0.029917048 -0.08227399 -0.079704486 -0.05025684 -0.022850985 -0.017028052 -0.049013775 -0.008965442
