best_model.pth (torch, 714082 bytes, 20 tensors)

layers.0.weight f4 [128, 633]
00000000: badb a43c 9775 753c 2fa9 8c3b 009e 603c
00000010: 453c 84bc 855a 51bc 3df7 a4bc a3b1 fa3b
00000020: f5ba 733c 709f 2dbd e046 123d 1fac 761d
00000030: 60fb ac3c d9eb 7abc 2a74 d63a 8c7f 54bb
00000040: d23b 733d 81df 5bbc 23ae 9cbc c3b1 893b
00000050: a304 8dbc 9da3 0f3c 18c8 109d bd46 4c3d
00000060: 7187 10bd e8c8 37bc 95dc b7bc bef4 1bbc
00000070: b7b6 f6bc 70d5 46bd 009e eb3b 58ff 20bd
00000080: e895 583d 71bc 29bc 1f5e 883c 8f1c eabc
00000090: c33e 803a 2af0 393d 6fed 95bb 567a 283c
000000a0: a6ea 33bc e6c5 dbbc b7d2 153d 7dd5 013c
000000b0: c84c 643b 7047 261e ca58 093d 86c6 d43a
000000c0: f93c 2b3d b18e 09bd da79 b2bc 392f 00bd
000000d0: 9f36 b33c e254 7e3d 3c4d 673c 83bb 093d
000000e0: 9612 82bb 24da d9bc b206 ea3c bbaf acbc
000000f0: 17ea b4bc 73cb 2a1e 1349 f63c fdd0 b73c
00000100: 7c29 633c b90f 41bc 1113 073d ca45 1cbd
00000110: 3420 499e dc9a b3bc 6f3a f23c a342 d33c
00000120: a78a d33c ae23 debc abf4 829e 5392 05bd
00000130: 92d0 0ebc 803c 8fba 8a05 29bb 230c 38bb
00000140: 6df0 993c 35bb 9dbc c9c7 b33b b466 71bc
00000150: 817a 8a3c f8ef 3d3c 1fac bdbc 4d8e d3bc
00000160: c1ae eebb 6351 8f38 c42f f93c a03d 4abd
00000170: a7f6 b6bb 3ded 93ba ddc8 31bb c8fa 49bd
00000180: 0b15 833d 97aa 2d3d 0068 91bb 830f 38bd
00000190: bf2e 10bd b994 34ba eb82 173c 46c1 3bbd
000001a0: 5bfb e6b9 bdb0 3abc e96a 6cbd c450 5cbd
000001b0: f49b 293c 4449 8abd 7165 203d 014e 04bb
000001c0: 7f3f 2d3b 9216 96bb c9dc 92bc 9015 a6bc
000001d0: 6a5e 1ebd c6fe d0bc 6cb0 e4bc 344d b4bb
000001e0: cef8 183c b978 b0bc 5328 4ebb 777c 48bd
000001f0: 52c8 8dbd ff3e 063c 6e63 44bd cbd8 64bd
00000200: 834c 813d 6724 223c 5da0 0d3c 1829 8fbc
00000210: f28c 47bc e3d5 cd3c dc43 a2bc 699b 03bd
00000220: c1c8 d5bc 4c25 0dbd 3c12 a23d 1ffc 0bbc
00000230: 02fa 06bc 1bba acbb 4b6e 30bc 0e46 a8bb
00000240: 275a 6fbc 05bc 01bc d47c 583c 22a4 603c
00000250: d87f 8f3d 5521 f4bc 55b3 2f3c 91d5 0ebd
00000260: 3fb9 a13c 9cd9 aebc 286d f81e de2d c9bc
00000270: 74fb 541e 85a4 e23b 0fa9 8d3c bbfe bb3b
00000280: ca6c ca3c 3705 4bbc 69ce 0c1c af3b 181f
00000290: f1bb 753b bfdc dd3c a793 bebc 587a 203d
000002a0: 24bc 96bc 6530 a53c b8ed e3bc 1222 a33b
000002b0: 79ec 2c3d 3e13 96ba b515 08bd f85b 019e
000002c0: 85db 88bd e7b4 d83c 3d9d f23b 670f 4fbd
000002d0: ef8c b93c ce45 0abc 289f 20bb a7cd 2fbd
000002e0: eb49 553d 62c6 ae3a cd30 0e3d 5acb 5bbc
000002f0: 495b 3cbd d150 14bc 8eab fbbc 8fc7 0bbc
00000300: 6155 01bc d080 999b 6ded 92bc d290 afbb
00000310: 1b9c a239 091d 92bc e20f dabb 74be 4e1d
00000320: d5f1 05bd d697 fb3c 0974 3fbc 06c3 939d
00000330: 3417 04bc cfd9 e7bb fe1d 53bc c2b2 75bc
00000340: f3a5 7abc 56e5 a03c 12f0 783d 1642 201d
00000350: 393d a1bb b0b4 63bd 9fa2 713a a875 633d
00000360: 4c13 f33b 4abe 613d 2193 bbb9 037a 4bba
00000370: 4ca7 3bbc 781d 113c 4184 7bbd bbd5 89bb
00000380: a702 60bd 06e7 b99e de43 923c 527e 85b9
00000390: 6339 023d b4da c0bc ab86 2ebd c08f 4b9e
000003a0: 1ee8 803b e6c5 e23c 5894 a83c 4a48 413c
000003b0: 9bee f1bc d679 01bd 91c3 d03c e5a4 a4bc
000003c0: 9a47 2ebb 7974 003c 47af 03bd 7d78 0bbd
000003d0: 8716 803c faba bfbc e39d 149e 7d33 843c
000003e0: f689 243c 9d29 b23c 321b 0cbd 5fa8 a7bb
000003f0: 16e9 5c1d df76 189d a209 223b e498 10bd
0.020124305 0.014981649 0.004292629 0.013709545 -0.01614202 -0.012777929 -0.020137424 0.0076505705
0.014876117 -0.04238838 0.035712123 3.2646813e-21 0.021115959 -0.0153150195 0.0016361524 -0.0032424657
0.05938322 -0.013419987 -0.019126004 0.004202099 -0.017214125 0.008767036 -1.9161687e-21 0.04987215
-0.035285417 -0.011217333 -0.022444049 -0.0095188 -0.030116422 -0.048543394 0.007190466 -0.039306015
0.052877337 -0.010359869 0.016646443 -0.02857807 0.000978433 0.045395054 -0.0045754234 0.010283073
-0.0109812375 -0.026827764 0.036577906 0.007924435 0.0034835804 8.80274e-21 0.03353194 0.0016233481
0.041806195 -0.033583347 -0.021786619 -0.031295035 0.021876631 0.06209267 0.014117535 0.03362609
-0.003969501 -0.026593275 0.028567646 -0.021079889 -0.022084279 9.041797e-21 0.030064141 0.02243852
0.013864871 -0.011783534 0.032977168 -0.038152494 -1.0647511e-20 -0.021924429 0.029568879 0.02578861
0.02582295 -0.027116623 -1.3865478e-20 -0.03261025 -0.008716719 -0.0010928065 -0.0025790655 -0.0028083406
0.018791402 -0.019254306 0.0054864627 -0.014733959 0.016904118 0.011592858 -0.023153363 -0.02582469
-0.007284016 6.833931e-05 0.030418284 -0.049375176 -0.0055836025 -0.0011285912 -0.002712778 -0.04931143
0.06400498 0.042399015 -0.0044374466 -0.044936668 -0.03520083 -0.00068886165 0.009247522 -0.045838617
-0.00044056293 -0.011394677 -0.057719145 -0.05378796 0.0103521235 -0.067522556 0.039159242 -0.0020188096
0.0026435552 -0.0045803273 -0.017927544 -0.020273954 -0.03866426 -0.02551211 -0.027916156 -0.0055023674
0.009336663 -0.02154194 -0.003145714 -0.048946824 -0.06922974 0.00819373 -0.047946386 -0.055870812
0.063134216 0.009896374 0.008644191 -0.01747565 -0.0121796 0.025126403 -0.019807748 -0.032130633
-0.026096703 -0.034459397 0.07913634 -0.008543997 -0.008238317 -0.005271209 -0.010768483 -0.0051353043
-0.014608896 -0.0079183625 0.013213355 0.013711007 0.07006806 -0.02980105 0.010723908 -0.03487164
0.019741653 -0.021343999 2.6303167e-20 -0.024558004 1.1275186e-20 0.006916585 0.017292527 0.0057371533
0.024710078 -0.01239138 4.6588893e-22 3.223662e-20 0.0037496055 0.027082799 -0.023263765 0.039179176
-0.01840026 0.020164678 -0.027823314 0.0049784267 0.042217705 -0.0011449826 -0.033223826 -6.848222e-21
-0.06682495 0.026453448 0.007403998 -0.0505518 0.02265021 -0.008439494 -0.0024508927 -0.042920735
0.052072447 0.0013334269 0.03471451 -0.013415182 -0.045985494 -0.009052471 -0.030721452 -0.008531465
-0.007893891 -2.539497e-22 -0.017935479 -0.00535784 0.00031015355 -0.01783611 -0.0066547254 2.7362335e-21
-0.032701332 0.03071205 -0.01168538 -3.9112226e-21 -0.008062173 -0.0070755254 -0.012885569 -0.014996232
-0.015298354 0.019640606 0.060775824 2.120999e-21 -0.0049206284 -0.05559224 0.0009217653 0.055532128
0.007418072 0.055113114 -0.0003577704 -0.00077620166 -0.011453461 0.008857124 -0.061405424 -0.004206387
-0.05469003 -1.9683186e-20 0.017854627 -0.00025461853 0.03179301 -0.023541786 -0.042608898 -1.0776457e-20
0.0039339205 0.027682256 0.020578548 0.01179702 -0.029532721 -0.031610332 0.025483878 -0.02009816
-0.002659297 0.007840269 -0.03214958 -0.034050453 0.015635742 -0.023404587 -7.867705e-21 0.016137833
0.010042658 0.021748358 -0.034205623 -0.005116507 2.923726e-21 -2.0178487e-21 0.002472498 -0.035302058

layers.0.bias f4 [128]
00000000: 1c8c 5b39 e634 1f39 8428 46b9 022a a4b8
00000010: 17a7 13b9 a628 a339 5924 efb8 beac 3538
00000020: 6642 af38 cfe7 08b9 435f 0639 d66b 1938
00000030: f4d8 aeb8 8d99 8fb9 d448 0238 a0cf d138
00000040: 8a68 7739 7054 e138 e0be 24b9 e210 2d38
00000050: e532 63b8 85c6 7339 88ea beb8 37ce 7038
00000060: 0814 1037 30b8 32b6 49f4 0937 737d 36b8
00000070: cc05 4cb8 2bac ecb9 924a 8e38 448a 7239
00000080: 282d 3bb7 b2bc 53b9 f2e7 f4b8 65b0 0038
00000090: def9 8e38 b021 55b9 dcd1 0cb9 1919 acb9
000000a0: 0094 cfb8 e0cf afb8 587f 90b7 4171 9039
000000b0: df0d a3b9 97d5 8ab9 6b38 0738 2bf5 86b9
000000c0: 1fc4 38b8 fa91 9939 9409 56b8 b0aa 9b36
000000d0: c571 c1b9 d268 64b9 8022 ac38 2293 303a
000000e0: 37be 60b8 d577 10b9 b179 2ab8 06bc 85b8
000000f0: f727 0d39 6f44 fa39 16ef cf38 5ab2 0d36
00000100: 1248 eeb8 6a9a fd37 862a 86b9 2478 3437
00000110: c07d ebb8 ae07 f039 c158 43b7 428c f738
00000120: 372f 7db8 70e4 ceb7 2de0 19b9 fadd 39b8
00000130: 25a4 39b7 61e7 a1b8 39a6 8839 360b 19b8
00000140: a36d 30b8 e87f d5b7 cacb 3938 e28e 0e39
00000150: b28e 063a 0273 9fb7 de50 a839 ac00 cdb6
00000160: 247d 33b8 6ea2 1139 720c 77b8 3291 b6b7
00000170: cf6e 34b8 f42d 3c39 710b d4b8 87da 20b9
00000180: 32ea b039 2b94 6bb8 7e35 f838 fe54 2d39
00000190: 7e35 9939 ec01 90b9 e533 c439 a6a6 c7b8
000001a0: e464 77b9 aef1 4939 5b9b 7139 4e5b 6638
000001b0: 52df 6bb9 e8d2 0439 8ac3 cbb8 0b60 d9b7
000001c0: 280a 1338 0052 b7b3 30db 4439 654d 49b8
000001d0: 1036 403a 4175 ee38 38a1 0db9 1371 92b8
000001e0: 6d43 0f3a d21e 4db8 7121 5a39 e545 9438
000001f0: 8e2d b737 042d fd38 b68b cab7 78fb f8b6
0.00020937662 0.00015183128 -0.00018897845 -7.827954e-05 -0.00014081258 0.00031120068 -0.00011403178 4.331464e-05
8.357018e-05 -0.00013056326 0.00012814724 3.6578473e-05 -8.337377e-05 -0.0002738949 3.106224e-05 0.0001000457
0.000235947 0.00010744564 -0.00015711365 4.1262138e-05 -5.4168417e-05 0.0002324824 -9.103591e-05 5.741251e-05
8.587733e-06 -2.6631278e-06 8.222713e-06 -4.3509015e-05 -4.864279e-05 -0.00045141703 6.7849774e-05 0.00023130426
-1.1156582e-05 -0.00020192823 -0.0001167803 3.068186e-05 6.817629e-05 -0.00020325813 -0.00013429619 -0.00032825096
-9.898096e-05 -8.38337e-05 -1.7225437e-05 0.000275502 -0.00031100117 -0.00026480548 3.223905e-05 -0.00025741136
-4.405167e-05 0.00029291195 -5.1030496e-05 4.6392306e-06 -0.00036896594 -0.00021782823 8.208025e-05 0.00067357917
-5.3582913e-05 -0.00013777551 -4.0644492e-05 -6.376956e-05 0.00013461696 0.00047734703 9.9150624e-05 2.1114452e-06
-0.000113621485 3.0231855e-05 -0.00025590154 1.07568085e-05 -0.00011229096 0.0004578209 -1.164357e-05 0.00011804003
-6.0363873e-05 -2.4663488e-05 -0.00014674729 -4.431417e-05 -1.1065077e-05 -7.720176e-05 0.00026063787 -3.6488484e-05
-4.2063777e-05 -2.545114e-05 4.429723e-05 0.00013595403 0.00051329576 -1.9007832e-05 0.00032103708 -6.1095543e-06
-4.2793472e-05 0.00013888787 -5.890098e-05 -2.1763703e-05 -4.3018543e-05 0.00017946196 -0.00010111079 -0.00015340197
0.00033743825 -5.616636e-05 0.00011835525 0.00016530228 0.0002922229 -0.00027467252 0.00037422698 -9.5201e-05
-0.0002359334 0.00019258886 0.00023041425 5.4921307e-05 -0.0002249454 0.0001266707 -9.716216e-05 -2.591314e-05
3.505699e-05 -8.536517e-08 0.0001877367 -4.7994214e-05 0.00073322747 0.000113705646 -0.00013506867 -6.982884e-05
0.00054650643 -4.8904512e-05 0.00020802558 7.070209e-05 2.1836513e-05 0.00012072365 -2.4145334e-05 -7.4202508e-06

layers.1.weight f4 [128]
00000000: 27c3 793f 4e1d 803f 2bce 813f a025 7d3f
00000010: 34f9 783f 392f 7f3f 0774 7e3f d13f 823f
00000020: 48f3 823f 916f 7d3f a6d2 813f 0a54 7d3f
00000030: 85ab 7b3f d4d3 753f 6418 7e3f 3a51 813f
00000040: 89c0 823f 1caa 7d3f 2de4 7f3f 9c39 7b3f
00000050: c67c 7c3f 6a49 7c3f 14e5 813f 0532 7f3f
00000060: c4e5 803f a0c5 7d3f 45e4 7f3f 3085 7e3f
00000070: 882b 803f fbf9 7d3f 2cf9 803f d258 783f
00000080: f8a4 823f 54cd 803f 359b 813f e40e 7a3f
00000090: 0760 773f 5396 813f 7c96 7b3f 4514 823f
000000a0: 48f1 813f a269 803f 6094 843f a186 823f
000000b0: 0508 813f ff18 803f ce67 783f 2a27 853f
000000c0: dc6b 7f3f fd66 813f ba7a 803f f4bb 813f
000000d0: 6b0d 823f 8dd4 813f 7ef5 803f f162 813f
000000e0: 942f 813f 8d04 7d3f 3a0d 813f 34a8 7f3f
000000f0: e029 833f 673d 803f 7535 833f 77ba 7f3f
00000100: 46fb 7b3f 65e3 7a3f be7f 7f3f e8f8 7e3f
00000110: 9067 813f 46b7 813f 6c07 7f3f 1ba5 7f3f
00000120: b44d 7d3f 2daa 823f ca16 823f c433 793f
00000130: b9bb 7f3f 79be 7a3f 1711 813f 2980 743f
00000140: 2d54 793f 5812 803f e518 803f a905 7d3f
00000150: bfaa 833f b62a 7c3f ef80 7d3f dcfa 803f
00000160: 2c8c 813f 18c9 763f e37f 803f 3355 793f
00000170: c0f0 783f cdce 7e3f 4b97 7e3f 5318 803f
00000180: 5661 843f c2e8 7b3f c744 803f b6e2 793f
00000190: 8b55 7c3f d6c2 7c3f db2b 833f 467e 773f
000001a0: 1a54 803f 8a24 813f 196b 7d3f 44af 793f
000001b0: 5d02 823f 8f41 813f fc7e 7c3f 37ea 743f
000001c0: db72 7a3f 33eb 813f 6c94 7a3f 37b7 803f
000001d0: 6f84 853f d1b1 7d3f 9972 823f bb00 823f
000001e0: cc0f 7d3f e5e5 7e3f 9038 7d3f c7dc 7b3f
000001f0: 15ce 803f f4d8 7b3f 32ae 7d3f d845 7f3f
0.97563404 1.0008943 1.0141042 0.98885536 0.97255254 0.9968143 0.99395794 1.0175725
1.0230494 0.9899836 1.014241 0.9895636 0.98308593 0.9602635 0.9925597 1.0102913
1.0215007 0.9908769 0.99957544 0.9813478 0.9862789 0.9854952 1.0148034 0.996857
1.0070119 0.99129677 0.99957687 0.9942198 1.0013285 0.99209565 1.0076041 0.9701053
1.0206594 1.0062661 1.012549 0.9767897 0.966309 1.0124 0.98276496 1.0162436
1.0151758 1.0032237 1.035778 1.0197335 1.0080572 1.0007628 0.97033393 1.0402577
0.99773955 1.0109555 1.0037453 1.0135484 1.0160345 1.014299 1.0074918 1.010832
1.0092645 0.9883507 1.0082161 0.9986603 1.0247154 1.0018739 1.0250689 0.998939
0.9843029 0.98003227 0.99804294 0.9959855 1.010973 1.0134056 0.996207 0.99861306
0.9894669 1.0208184 1.0163205 0.97344613 0.9989582 0.9794689 1.008334 0.95508057
0.9739407 1.0005598 1.0007597 0.9883676 1.0286483 0.9850267 0.9902486 1.0076556
1.0120902 0.96400595 1.0039028 0.9739563 0.97242355 0.995343 0.99449605 1.0007423
1.0342205 0.98402035 1.0020989 0.9761156 0.9856803 0.98734796 1.0247759 0.9667705
1.0025666 1.0089276 0.98991543 0.9753306 1.0156971 1.0098132 0.9863126 0.95669883
0.97831506 1.0149902 0.97882724 1.0055913 1.043104 0.9909945 1.0191222 1.0156473
0.9885223 0.9956954 0.9891443 0.98383754 1.0062891 0.9837792 0.99093926 0.9971595

layers.1.bias f4 [128]
00000000: 9255 40bd a3b8 51bc ba0c 78bc 6dc4 17bd
00000010: 7fa6 40bd cf8a b4bb 717d 94bd fb1b e2bc
00000020: 30fb d33c 397b 18bd fff7 2cbd 3b30 37bd
00000030: 2e1a 3dbd f6a9 a9bd d964 353c 4483 8bbc
00000040: efde a2bc 0c8d 8fbd 379a 32bd 960f e2bc
00000050: 2737 00bd 2381 86bd 9f3b cdbc 74f1 d3bc
00000060: f586 14bd 8023 e5bc 35e4 733b 489c f5bc
00000070: 1dbd adbc 2891 adbc bfd6 25bd 2a72 d5bc
00000080: 2680 033d 4e77 44bd b68b b53b f76e 28bd
00000090: 8524 f1bc 187d 65bc b040 4cbd 57ee dcbb
000000a0: eb0b 90bc ba83 22bd 9946 17bd 0c6a fa3a
000000b0: 91f3 743c acc9 99bc ac7d d6bc 6e99 84bc
000000c0: 2335 f5bc ab3d a0bb b1c1 4bbd 76c4 e7bb
000000d0: 2f98 25bb 6626 76bd a024 05bd a970 f8bc
000000e0: 7431 0dbd 47e3 4ebc 4bc7 39bd 3244 f1bc
000000f0: 6d68 123c 9a94 9bbc c62c f5bc 3094 94bc
00000100: 3f4d 803b 886c 87bd 1da1 d7bc fb0d 22bd
00000110: 73a7 69bd 5488 f5bc a9f5 e03a d55b 68bc
00000120: 6c8e 32bd 16b7 2abd 192c 07bd 900f 2dbd
00000130: 2e83 d73c e541 13bd 4732 81bc d188 71bd
00000140: 758c 4bbd 8129 0abd 965f 95bd d4d6 53bd
00000150: f867 37bc ab9e fabc 7119 0ebd 8551 ebbc
00000160: 7063 87bc e068 6dbd 6fa0 31bd 5aee 8cbd
00000170: 7b05 3cbd d22d 86bc 00f3 86bd 4283 fa3b
00000180: 7559 f93a 9d3c 26bd ae13 87bd c12e 83bd
00000190: 8bb0 0dbc d3dd 7dbc cef0 d73c 928b 96bd
000001a0: 3b8f ffbc d4c1 53ba 0dcb e2bc 3073 2cbd
000001b0: ed18 e3bb d97f 9fbb 87fd 3dbd 04f3 24bd
000001c0: 75f5 49bd a150 4cbd 0237 69bd f0e1 1fbd
000001d0: e037 94bb 653b bdbc 8592 04bd 5c93 a6bb
000001e0: 6625 7dbd d40c 3abd 99dd 0fbd eaa1 67bd
000001f0: 05f0 9fbc e8b3 22bd 6f6a ffbc ca45 17bd
-0.046956606 -0.0128003685 -0.015139753 -0.03705256 -0.047033783 -0.0055097113 -0.072504885 -0.027601233
0.025876611 -0.03722689 -0.042228695 -0.04472373 -0.046167545 -0.082843706 0.011071407 -0.017030366
-0.019881694 -0.070093244 -0.043604102 -0.027595323 -0.031302597 -0.065675996 -0.025052844 -0.02587197
-0.036261518 -0.02797103 0.003721488 -0.029981747 -0.02120834 -0.02118738 -0.040488 -0.026055414
0.032104634 -0.04796534 0.0055403365 -0.04112145 -0.02943636 -0.014006875 -0.04986638 -0.0067422795
-0.017583808 -0.039676405 -0.03693256 0.0019105091 0.014950649 -0.018772922 -0.026182972 -0.016186442
-0.029932564 -0.004890164 -0.049745265 -0.0070729805 -0.002526771 -0.060095213 -0.03250563 -0.030327158
-0.03447099 -0.012627429 -0.045356076 -0.029451463 0.00893603 -0.018991757 -0.029928576 -0.018137068
0.0039154585 -0.066124976 -0.026321942 -0.039564114 -0.057044458 -0.029972233 0.0017163056 -0.014182051
-0.043592855 -0.04167851 -0.03300104 -0.04225117 0.026307669 -0.035951514 -0.015771044 -0.05896837
-0.049694497 -0.033730987 -0.07293622 -0.051718548 -0.011194222 -0.030593237 -0.03469223 -0.028725395
-0.016526908 -0.057961345 -0.043365892 -0.068813995 -0.045903664 -0.01637927 -0.06589317 0.0076450417
0.0019023853 -0.04058515 -0.065955505 -0.06405402 -0.008648048 -0.015494782 0.026359942 -0.0735084
-0.031196227 -0.0008077894 -0.027684713 -0.04210204 -0.0069304616 -0.0048675356 -0.04638436 -0.04027082
-0.04930635 -0.04988158 -0.056937225 -0.03903383 -0.0045232624 -0.02309961 -0.032366294 -0.0050834846
-0.061803244 -0.04542239 -0.03512344 -0.056550898 -0.01952363 -0.039722353 -0.031178681 -0.03693179

layers.1.running_mean f4 [128]
00000000: 009a bebc e963 d6bb 451a 313c af37 2ebb
00000010: bed8 adbc 044c b4bb 7bb9 933b 9972 133c
00000020: d98e 2d3b 0c0d 3b3a 6033 e53b 20e6 1f3c
00000030: d081 b03c 2c6f 3f3c efc3 8d3a 1fc3 fe39
00000040: 0faa 5bbc 8d86 733c ad54 863a 24e1 e63a
00000050: 6640 e2ba b66a 1b3c eebf e43c 3341 d83b
00000060: 264b a43c 5f14 af3a 2521 49bc 3e7c 2abc
00000070: e57d e53b a5d4 20ba bf0c 72bc 09ed 043c
00000080: a8d3 3539 8703 5a3c 63a7 1cbc 76f6 06bb
00000090: fc84 1cbb 126d 1a3c 518e 0fba b4ee 883c
000000a0: 47c3 4b3c e68b c2bc e02c 19b9 ccd8 5bbb
000000b0: cd2d 463c 2eb0 96b9 b8e1 adbb d125 0a3b
000000c0: 2dea 4cbc 9f9b dabb d63e 4bbb 69a7 0d3c
000000d0: 5305 1dbc 2793 233c d394 a93a 636d 863c
000000e0: a313 dcbb cec3 c43b a4b2 033c 7891 9a3c
000000f0: 086d e4bc d944 883c a8e0 1ebc 42d0 913b
00000100: c4dd cb3b 0f26 763a ff0c 4bbc b7a2 523c
00000110: 1fcb 843c b1d3 30bc ae4b 253c ba0f a9bc
00000120: bf18 5ebb b070 0bbb 1448 cb3c dfb2 a9bc
00000130: ee3c f23b c81a d63b 0c73 cd3b d281 423c
00000140: e290 d4bc 22ec b6bb a8d6 58ba feaf 8e3c
00000150: b1fb f939 748f b5bc 940c d5bb 3cd3 a73c
00000160: 0737 583c 8b9d 40bc 867a 6c3b 7e5a 193c
00000170: 5c72 903a 6794 14bc f0d4 4c3b 256e e63a
00000180: 025b 013c 4edb a7bc 1636 a1bc 22d8 973c
00000190: a593 6e3c 3a78 dd3c 9da5 02bc 044c 1bbc
000001a0: e418 1a3c 3e75 dabb b4bc 05bc 7d24 493c
000001b0: f8a9 663c 6d37 ad3c c674 acbc 7b9d febc
000001c0: a9fc fe3b 3ede bc3c db61 1abb c689 cc3b
000001d0: d1f4 3d3c d657 5a3c 69f8 983c 9c7a 11bc
000001e0: 42c9 9f3c bdf3 ab3c e0e8 67bc 96f9 703c
000001f0: 5ae8 383c ed3c f33b 8c92 2a3b 6e3c 963b
-0.023266792 -0.006542672 0.010809486 -0.0026583483 -0.021221515 -0.005502226 0.004508195 0.00899949
0.002648285 0.0007135428 0.00699465 0.009759456 0.021546274 0.01168422 0.0010815839 0.00048592032
-0.013407244 0.014863622 0.0010248624 0.0017614705 -0.0017261624 0.009485891 0.02792355 0.006599569
0.020055365 0.0013357511 -0.012275969 -0.010405598 0.007003533 -0.0006135202 -0.014773547 0.008113154
0.00017340353 0.013306505 -0.0095613925 -0.002059368 -0.0023882976 0.009425418 -0.0005476224 0.016715385
0.012436694 -0.02374835 -0.00014607934 -0.003354597 0.012095881 -0.00028741494 -0.005306449 0.002107967
-0.012507004 -0.0066713835 -0.0031012795 0.008645871 -0.009583789 0.009983814 0.001293803 0.016409582
-0.006716208 0.006004787 0.008038197 0.018868193 -0.027884021 0.016634392 -0.009697117 0.004449875
0.006221505 0.00093898264 -0.012393235 0.012856177 0.016210137 -0.010792659 0.010088844 -0.020637382
-0.0033889262 -0.0021276884 0.024814643 -0.020715175 0.0073925173 0.0065339543 0.006269818 0.011871772
-0.025947992 -0.0055823484 -0.00082717324 0.017417904 0.00047680506 -0.02216313 -0.0065017436 0.020486467
0.013196713 -0.011756311 0.0036083772 0.009359954 0.001102041 -0.009068585 0.003125485 0.0017580433
0.007895233 -0.020490315 -0.01967911 0.018535677 0.014561568 0.027034868 -0.007974056 -0.009478573
0.009405348 -0.0066668084 -0.008162666 0.012276766 0.01407861 0.021144593 -0.021051776 -0.031080952
0.0077815843 0.023055192 -0.0023556862 0.00624201 0.011594013 0.013326606 0.018673139 -0.00887933
0.019505147 0.020990247 -0.014154643 0.014707943 0.011285866 0.0074230344 0.002602729 0.0045848405

layers.1.running_var f4 [128]
00000000: 29ae b73a 7a91 a43a d517 8b3a 5c9d b23a
00000010: 374d dc3a 3de7 ab3a 365c 963a 0f30 8a3a
00000020: 3b0c b43a a67c b63a 470d a53a 7e40 a23a
00000030: be50 e63a 4251 a43a 3467 0e3b a8d9 a13a
00000040: 1944 8c3a 07f1 9d3a 7dc0 a53a 69b8 a63a
00000050: 25b0 873a 4064 8d3a d53b 9d3a 7988 863a
00000060: e5bf b03a 6b4b a53a c5d3 d43a 6083 b33a
00000070: adc7 8d3a cb71 c33a d9f0 8d3a 14b9 a33a
00000080: 4cc3 ae3a a066 693a 4e82 9a3a b08a ce3a
00000090: a295 f33a 8ec2 8c3a 54de b83a 4979 913a
000000a0: cb57 8b3a 470c 953a d391 8c3a 451c a03a
000000b0: ab49 fb3a 12a3 b03a 2ff7 a83a 712c 8c3a
000000c0: 1670 963a a9cb b43a 6174 993a 6937 b73a
000000d0: df0b a33a 251f 8a3a ad13 9b3a 331b b73a
000000e0: acfc bd3a a54a a43a 1355 bb3a 3424 b23a
000000f0: 4bab a53a e2bc d13a 9118 a53a cb40 b23a
00000100: 9092 c63a 9c59 953a f3a1 c53a c04a ae3a
00000110: 49bd 953a d8b4 a03a e286 b93a 8131 f43a
00000120: b128 e53a 3091 713a 1c02 8c3a ba96 913a
00000130: 787d c23a 2849 8d3a e751 9b3a 0f5c 023b
00000140: 1b78 a53a 006e 8f3a 9df7 8f3a 080d 8f3a
00000150: 70b5 ad3a 4bce 923a c641 c23a 9174 8f3a
00000160: 87db 933a 96fc be3a 1d11 943a 589b 913a
00000170: a3cb b73a 26ee b23a 2ea4 a73a 09c6 b33a
00000180: 853b 873a 7fb6 953a 1edb 903a 5887 883a
00000190: 9bf2 063b dd64 bf3a 7004 9f3a b8b0 b03a
000001a0: 7cea 9f3a 336a a83a dcfb bc3a 9be3 a83a
000001b0: 066f 903a 3bdc cc3a c840 a23a 6b21 eb3a
000001c0: a41d a63a 4731 713a ede0 8c3a eb35 be3a
000001d0: 3fe3 8c3a e8c4 d23a 16e3 8d3a d3f0 953a
000001e0: 749a c43a 54a2 a83a 58a8 af3a 83a8 bb3a
000001f0: f12d 9e3a 7acf af3a 585c 8f3a 1ffc a93a
0.0014013696 0.0012555562 0.0010611961 0.0013627219 0.001680768 0.0013115179 0.0011471573 0.0010542887
0.0013736555 0.0013922646 0.0012592458 0.0012378839 0.001757167 0.0012536424 0.0021728994 0.0012348192
0.0010701447 0.0012049981 0.0012645867 0.0012719753 0.0010352178 0.0010787323 0.0011995981 0.0010264061
0.0013484923 0.0012610977 0.0016237429 0.0013695769 0.0010816954 0.0014911232 0.0010829224 0.0012491071
0.001333335 0.0008903537 0.0011788101 0.0015757885 0.0018584023 0.0010739134 0.0014104345 0.0011098768
0.0010631023 0.0011371457 0.0010724611 0.0012215456 0.0019171735 0.0013476333 0.0012891049 0.0010694397
0.0011477496 0.0013793606 0.0011707657 0.0013978306 0.0012439451 0.0010537846 0.0011831425 0.0013969898
0.0014494858 0.0012534453 0.0014292322 0.0013591112 0.001263955 0.0016001726 0.0012595822 0.0013599632
0.001514988 0.0011394504 0.0015078172 0.0013297424 0.0011424209 0.0012260927 0.0014154578 0.0018630476
0.001748344 0.0009215055 0.0010681781 0.0011107542 0.0014838418 0.0010779249 0.001184997 0.0019891297
0.0012624295 0.0010942817 0.0010983829 0.0010913918 0.0013252925 0.0011200396 0.0014820627 0.0010944774
0.0011280634 0.0014571126 0.0011296604 0.0011108918 0.001402248 0.0013651296 0.0012790018 0.0013715635
0.0010317421 0.0011422186 0.001105163 0.0010416312 0.0020591381 0.0014602203 0.001213206 0.0013480401
0.0012200619 0.0012849033 0.0014418322 0.0012885215 0.0011019416 0.0015629599 0.0012378925 0.0017939036
0.0012673629 0.00092007633 0.0010748185 0.0014511918 0.0010748877 0.0016080411 0.0010825123 0.0011439569
0.0014999644 0.001286576 0.0013401611 0.0014317188 0.0012068135 0.0013413273 0.0010937555 0.0012968815

layers.4.weight f4 [256, 128]
00000000: 14a9 073c 78a8 81bd f3d4 82bd efb9 f23d
00000010: dcc1 0f3c f271 4ebc d9ec 6f3d 5c68 023e
00000020: 8267 febc cc79 b6bd 40e2 00bd 1546 98bc
00000030: 712f 793d f727 333b bd49 8ebc 1c72 b33d
00000040: bd4a 7ebd 75cf 123c 532a 013d da02 4cbc
00000050: 3875 43bc d083 8abd 1fa0 2fbd 9480 4a3d
00000060: 9d7c 633d 1760 e03c 3c38 bbbc 7c08 ecbd
00000070: f505 bb3b 34d2 523d 3dfc 69bd b72e babd
00000080: 6dc9 b73c 98c1 e13c 9a98 8dbd 778b babd
00000090: 388b efbc 1637 c6bd 2043 9abc e2ed f0bc
000000a0: 2c84 033e e9bc a73d 8b3f 4fbd be6d 973d
000000b0: 1afc 6c3d 8093 91bc 2fa9 2e3d 950e 1e3b
000000c0: baa1 6abd b43e 10bd 1481 39bd e4fe 9f3c
000000d0: 619d 0fbc 68e2 eb3c ed88 b0bd 1fd1 4a3d
000000e0: 02e2 b03d 752f 643c f1c5 963d a890 fc3c
000000f0: 35d1 ffbc 602d e9bc ab8c 723d 25fe af3c
00000100: 8f0e 2cbd 0723 003d 9678 acbd edd2 84bc
00000110: c7fc 473b fbc6 74bc 9e0d 993d 41dc 1d3c
00000120: c9f5 0bbc 0961 4239 a45a 893c c2b3 523d
00000130: 1045 8a3c 0891 933d bbf7 18bd 7889 1abc
00000140: 9f93 343d d2ca 95bd 149a dbbc 801d 40bd
00000150: 8cbb 60bc 1348 fdbc 50d5 043d 4ab2 eabd
00000160: 73f2 8dbd 0059 80bd 2733 c03c cd1a 74bd
00000170: 0905 bb3d c918 22bd ad8b cdbb 058c b2bd
00000180: 8449 e03d c54f 733b ea23 6bbd 1369 913d
00000190: d61c 6cbd 99c9 cd3d d773 293d 111a 2ebc
000001a0: cdd2 1fbd 707e 483d a602 983d d583 b4bd
000001b0: 2cae dbbd 9fc9 cabd 8fe1 adbc 10c0 46bc
000001c0: 120c d53c 403e aa3b 3c60 dabd 29cb 703b
000001d0: a361 153c b6eb a23d 4ad0 0a3c 61c0 2d3c
000001e0: 2903 1e3d d897 82bb 89f0 3c3c 8a4e 3b3d
000001f0: c47e 14bc cd5f cc3d faae 25bd 20d1 773d
00000200: b4f5 98bc 414c babc 0aa3 893a db95 373d
00000210: 3625 b33c e1d6 cfbd 6170 b63d 1e02 41bd
00000220: a1f1 28bb f357 cabc b6a3 38bd 0157 febd
00000230: 04d2 e4bd f55f 90bd f868 203d b73e 8dbb
00000240: 077c f13c 7993 8d3d 5bf6 6e3d 431e 383d
00000250: e33b 2abc 0d68 86bd 9ea7 42bc d130 2abd
00000260: 8cdc 293d 80e4 2abc 8da1 f2bd 039b adbd
00000270: ce86 643d 77ce f3bd b370 89bc 8c76 9a3d
00000280: d7de bcbd ae1e ad3c b6be 393d b6b3 a33c
00000290: dce8 2b3d be32 933c b94a 2c3d 135f 8cbd
000002a0: b3db 363d adef 75bd 7eb0 a5bc 9a8b acbd
000002b0: 6041 37bd 21bb fc3c 0bc3 86bc 0b2a 00bc
000002c0: d533 89bb a033 69bd 9e12 cabd 2cd7 a6bd
000002d0: cbd1 56bd b99f 333d a388 77bd 47b2 c0bc
000002e0: 240d c63c 1a9f 94bd 1769 4ebd 566d 30bd
000002f0: 0d63 6abd 8725 563c 6bbf 073d 9ea9 123b
00000300: b1f1 9abb a704 50bc 3a81 8dbd 9c98 b23d
00000310: cebb 293b 3ad4 47bd 0ca3 e33c 1158 533d
00000320: 7f22 b63b 9677 c13d babf 673d 16b4 093d
00000330: 3e98 de3d 5297 e93c 5366 6c3c 0678 893c
00000340: a48a 463c 337d 04bd 79e7 0e3d e732 cb3b
00000350: d40d 47bd 90b0 113d bb4c 023c 27d7 21bc
00000360: f3f9 683a 6880 33bd 86aa c6bd 86ed 333d
00000370: 7d46 5e3d 2f24 34bd 310d a8bd c5a6 183d
00000380: 3509 3dbd 038f 9ebd 4832 d4bc 4a7e 09bd
00000390: 4d12 5e3c 7d32 1f3d 979d d8bd 3177 a43d
000003a0: 33f4 8abd dbc1 6abd f601 733c c36f 9a3c
000003b0: 1d12 06ba 2a6f b9bd a7ae bc3c 28a7 38bd
000003c0: 59be 6cbd f0d7 c93d 9ee7 23bd fdba 9d3d
000003d0: c40f a5bd 07ff cf3d 4b4d 6e3d 1b8e d23c
000003e0: 119d fbbd 2389 a9bd 8149 c73b bb22 15be
000003f0: 2fad c03d 118c 94bd 08a3 c2bc 6c6a 87bd
0.008280057 -0.06330961 -0.06388273 0.1185187 0.008774247 -0.012600409 0.058575485 0.12735122
-0.031055216 -0.0890995 -0.03146577 -0.018588105 0.06083626 0.0027337053 -0.017369146 0.08761999
-0.062082995 0.008960594 0.031534504 -0.012451852 -0.011929803 -0.067634225 -0.042877313 0.049439028
0.055538762 0.02738957 -0.022853963 -0.11525056 0.0057074972 0.051469997 -0.05712532 -0.090909414
0.022434914 0.027558133 -0.06913872 -0.09108632 -0.02924119 -0.096784756 -0.018830836 -0.029410306
0.12843388 0.08190329 -0.05059771 0.073939785 0.05785761 -0.017770529 0.042641815 0.0024117578
-0.05728314 -0.03521605 -0.045289114 0.019530721 -0.008765549 0.028794482 -0.086198665 0.04951584
0.086368576 0.01392733 0.07361973 0.030830696 -0.031227687 -0.02846402 0.059216183 0.02148349
-0.04200607 0.031283405 -0.084214374 -0.016213859 0.0030515657 -0.014940019 0.074733004 0.009635032
-0.0085424865 0.0001853743 0.016766854 0.05144096 0.016878635 0.07205397 -0.03734563 -0.009432189
0.044086095 -0.073140755 -0.026806869 -0.046903133 -0.01371659 -0.030918157 0.032429993 -0.11459787
-0.06931009 -0.062669754 0.023461891 -0.05959587 0.0913182 -0.03957442 -0.006272754 -0.08718113
0.10951522 0.0037126404 -0.057407297 0.071001194 -0.057644688 0.10048217 0.04137024 -0.010626332
-0.039019395 0.048948705 0.0742238 -0.088142075 -0.1072658 -0.099017374 -0.021225719 -0.012130752
0.026006732 0.005195409 -0.106628865 0.0036742187 0.009117517 0.079551145 0.008472512 0.010604949
0.038577233 -0.0039853863 0.011531957 0.045729198 -0.009063426 0.0997921 -0.040450074 0.06050217
-0.018671848 -0.022741439 0.001050086 0.044820648 0.02186833 -0.10148407 0.08908153 -0.04712116
-0.0025778788 -0.02470014 -0.045078002 -0.124189384 -0.1117287 -0.07049552 0.039162606 -0.0043104547
0.029478086 0.06912894 0.05834041 0.044950735 -0.010390255 -0.06562815 -0.011880783 -0.04155046
0.041470096 -0.010430455 -0.118472196 -0.08476832 0.055792622 -0.119046144 -0.016777372 0.07542142
-0.09222191 0.021132793 0.04534789 0.019983154 0.04197012 0.017968532 0.04206345 -0.068540715
0.044643115 -0.060043026 -0.02022576 -0.084250644 -0.04474008 0.030850949 -0.016450426 -0.007822524
-0.004187087 -0.056934 -0.09866832 -0.081465095 -0.052446168 0.043853495 -0.06043304 -0.02352251
0.024176188 -0.07256909 -0.05039319 -0.04307302 -0.05722337 0.013070471 0.033141535 0.0022378932
-0.004728519 -0.012696422 -0.06909414 0.08720514 0.0025899294 -0.04878638 0.027787708 0.05159766
0.0055583115 0.09446637 0.05657933 0.03361901 0.10868882 0.028514538 0.014428693 0.016780864
0.012118015 -0.03234596 0.03488872 0.0062011364 -0.048597172 0.035568774 0.007952864 -0.0098779565
0.0008887343 -0.04382363 -0.097004935 0.043927692 0.05426644 -0.04397982 -0.08205641 0.03726842
-0.04615136 -0.07742121 -0.025902882 -0.033567704 0.013554168 0.03886651 -0.10576933 0.080305465
-0.067848586 -0.05731378 0.0148320105 0.01885212 -0.00051143934 -0.09054406 0.0230325 -0.045081288
-0.057798717 0.0985564 -0.04001581 0.07701681 -0.08059648 0.101560645 0.05817918 0.025702527
-0.122858174 -0.0827811 0.0060817604 -0.1456403 0.09408032 -0.07253278 -0.02375938 -0.06612095

layers.4.bias f4 [256]
00000000: 11de 01b7 a130 cdb5 7084 90b4 1929 e634
00000010: f23a 2bb7 2403 ebb5 dc1b da36 5c2c 1b36
00000020: 6292 b435 07df a5b4 2d2c 4835 b178 cf36
00000030: 4a24 0c35 5d3a 9a37 a87d 8a33 fadf 17b7
00000040: c4cf cdb6 62f1 f336 c6eb 7736 af8d 10b6
00000050: 41e8 4136 2d0e 6936 708a 3b35 4a53 f1b6
00000060: cd73 b2b5 8006 62b6 a031 5336 7fcc bf36
00000070: f1b6 d1b6 c09a c2b5 5f9d 7236 fe52 3cb4
00000080: d038 3637 828a 8735 f94a b8b5 84df 52b4
00000090: 6905 ac37 2424 4c36 414c 14b8 3853 b0b4
000000a0: d46f 02b7 205a 8936 3e6c 9e36 4058 5933
000000b0: 98bf 1c37 edbc 4c36 31bb cb37 a662 3735
000000c0: d705 ba37 66e9 8436 2521 a635 c07e b3b6
000000d0: 8cf3 acb5 6f6d b3b5 56b7 97b6 0dda bab6
000000e0: 5043 abb6 b02e 6235 14a9 edb6 b037 1cb7
000000f0: c3b0 8fb6 f675 bcb4 daf2 ec35 e39b 9a36
00000100: 30c3 bd35 8c2e 7735 1417 6e36 a7fb 5db6
00000110: 3c78 2835 8ba5 1736 7a17 f636 56a3 61b6
00000120: eceb 21b6 53f8 5a35 8149 bcb6 5dbb a2b6
00000130: 2fa7 35b6 1392 b2b6 aa36 64b6 81f0 9735
00000140: a41f beb5 441f 5236 16cb f335 4fcc e2b5
00000150: f82f 82b6 94a2 52b4 b6b9 6cb5 6d94 8fb6
00000160: 8f19 8bb6 daf9 9cb7 0c45 4536 8632 c8b5
00000170: a4bc 34b5 5cbb d534 9cda 2f37 4b87 0eb5
00000180: a2a7 4d36 a3a9 31b7 e0bc 2c34 beef 40b6
00000190: 9a4c 7b36 1833 e936 61d3 dc36 0b0f 84b6
000001a0: e2eb 0b37 00a4 be36 587d 6fb6 ca9b 1cb6
000001b0: cc9e bd35 12c9 4b36 532f 9436 edd3 dbb6
000001c0: 9400 06b5 9df7 8bb6 a2d3 a035 9868 1836
000001d0: ad88 9037 fb7e 34b6 18ac 4737 b0fc cab5
000001e0: fb4d fd36 c445 8236 19e6 b2b6 da98 bbb6
000001f0: 1f1e 0037 6a4b ef36 bcd6 46b6 53c3 4136
00000200: 9b5a 0736 93ba 3d37 bac0 7737 b7df 1d37
00000210: 2d4c 7735 5ec3 32b6 55b1 a836 4bfa 02b6
00000220: 4059 c2b6 2ab7 06b5 8258 1f36 beb2 5635
00000230: 409f b035 d693 6a36 0a97 4636 1e28 e0b6
00000240: 22cb 25b5 f01b b233 3696 ad35 2c58 f435
00000250: 7c8b 29b5 648d 19b6 de58 3cb5 801c eeb2
00000260: f815 c8b6 43cf 1eb6 b451 aab4 2c38 8136
00000270: 3af7 4a36 afaa 6bb6 5a95 a336 5e1d 0b37
00000280: 71e4 b735 05ec acb5 d7ba b9b7 ccba 7136
00000290: ee2d beb5 4be8 b1b6 7ae0 3436 40e8 c0b6
000002a0: 7aaf 0437 a617 c4b5 22f5 a3b6 d6e9 32b6
000002b0: c07e 3bb3 70c5 2534 b924 96b5 5850 c7b6
000002c0: e91f 8eb6 3772 5935 d6ea 0f37 0cc2 47b6
000002d0: b702 52b6 fe7b 21b6 d1c0 c935 d15b 0eb6
000002e0: 0a0b f2b6 5ccf 3136 0fcc f7b6 b262 8db6
000002f0: 2691 cf35 a35e 0eb6 9b6d 8236 a2be c9b6
00000300: e082 e9b4 2878 5435 dc8f afb6 3b77 1db6
00000310: 5597 1636 e5f2 6436 d138 5f36 ab40 acb5
00000320: 3afb d5b6 0aa4 bf36 99c0 1437 c4c6 1eb6
00000330: c0a6 00b6 4f65 c6b6 cc4a 2bb7 fd1f d235
00000340: 0328 0e35 bced 90b6 8436 1d37 b315 1336
00000350: c118 25b5 96e3 beb4 6919 2e36 f31b 1a36
00000360: ca3e 63b7 5b07 cb36 0679 0d36 ac49 7c35
00000370: 5ec6 52b6 e909 1637 1a94 d336 d2d2 a636
00000380: 51e0 aab6 37b9 a236 a2bd 57b6 f1ae 0336
00000390: 00cc a132 3c3b 0236 0084 7cb6 1265 2036
000003a0: 6e6a b1b7 82b4 44b7 389f a234 c2a4 5537
000003b0: 9aa8 0ab6 5e6a 8835 ebe6 0936 d4f7 3736
000003c0: 0ad7 05b7 9943 f336 750e 0bb6 15c8 02b6
000003d0: f622 1ab6 30a5 24b5 acad b536 1845 c235
000003e0: 7e60 8036 18cd 8b36 d115 9e36 24d6 cd36
000003f0: 6a4c b1b6 7ca5 33b5 b4af 3637 ff2e 66b4
-7.740703e-06 -1.5287843e-06 -2.691845e-07 4.287074e-07 -1.02061185e-05 -1.7509778e-06 6.5001495e-06 2.312262e-06
1.3453648e-06 -3.089592e-07 7.457009e-07 6.183131e-06 5.220687e-07 1.8385408e-05 6.4489825e-08 -9.05245e-06
-6.133663e-06 7.270065e-06 3.6943106e-06 -2.1540143e-06 2.889443e-06 3.4727957e-06 6.986438e-07 -7.192056e-06
-1.3295736e-06 -3.3680408e-06 3.1470336e-06 5.71605e-06 -6.2499826e-06 -1.4499165e-06 3.6152412e-06 -1.7539057e-07
1.0861273e-05 1.0098595e-06 -1.3730888e-06 -1.9639089e-07 2.0506517e-05 3.0419405e-06 -3.5356967e-05 -3.2843104e-07
-7.774641e-06 4.09341e-06 4.721368e-06 5.0604513e-08 9.3429335e-06 3.0508338e-06 2.4286654e-05 6.8316365e-07
2.2175647e-05 3.9610777e-06 1.237761e-06 -5.3493713e-06 -1.288588e-06 -1.3368389e-06 -4.521494e-06 -5.5686164e-06
-5.1040333e-06 8.42595e-07 -7.0828337e-06 -9.31129e-06 -4.28231e-06 -3.5103557e-07 1.7654049e-06 4.6077053e-06
1.4138404e-06 9.2082405e-07 3.5478197e-06 -3.3078047e-06 6.275984e-07 2.2597112e-06 7.3341043e-06 -3.3622687e-06
-2.4128194e-06 8.157269e-07 -5.6113936e-06 -4.849788e-06 -2.7068415e-06 -5.3218187e-06 -3.4006466e-06 1.1320373e-06
-1.4165312e-06 3.1310637e-06 1.8164017e-06 -1.6897774e-06 -3.879886e-06 -1.961692e-07 -8.8187096e-07 -4.279011e-06
-4.145498e-06 -1.8712995e-05 2.9395478e-06 -1.4915865e-06 -6.7329734e-07 3.9810664e-07 1.0481712e-05 -5.3096e-07
3.0644956e-06 -1.0589519e-05 1.608746e-07 -2.8749778e-06 3.7446503e-06 6.949889e-06 6.5811187e-06 -3.935658e-06
8.339966e-06 5.6815334e-06 -3.5686735e-06 -2.3336493e-06 1.4127813e-06 3.0366396e-06 4.416253e-06 -6.55138e-06
-4.991973e-07 -4.171349e-06 1.1982522e-06 2.2710647e-06 1.7229782e-05 -2.6896003e-06 1.1901393e-05 -1.5123715e-06
7.5490657e-06 3.8824237e-06 -5.3316003e-06 -5.5908286e-06 7.636408e-06 7.1315344e-06 -2.962929e-06 2.8872935e-06
2.0169307e-06 1.1308718e-05 1.476722e-05 9.410017e-06 9.212552e-07 -2.6637786e-06 5.0274343e-06 -1.95172e-06
-5.7920406e-06 -5.018543e-07 2.3744365e-06 7.9981317e-07 1.315937e-06 3.495477e-06 2.9592215e-06 -6.6803905e-06
-6.1762887e-07 8.293853e-08 1.2933222e-06 1.8205078e-06 -6.316038e-07 -2.2881077e-06 -7.0164776e-07 -2.7719807e-08
-5.963022e-06 -2.3664477e-06 -3.1724414e-07 3.851039e-06 3.024425e-06 -3.511708e-06 4.8751654e-06 8.291883e-06
1.3701048e-06 -1.2883689e-06 -2.2140723e-05 3.6020529e-06 -1.416947e-06 -5.3020535e-06 2.6952753e-06 -5.7490834e-06
7.908669e-06 -1.4610021e-06 -4.8863158e-06 -2.6660177e-06 -4.365461e-08 1.543865e-07 -1.1186559e-06 -5.9400154e-06
-4.2356446e-06 8.1005004e-07 8.578141e-06 -2.976626e-06 -3.1294019e-06 -2.4063042e-06 1.5031784e-06 -2.1213093e-06
-7.213447e-06 2.6495754e-06 -7.384929e-06 -4.213617e-06 1.5464946e-06 -2.1214735e-06 3.8870617e-06 -6.0124594e-06
-4.3494856e-07 7.9151005e-07 -5.232154e-06 -2.3464224e-06 2.2439829e-06 3.411603e-06 3.326266e-06 -1.283382e-06
-6.3771413e-06 5.7113402e-06 8.86633e-06 -2.3659532e-06 -1.9170548e-06 -5.9126537e-06 -1.0209809e-05 1.5655529e-06
5.2957347e-07 -4.3192103e-06 9.370622e-06 2.1917338e-06 -6.150331e-07 -3.5555848e-07 2.594281e-06 2.2964057e-06
-1.3544874e-05 6.0507277e-06 2.1081082e-06 9.398452e-07 -3.1407903e-06 8.943004e-06 6.3055313e-06 4.9717282e-06
-5.0925087e-06 4.849538e-06 -3.2147877e-06 1.962235e-06 1.8835635e-08 1.9405988e-06 -3.762776e-06 2.3900689e-06
-2.1149604e-05 -1.1724538e-05 3.0290698e-07 1.273415e-05 -2.0661741e-06 1.0163747e-06 2.0549003e-06 2.741338e-06
-7.977485e-06 7.2498337e-06 -2.072103e-06 -1.9487973e-06 -2.2968138e-06 -6.133514e-07 5.4144384e-06 1.4474235e-06
3.8259304e-06 4.166399e-06 4.7113067e-06 6.1344053e-06 -5.283907e-06 -6.692351e-07 1.0888954e-05 -2.1437516e-07

layers.5.weight f4 [256]
00000000: dadf 7e3f 52ba 7c3f 7e6d 7f3f 1742 7f3f
00000010: d542 833f 6173 7c3f 72c9 783f c953 823f
00000020: cba6 773f be1a 823f 5cd3 823f 9b53 7f3f
00000030: f3d3 773f 47ea 783f 75f0 7c3f c647 803f
00000040: fa35 7f3f 8aa5 773f 3315 823f c1ee 7f3f
00000050: 84d9 803f 8208 7e3f 0431 7a3f 17fa 803f
00000060: 6538 773f 60b4 7d3f 0eb0 823f b0b3 803f
00000070: 2d9d 813f b70f 7d3f 52a5 7e3f ab72 783f
00000080: 3d0f 863f 0641 803f 7117 803f 837e 7f3f
00000090: 1f8f 7b3f e0ca 813f 76fd 793f f9ca 7c3f
000000a0: eda8 813f 050c 7d3f ea2d 7f3f d312 823f
000000b0: 6f2e 843f 5113 7d3f 7cc7 7d3f 2e77 7e3f
000000c0: a738 793f 54fb 7f3f 50f2 793f d8f4 803f
000000d0: d95a 773f 289c 823f 8e96 843f a6c9 833f
000000e0: de76 833f 1a5f 813f 2c63 803f 2840 773f
000000f0: 921e 803f 6428 793f 593c 843f 53ab 7f3f
00000100: 2d6b 803f cae7 7b3f ed32 823f 1dac 833f
00000110: 890f 7a3f 4993 813f bbeb 803f aaba 7f3f
00000120: 0c9c 7f3f 189b 793f 0b61 7f3f 23f3 803f
00000130: e9a8 753f 9366 793f 6291 7f3f 362c 7a3f
00000140: 955a 803f 3d06 813f a267 793f 4974 7f3f
00000150: 3da5 7b3f f028 7d3f 12ed 7d3f c077 7c3f
00000160: cdb7 7d3f 2caa 803f 7526 813f 23dc 7e3f
00000170: 159b 7d3f 77e4 7d3f eecc 843f 9515 813f
00000180: cb93 833f 263e 803f c497 833f 2cdd 823f
00000190: 2c7b 803f 3c90 7d3f 0e77 753f aec2 7a3f
000001a0: d1ba 803f e046 7b3f 4c52 813f c1bd 803f
000001b0: 0529 833f 6716 7d3f db6c 7e3f 15d8 813f
000001c0: e24e 853f b560 803f e81e 763f d90b 843f
000001d0: aa7c 833f 8e69 7e3f 60a9 7b3f bbb6 823f
000001e0: bb1b 7f3f e31c 843f 7eb5 7e3f 173c 823f
000001f0: 2979 823f 6e9d 7b3f 23da 803f 2f7d 803f
00000200: df20 793f 620b 843f b94e 803f c546 853f
00000210: 9aa1 7b3f fa5b 7e3f 4eef 803f c604 7a3f
00000220: 69fe 7d3f c43b 7e3f 1e89 833f 0da7 7a3f
00000230: 577e 7e3f 055d 773f 05be 773f e662 7f3f
00000240: e77f 6f3f 2a94 773f 9975 803f beaf 7d3f
00000250: 0b59 7c3f b771 783f cc83 813f 5801 823f
00000260: 3c5f 783f 583a 7d3f 4455 7c3f bd14 7b3f
00000270: bbd7 7c3f b6e6 813f a040 7f3f 4b20 813f
00000280: 7d4b 803f 33a9 7b3f db1f 813f cb37 7a3f
00000290: e037 7f3f cc8f 7b3f 1377 763f 010c 803f
000002a0: 14c1 853f 347e 813f 6b44 813f 61e8 753f
000002b0: 59cc 7c3f 955e 7f3f 08e3 7d3f 0d82 763f
000002c0: a8e1 813f 575f 853f 6542 793f 62c0 743f
000002d0: 777b 7c3f b833 773f 4bb7 843f 89bd 7b3f
000002e0: 96f5 813f 6b1c 793f 97c4 7e3f 6884 7b3f
000002f0: 2579 823f 0c0a 7d3f 51c0 7e3f 1d4a 763f
00000300: e9f9 7f3f 7d8a 7a3f f45c 7b3f c32a 7b3f
00000310: 919f 793f 2efd 823f 477e 803f 4fb3 793f
00000320: 0524 813f b3c2 7c3f 5984 7f3f 83e2 823f
00000330: 0793 783f 6f8f 813f 5d30 813f 93f7 7c3f
00000340: 9848 833f b2fd 823f 3837 7f3f 3461 793f
00000350: 789a 823f f228 7c3f 5843 833f fce8 823f
00000360: 1d19 7d3f 767f 803f 01af 813f 98ee 823f
00000370: ffbf 7a3f fba9 743f 782e 7f3f 3e97 813f
00000380: 9aa1 7c3f 2567 7e3f 27c8 7c3f 6b0d 763f
00000390: e5d4 7d3f 3f6e 7b3f cd69 813f 4d52 783f
000003a0: 8104 843f 7646 813f 2c68 833f 3520 803f
000003b0: a802 803f 975b 813f bf06 7d3f 06b2 7b3f
000003c0: d31c 7e3f e471 7d3f d75b 823f 3d05 803f
000003d0: 3922 7a3f ecdd 7d3f ccc4 7f3f f34e 7a3f
000003e0: 0e0e 7c3f e9f3 7d3f 5262 7a3f af8b 833f
000003f0: 2637 743f af49 813f 64b9 823f 726a 7d3f
0.9956032 0.987218 0.99776447 0.9971022 1.025477 0.98613554 0.9718238 1.0181819
0.9673888 1.0164411 1.0220752 0.99736947 0.96807784 0.9723248 0.9880441 1.0021904
0.99691737 0.9673697 1.016272 0.99973685 1.006638 0.9923173 0.9773104 1.0076321
0.96570426 0.99103355 1.0209978 1.0054836 1.0126091 0.98852104 0.9947101 0.9704997
1.04734 1.0019844 1.0007154 0.99802417 0.9826526 1.0140038 0.97652376 0.9874721
1.0129677 0.98846465 0.99679434 1.0161995 1.032667 0.988576 0.99132514 0.99400604
0.9735207 0.9999287 0.97635365 1.007472 0.96623 1.0203905 1.0358446 1.0295913
1.027065 1.0107148 1.0030265 0.9658227 1.0009329 0.97327256 1.0330917 0.99870795
1.0032707 0.9840056 1.0171791 1.02869 0.97679955 1.0123073 1.0071939 0.998942
0.99847484 0.9750228 0.9975745 1.00742 0.9596086 0.9742214 0.9983121 0.9772371
1.0027643 1.0080029 0.97423756 0.9978681 0.9829901 0.9889059 0.99189866 0.98620224
0.9910858 1.0051932 1.0089861 0.9955465 0.9906476 0.99176735 1.037504 1.0084711
1.0279478 1.0018966 1.028069 1.0223746 1.0037589 0.9904821 0.9588479 0.9795331
1.0057012 0.9815502 1.010324 1.0057908 1.0246893 0.9886231 0.9938485 1.0144068
1.0414698 1.0029513 0.9614091 1.0316116 1.027242 0.99379814 0.9830532 1.0212015
0.9965169 1.0321316 0.99495685 1.0174588 1.0193225 0.98287094 1.006657 1.0038203
0.9731578 1.0315974 1.0024024 1.0412222 0.9829346 0.99359095 1.007303 0.97663534
0.99216324 0.99309945 1.027622 0.9791115 0.9941153 0.9662631 0.9677432 0.9976028
0.9355454 0.96710455 1.0035888 0.99096286 0.9857337 0.97048515 1.0118346 1.015666
0.97020316 0.9891715 0.98567605 0.9807852 0.9876668 1.0148532 0.99707985 1.008798
1.0023037 0.9830505 1.0087847 0.97741383 0.99694633 0.9826629 0.9627544 1.0003663
1.0449548 1.0116639 1.0099005 0.9605771 0.9874931 0.99753696 0.9917455 0.9629219
1.014699 1.041972 0.97366935 0.9560605 0.9862589 0.9656329 1.0368437 0.9833608
1.0153072 0.9730899 0.9951872 0.9824891 1.019322 0.98843455 0.995122 0.9620684
0.9999071 0.97867566 0.9818871 0.98112124 0.97509104 1.0233514 1.0038537 0.9753923
1.0089117 0.9873459 0.9981132 1.0225376 0.97099346 1.0121897 1.0092884 0.9881527
1.0256529 1.0233672 0.9969363 0.97413945 1.020339 0.9849998 1.0254927 1.0227351
0.98866445 1.0038898 1.0131532 1.0229063 0.9794921 0.9557187 0.9968028 1.012428
0.98684084 0.99376136 0.9874291 0.96114224 0.99152976 0.982151 1.0110413 0.9700058
1.0313874 1.0099628 1.0266166 1.0009829 1.0000811 1.0106076 0.9883842 0.9831852
0.9926273 0.9900191 1.0184277 1.0001599 0.9770847 0.9916675 0.99909663 0.97776717
0.98458946 0.992003 0.97806275 1.0277003 0.9539665 1.0100611 1.0212827 0.9899055

layers.5.bias f4 [256]
00000000: 2258 9f3a 240e c2bd a0de d9bd 1867 3c3b
00000010: d4a0 97bd c2e7 bcbd e8c5 00bd d09e 21bd
00000020: e7da 663c 684d 58bd 3e59 bdbc e59d 2fbd
00000030: bf0e ccbc 26d3 6bbd ad49 663b 4a7f f1bc
00000040: 0f43 e8bc dab3 40bd 3427 b8bc a0b0 55bc
00000050: 9e43 86bd a814 77bc fac2 abbd 7aac 6cbd
00000060: 0320 0d3c 567f 8dbd 0729 54bc c497 f1bc
00000070: 3844 5ebd 22fd 3dbd 77b0 bcb9 641f 67bd
00000080: 7aa5 f3bc 0a95 13bd 9185 93bd 74a5 7bbc
00000090: b206 f2bc eb2b 52bd 1d13 a3bc d36d edbc
000000a0: bcc9 6cbd 0498 a73c a799 4dbd 3f82 b7bc
000000b0: 2517 95bd c284 8bbd 930d 81b9 d061 a0bc
000000c0: 96ea 553a 32c7 0fbd daa0 86bb 00ff bdbd
000000d0: 599a 1dbc 296c 23bd 3a30 9c3b 7da9 2bbd
000000e0: d9a8 dabc d2dc 25bd 97de 34bd f6fc 67bd
000000f0: 016c 67bd d613 52bd 593f 63bd 38b4 8ebc
00000100: 7422 463c a7a2 6fbd d473 9fbd dba2 cd3c
00000110: aa9e 0bbd ff2e 8abd 8b58 60bd 4c9b ccbd
00000120: b086 7d3b 6ab7 6ebd 7712 cbbd a02c cabc
00000130: dadf 30bd 70ed 7dbd 38c4 a6bc 9a24 3bbd
00000140: b7e7 36bd f485 cebd 492e a2bc b6e7 e2bd
00000150: 1554 86bc 5559 c7bd fe7c 3bbd bf65 dfbc
00000160: 4b5d 6dbd ae7a 8fbc 9954 84bd f50a 74bd
00000170: 197f 4dbc 97b6 82bd 79cb 16bd ffa8 73bd
00000180: 00f3 77bd 1d1c 35bc 31fb c53b e36d 0bbc
00000190: 64de 11bd e651 6cbd 103e fcbc e92a 31bd
000001a0: 1ee6 8ebd b875 03bd 59d3 97bc 5153 5d3b
000001b0: 0c02 89bc f6d1 87bb ef1b b6bd 2014 46bd
000001c0: 6c09 d5bc 3d9b 2a3c 8756 b6bd 81fd 80bc
000001d0: aa49 a73b 326b 05bd b004 07bd d03b 54bc
000001e0: 3e18 30bd c050 81bd 0391 9bbd af2e b3bb
000001f0: 4da6 a3bd 0394 afbc 6f53 3fbb eaa7 03bd
00000200: ded2 c3bc 63c3 89bd 27c5 fb3c 2151 bebd
00000210: 9d94 27bd 5e54 85bb dc2b 89bd 2dfc 21bd
00000220: e3df b2bd 1bc1 5abd 80a0 1dbd 7175 1bbc
00000230: f219 d6bc bd19 8dbd 7242 51bd 6c12 97bd
00000240: 50c1 c9bd 50b1 3ebd ea7f adbc 485a d2bd
00000250: 961b 0ebd 53f5 06bc e4d7 1bbd 7064 8cbc
00000260: f6c1 4dbd 42e7 febc ec04 4e3a 1947 a9bd
00000270: d61a 16bd c5f2 95bd 95f8 59bc 61e7 09bd
00000280: aa8a a1bd 574b 9bbc da66 c9bc 88eb c03c
00000290: faf5 95bc 750f e7bc 6051 40bd 0704 f1bc
000002a0: c8fb a53b 7e9f c3bc 05c2 41bd e14c e8bd
000002b0: e26f 17bd f0fc 2fbd c698 10bd c78e 2ebd
000002c0: dd2f 1dbd 292f 76bd 0084 0dbd f035 38bc
000002d0: d354 7bbc 33ed 0ebd ce7f e9bc ca99 7ebd
000002e0: 758e c4bd f735 cbbc f644 41bd ee32 11bc
000002f0: 676c adbc 58a3 1ebd 7af7 383b e8a4 44bd
00000300: b964 a5bc a6df 6bbd a877 31bd 0984 80bd
00000310: 78fc aebc c036 09bd bd76 49bd 8bbe c1bc
00000320: 1a59 27bd f71f f3bc 991a f7bc 7cff 90bc
00000330: 3666 90bd 265f 4ebd 002f 8abc aff8 a1bd
00000340: 04e2 e7bd 1dd3 89bd ef26 97bc 09e4 bdbb
00000350: a89c b43c 6fed cbbc 57ea 74bd e201 e4bc
00000360: 9b02 8fbd 69c2 533c d45f 79bc 37df d1bd
00000370: 27e0 983b 3779 16bd 8421 a5bd b48e 06be
00000380: acfc 2ebd d116 98bd d016 ffbc 0cd8 17bd
00000390: a0e1 23bd fb7d 8cbc 3a6f 52bd 4528 48bc
000003a0: b549 6ebd 1c9d 7b3c 42b4 95bd 42dd ebbc
000003b0: 36a9 88bd 7ff4 af3c 36f6 e7bb 221e 06bd
000003c0: c862 73bd c8f8 c1bc bd9b debc 0229 6abb
000003d0: 575a 91bc 6dc4 92bd 5fd8 8dbd 4f5c 95bd
000003e0: a5a1 a5bc 31fd 0cbd f1a1 7ebd 70a2 0dbd
000003f0: aa26 c9bc 4d83 69bd 9395 8cbd d6ed b53a
0.0012157003 -0.09475353 -0.106381655 0.0028747972 -0.074037224 -0.09223892 -0.031438738 -0.039458096
0.014090276 -0.052808195 -0.023113843 -0.04287519 -0.024909375 -0.057574414 0.003513913 -0.029479641
-0.028352289 -0.04704652 -0.022479631 -0.013042599 -0.06555866 -0.015080608 -0.08386798 -0.057781674
0.008613589 -0.06909053 -0.012949235 -0.029491313 -0.054264277 -0.046383984 -0.0003598963 -0.05642642
-0.029741991 -0.036030807 -0.0720321 -0.015359271 -0.029544208 -0.051311415 -0.019906575 -0.028983032
-0.057809576 0.020458229 -0.050195362 -0.022400973 -0.07279805 -0.06812431 -0.0002461491 -0.01957789
0.0008160261 -0.035102077 -0.0041085305 -0.09277153 -0.009619319 -0.03989807 0.0047664912 -0.041909683
-0.026691841 -0.040493794 -0.04415759 -0.056637727 -0.056499485 -0.05128845 -0.055480335 -0.01741992
0.012093175 -0.058504727 -0.07785764 0.02510207 -0.03408686 -0.06747245 -0.05477194 -0.09990558
0.0038685016 -0.058280386 -0.09915631 -0.024679482 -0.04318223 -0.061994016 -0.020357236 -0.045689203
-0.044654574 -0.10084143 -0.019797461 -0.110793516 -0.016397515 -0.097338356 -0.0457735 -0.027270196
-0.0579503 -0.017514553 -0.06461448 -0.059580762 -0.0125425095 -0.063824825 -0.03681514 -0.05948734
-0.060534477 -0.011054066 0.0060419072 -0.008510086 -0.03561248 -0.057695292 -0.030791312 -0.043253813
-0.06977485 -0.032094687 -0.018533396 0.0033771584 -0.016724609 -0.0041449023 -0.08892047 -0.048359036
-0.02600547 0.010412988 -0.089032225 -0.01574588 0.005105217 -0.032572933 -0.032963455 -0.012953714
-0.04299187 -0.0631423 -0.07596018 -0.0054682116 -0.07990704 -0.021432882 -0.0029194017 -0.032142557
-0.02390426 -0.0672672 0.030733658 -0.09292818 -0.040913213 -0.0040688952 -0.06697819 -0.039547134
-0.08734109 -0.053406816 -0.038483143 -0.009488449 -0.026135419 -0.06889675 -0.051088758 -0.073765606
-0.098513246 -0.046555817 -0.021179158 -0.10271126 -0.034694277 -0.008237201 -0.038047686 -0.017137736
-0.050233804 -0.031116132 0.000785901 -0.08265514 -0.036646686 -0.07321695 -0.0133038955 -0.033667926
-0.07887776 -0.018956823 -0.024585176 0.02354981 -0.018305767 -0.028205613 -0.046952605 -0.029420866
0.005065415 -0.023879763 -0.047304172 -0.113427885 -0.036971934 -0.04296583 -0.035301946 -0.04261663
-0.038375724 -0.06010357 -0.034549713 -0.011243328 -0.015340048 -0.03489418 -0.028503325 -0.062158383
-0.09597484 -0.024806006 -0.047184907 -0.00886224 -0.021169854 -0.038729995 0.002822368 -0.04800883
-0.02018963 -0.057586335 -0.043327004 -0.06275184 -0.02136062 -0.03349948 -0.049185503 -0.023650428
-0.04085646 -0.029678328 -0.03016405 -0.01769995 -0.07050745 -0.05038371 -0.016868114 -0.07908761
-0.11322406 -0.0672972 -0.018451182 -0.005795006 0.022047356 -0.02489349 -0.059793796 -0.027832929
-0.06982919 0.012924769 -0.015220601 -0.10247653 0.004665393 -0.036736693 -0.08063033 -0.13140374
-0.042721435 -0.07426227 -0.031138808 -0.037071273 -0.040010095 -0.017149916 -0.051375605 -0.012216632
-0.05817576 0.015357282 -0.07309772 -0.028792027 -0.066728994 0.02147889 -0.007078911 -0.03274358
-0.059420377 -0.023678198 -0.027173871 -0.003573001 -0.017743273 -0.071663715 -0.06926035 -0.07292997
-0.02021868 -0.03442115 -0.062166158 -0.03457874 -0.02455457 -0.057009984 -0.068644665 0.0013880085
