data.pth (torch, 712704 bytes, 20 tensors)

layers.0.weight f4 [128, 633]
00000000: 56d3 bd3c a0ed 2a3c a630 eb3b fbbf 8e3c
00000010: 396c 84bc 4d2b 3bbc 6620 77bc c6a3 0b3c
00000020: 467e 213c 6ede 28bd 09f9 043d d0c2 fc80
00000030: ef33 c03c 528c 82bc 2fb4 ae3b 0553 83bc
00000040: 9e60 7f3d 78f1 9abc 7626 34bc 5a8f 64ba
00000050: fefa b3bc defa 193a 737d 0b83 79a4 553d
00000060: 2a02 0abd 8d2c 3fbc 57ff bdbc 59d4 27bc
00000070: 3b16 c8bc 5406 14bd 0070 563c 23f0 2fbd
00000080: 3aea 643d 9acf 62bc 0801 643c dc7a eabc
00000090: d2e0 feb9 e70d 3a3d 882d 51bb 0b0e 803c
000000a0: ffd9 49bc 072a 17bd 0b83 223d 5d7e 173c
000000b0: a125 56bb 89ef c801 4454 173d 0c94 3939
000000c0: 1084 1c3d 2381 1cbd 7223 88bc 832c 0dbd
000000d0: b5cb d63c 91e9 6a3d 28a3 383c e070 1f3d
000000e0: ceaa aaba 7577 d4bc 6b2e cc3c f0f9 1dbc
000000f0: ebee c9bc 0ce8 a680 43bb e63c d41f 043d
00000100: bdcb 633c 8d12 1fbc bd6e 143d 7a59 14bd
00000110: 78e3 0a01 a1e9 1abc fc62 a83c 83a2 153d
00000120: e7cd a03c 0612 dabc 6c87 9902 d9d3 01bd
00000130: 3870 5ebc 1310 13bb 51ad 15bb 596a e6ba
00000140: 4aff ab3c 84f7 99bc ce13 b63b 979b a2bc
00000150: 5747 413c c745 3f3c bccb c5bc 9b62 eabc
00000160: b18a e03b 0c7d 44bc e6d4 d43c 20c7 41bd
00000170: ab0d 7dbc 762f 043b d044 0fbb 50f5 47bd
00000180: c363 6e3d 041f 193d 0f35 183c 0425 38bd
00000190: 3bab 02bd 31f9 d1bb 130a 393c 6323 3ebd
000001a0: d759 b4b8 b1b1 77bc d7da 68bd 0368 60bd
000001b0: 9a36 5b3c 4183 89bd 17b9 213d d5e8 05ba
000001c0: a890 253b 441c 74ba 1cdd 0dbc 36c1 f4bc
000001d0: 574b 1ebd e528 b6bc fb36 0cbd bfc7 fc3b
000001e0: e5b6 1e3c 2cd4 ccbc 8fcd 063a 232e 45bd
000001f0: 4140 8dbd a6a1 833c f704 73bd ec8d 71bd
00000200: 6022 873d b6e4 0d3c 7dac 073c fe31 adbc
00000210: 2417 c8bb f672 853c 890e 37bc 5bb3 05bd
00000220: d9a4 c4bc 7584 18bd d524 b83d 9d5e d3bb
00000230: 3bf9 ddbb 2137 d3ba cc1f d3bb b1de b8bb
00000240: 72b5 b1bb 7905 08bc a4f0 813c b76b 803c
00000250: 7508 963d dbda 11bd 8258 6b3c 0abd 02bd
00000260: 55ef bc3c 81ed 9dbc 0fa3 4d82 0f08 c3bc
00000270: 9b85 0082 6922 f33b 708f 663c dde1 f13b
00000280: eb59 5d3c 80e9 52bc f293 3803 884d 0083
00000290: 0e52 d33b 97e5 173c 9028 b2bc 21d3 483d
000002a0: 37a0 91bc b3cc 603c a03d b0bc 2cfd 0639
000002b0: 5eaa 333d 046f 9a3c 2a37 02bd aaff 3183
000002c0: 7626 84bd e87a 163d f81e 983b be93 9cbd
000002d0: 2eb6 9d3c 14fc 8fbc 5287 47bb ef20 27bd
000002e0: ba58 753d dc1f 0a3c e3e2 1a3d 4e82 16bc
000002f0: 2378 37bd a3c4 7dbb fecd f9bc 7ec3 08bc
00000300: ca41 1cbc 5875 5782 e431 dabc bf22 8b3b
00000310: 36d7 553b 63bc 94bc 0a34 c9bb 4116 0603
00000320: 0207 c3bc c155 073d 7577 35bc 4201 7b01
00000330: aa69 a3bb 4ba7 3bbc f2cd 95bc ca6e 38bc
00000340: 818e 71bc 15c2 9a3c faa6 803d 9da8 2103
00000350: fedd 89bb de69 61bd ce9f dd3a a400 643d
00000360: 1bdc b63a 30f9 523d 954b ed3c 374a 373c
00000370: 0f8f 5dbc 8b90 203c da12 8fbd 5216 12bc
00000380: af85 84bd 4cdb ae02 f520 553c 6172 9d3a
00000390: b95e f93c 79f0 8fbc 37fb 05bd 57de 1f03
000003a0: 3323 263c 605d 0b3d 3094 a03c 3fdb 023c
000003b0: f38f 14bd 5f74 01bd dbbd c53c 677d c5bc
000003c0: c9e0 f2bb e9f8 f03a 76bb febc 716b 0bbd
000003d0: 8652 b23c 399d b9bc 075e 0f03 d944 983c
000003e0: d0ef 813c 44bc ae3c f41e fcbc 9642 b8bb
000003f0: 6a69 f481 cdce 1d83 dc44 6d3b 5982 10bd
0.023172062 0.010432631 0.00717743 0.017425528 -0.016164886 -0.011423898 -0.015083408 0.008522933
0.009856766 -0.04122775 0.03246406 -2.321243e-38 0.023462264 -0.01593605 0.005331538 -0.016030798
0.062348 -0.01891397 -0.010995498 -0.0008718871 -0.021970268 0.0005873869 -4.0992437e-37 0.052158806
-0.03369347 -0.011668337 -0.023193045 -0.010243499 -0.024424663 -0.036138847 0.013088226 -0.04295362
0.05588744 -0.013843441 0.0139162615 -0.028623037 -0.0004861416 0.045423415 -0.0031918008 0.015631696
-0.012320041 -0.036905315 0.039675754 0.009246436 -0.0032676237 7.3812113e-38 0.036945596 0.00017698127
0.038211882 -0.038209092 -0.016618464 -0.034466278 0.026220182 0.057351653 0.011269368 0.038926005
-0.0013020874 -0.025935868 0.024924478 -0.009642109 -0.024650058 -1.5327935e-38 0.028165465 0.032256916
0.013903555 -0.009709013 0.03623842 -0.036218144 2.5509798e-38 -0.009455116 0.020555012 0.036531936
0.019629432 -0.026619922 2.2559058e-37 -0.031696174 -0.01357656 -0.002244 -0.00228389 -0.0017579301
0.020995755 -0.018794782 0.00555656 -0.019849582 0.011796794 0.011674351 -0.024145 -0.028611472
0.006852471 -0.011992704 0.025980424 -0.04730904 -0.015445153 0.002016989 -0.0021861084 -0.048817933
0.05820061 0.037383094 0.009289994 -0.044957176 -0.03190158 -0.0064078798 0.011293906 -0.046420466
-8.599803e-05 -0.0151180485 -0.056849327 -0.054786693 0.013379717 -0.06714488 0.039483156 -0.0005108242
0.0025263224 -0.0009312073 -0.008658674 -0.029877286 -0.03864607 -0.022236297 -0.03423212 0.0077142413
0.00968716 -0.025003515 0.0005142325 -0.048139703 -0.06897021 0.01606829 -0.059330907 -0.058973238
0.065983534 0.008660486 0.0082808705 -0.021142002 -0.006106274 0.01629017 -0.011172899 -0.03264175
-0.024004387 -0.037235696 0.089914 -0.0064504878 -0.0067740954 -0.0016114452 -0.0064429995 -0.0056417813
-0.0054232413 -0.008302086 0.015861817 0.015676362 0.07325832 -0.035609107 0.014364364 -0.031918563
0.023063341 -0.01927829 -1.5107817e-37 -0.023807554 -9.442298e-38 0.0074198735 0.014072284 0.0073816613
0.013510208 -0.012873054 5.4242573e-37 -3.770482e-37 0.0064489907 0.009271047 -0.021747857 0.049029473
-0.017776592 0.013720679 -0.02151376 0.0001287355 0.043863647 0.018851765 -0.03179089 -5.2309113e-37
-0.06452648 0.036738306 0.0046423636 -0.07645367 0.01925191 -0.017576255 -0.0030445647 -0.040802892
0.05989907 0.008430447 0.037814032 -0.0091863405 -0.044792306 -0.003872194 -0.030493733 -0.00834739
-0.00953717 -1.5829381e-37 -0.026635118 0.0042460854 0.0032629496 -0.018156236 -0.0061402367 3.9404607e-37
-0.023807053 0.033040766 -0.011075844 4.6102322e-38 -0.0049869614 -0.01145346 -0.018286679 -0.011256883
-0.014743448 0.018891374 0.06281848 4.7507206e-37 -0.0042073717 -0.055032603 0.0016908587 0.055664673
0.0013951095 0.051507175 0.028966704 0.011187128 -0.013522877 0.009800087 -0.069860175 -0.008916454
-0.064708106 2.5692872e-37 0.013008346 0.0012012237 0.030440675 -0.017570721 -0.03271028 4.6981134e-37
0.010140228 0.034024596 0.019601911 0.007986843 -0.036270093 -0.03160512 0.024138382 -0.024107648
-0.0074120504 0.0018384728 -0.031095248 -0.03403801 0.021767866 -0.022657977 4.213186e-37 0.018587517
0.015861422 0.021330006 -0.030776478 -0.005623172 -8.9782706e-38 -4.637555e-37 0.0036204373 -0.03528056

layers.0.bias f4 [128]
00000000: a26a 9cb6 63e3 1ab7 8a3a e0b6 9f9c 92b6
00000010: a18b 10b7 580e 8436 8614 8837 9df1 abb7
00000020: 06b2 7537 ed10 33b6 0aa8 1c37 680b cab4
00000030: e1ac 1935 ae4d 82b7 0337 f6b6 1c48 3d37
00000040: 8d0c acb6 a052 0e37 9ba6 f437 52a8 c436
00000050: 6d4a 67b7 13f8 8236 2798 84b6 4158 c737
00000060: 78ce 01b7 0ef5 b4b5 5f1f 3737 8e23 cd36
00000070: 3bbc 83b7 7921 4537 858b b7b6 a143 b8b6
00000080: cec9 ecb6 6eff 1237 24d3 81b7 89fd 4237
00000090: 21b9 98b7 bf52 3f36 020b 35b7 0588 6937
000000a0: d2ae 5b36 99b3 3137 d696 64b7 e4ee 1537
000000b0: 0305 e636 9706 04b7 51be 8836 f6ee fe36
000000c0: 1fa9 88b6 95fb 3437 f5d6 7036 d89e 1137
000000d0: da08 eab6 40c9 0538 4484 16b7 e8b2 ebb5
000000e0: 0c31 0d37 4b1c a1b6 88ef 9535 101c 4537
000000f0: 5efa 29b6 393f d4b6 a822 bf35 275e df36
00000100: 1c64 39b6 4d0c 38b7 6d75 95b6 cd0b 8336
00000110: 6c42 d437 bcd9 2bb7 d2e3 e235 f86a 99b5
00000120: 6875 cbb5 c7b8 c6b5 b91b 21b6 8bfe c836
00000130: 47b1 d9b7 3b68 5136 d89e be36 bbae 8d37
00000140: f474 f836 b451 e3b7 3260 9a37 1a7e a935
00000150: f531 fa34 b20b c736 a210 c636 1644 efb5
00000160: cb5a 2ab7 cfba 9c36 de63 23b7 91bd b8b6
00000170: 22a1 92b6 e4f4 20b7 7bb4 bbb5 fa14 b536
00000180: c64a 59b7 55f0 96b7 ae78 75b6 83d3 88b5
00000190: 7ff6 99b6 f6aa 8137 d2a9 b735 0cda f2b4
000001a0: 67b5 62b7 f3fb 96b6 9b66 2836 5272 b636
000001b0: 4904 17b6 6889 38b7 9ab3 2536 d443 15b7
000001c0: cfcd 6437 39cc 65b7 93c5 9837 d8f6 1037
000001d0: c50a 3436 010a 2933 f884 1b36 0128 7eb6
000001e0: 3bb4 3b37 63ed 7db6 858b c134 35a2 1a37
000001f0: 78d2 3736 fab6 12b7 5e87 89b7 ec04 8935
-4.661576e-06 -9.232058e-06 -6.682535e-06 -4.369372e-06 -8.615579e-06 3.9355764e-06 1.622202e-05 -2.0497298e-05
1.4644587e-05 -2.668293e-06 9.337449e-06 -3.763373e-07 5.7248513e-07 -1.553338e-05 -7.3377755e-06 1.1282067e-05
-5.1274606e-06 8.483097e-06 2.9164648e-05 5.8608503e-06 -1.3786002e-05 3.9031816e-06 -3.9516194e-06 2.3763745e-05
-7.737071e-06 -1.3482365e-06 1.0914954e-05 6.113615e-06 -1.5704069e-05 1.17499085e-05 -5.470067e-06 -5.4915004e-06
-7.0568412e-06 8.76175e-06 -1.5476318e-05 1.1622332e-05 -1.820602e-05 2.8509382e-06 -1.0791004e-05 1.3919552e-05
3.2735302e-06 1.0591838e-05 -1.3624978e-05 8.936713e-06 6.8551176e-06 -7.869347e-06 4.0752716e-06 7.5976086e-06
-4.072804e-06 1.0787412e-05 3.5887908e-06 8.679657e-06 -6.974774e-06 3.18971e-05 -8.971492e-06 -1.7560933e-06
8.4156745e-06 -4.8014676e-06 1.1171078e-06 1.1748649e-05 -2.5328695e-06 -6.3254524e-06 1.4240695e-06 6.6568787e-06
-2.762542e-06 -1.0970119e-05 -4.454216e-06 3.905478e-06 2.53033e-05 -1.02430895e-05 1.6904617e-06 -1.143052e-06
-1.5158848e-06 -1.4805927e-06 -2.4007006e-06 5.990097e-06 -2.5950967e-05 3.1204097e-06 5.680933e-06 1.6889875e-05
7.404591e-06 -2.7098555e-05 1.8403025e-05 1.2628182e-06 4.6602477e-07 5.9320237e-06 5.902796e-06 -1.7826703e-06
-1.0153929e-05 4.6709097e-06 -9.738809e-06 -5.5056958e-06 -4.3698974e-06 -9.593761e-06 -1.3985112e-06 5.3966623e-06
-1.29516175e-05 -1.7993307e-05 -3.657809e-06 -1.0194348e-06 -4.5884512e-06 1.5457608e-05 1.3683987e-06 -4.5234663e-07
-1.3512886e-05 -4.499679e-06 2.5093675e-06 5.4373313e-06 -2.2503248e-06 -1.0999247e-05 2.4691458e-06 -8.8968845e-06
1.3637778e-05 -1.3697013e-05 1.8211815e-05 8.640542e-06 2.6828359e-06 3.9357477e-08 2.3174198e-06 -3.7872235e-06
1.1188032e-05 -3.7838115e-06 3.6050565e-07 9.216882e-06 2.7391634e-06 -8.744881e-06 -1.6394708e-05 1.0208728e-06

layers.1.weight f4 [128]
00000000: f825 793f 143b 803f 2b0d 823f 0479 7e3f
00000010: 56e3 783f 855d 803f d300 7e3f 8126 813f
00000020: 0382 803f c2e2 7b3f d603 823f 780c 793f
00000030: 1cda 7d3f e869 743f eb56 7e3f 33ab 813f
00000040: 3af2 823f a39b 7c3f 6634 813f 387d 7c3f
00000050: 06ff 7c3f 65ea 793f 49a3 823f 63f0 7f3f
00000060: 704a 7f3f 80f8 7b3f e0cf 803f c0b6 783f
00000070: 5ca5 803f a808 7d3f 4bd2 803f baba 793f
00000080: dae7 803f 3f1c 803f 8531 803f 9042 7a3f
00000090: 2748 773f c788 823f aafc 7a3f 57a6 803f
000000a0: 0cf6 813f 1254 803f 15e7 843f c66f 823f
000000b0: ea4e 813f bde4 7d3f 06a1 793f de45 843f
000000c0: 6745 7d3f 9d64 803f 7bc1 803f cc4a 823f
000000d0: 2ee7 813f 15d0 813f 3e27 803f 96eb 803f
000000e0: 1339 813f 83ea 7c3f 0eb3 7f3f 86fd 7e3f
000000f0: 24a2 833f b4a3 803f 6f29 823f af45 803f
00000100: 6773 7b3f 19c1 7a3f cd59 803f f032 7f3f
00000110: 5fba 813f 696d 803f 7917 803f 1e8f 803f
00000120: 1ada 7c3f 12bd 813f 0584 823f 21bc 793f
00000130: 4c53 7b3f 946b 7a3f a016 7f3f 926b 773f
00000140: 00a1 793f a845 7f3f b145 7f3f 2103 7e3f
00000150: 3389 833f 5c76 7b3f e0ae 7a3f b9d2 7f3f
00000160: 7a00 813f 5d21 783f 27ac 813f 9212 7a3f
00000170: eeea 753f 93e3 7d3f 83a6 7f3f 2342 7f3f
00000180: 8fc6 823f 7e65 7d3f b609 803f 0e6a 793f
00000190: bbcc 7d3f 6b46 7e3f 2454 833f da9b 743f
000001a0: c160 7f3f 704c 813f e102 803f 8794 783f
000001b0: 39ca 813f 9e68 813f e029 7a3f 8fc4 753f
000001c0: 7977 773f 52ae 813f 581d 7d3f 4970 803f
000001d0: 71e5 843f 4c33 7e3f e3f0 823f 874f 813f
000001e0: 1800 7d3f 473f 7e3f e2a5 7b3f 6fc4 7a3f
000001f0: 51b1 803f 1ea1 7d3f d24c 7f3f a357 803f
0.9732356 1.0018029 1.0160269 0.99403405 0.9722189 1.002854 0.9922001 1.0089875
1.0039676 0.9839288 1.0157421 0.9728465 0.99160933 0.954741 0.99351376 1.0130371
1.0230172 0.9867498 1.0094116 0.9862857 0.98826635 0.9762328 1.0206081 0.99976176
0.9972296 0.98426056 1.0063438 0.97153854 1.0050464 0.98841333 1.0064176 0.9755055
1.0070755 1.000862 1.0015112 0.97757816 0.9659447 1.0197991 0.98041785 1.0050763
1.0153213 1.0025656 1.0383021 1.019036 1.0102208 0.9917715 0.9751133 1.0333822
0.98934025 1.0030705 1.0059046 1.0179076 1.0148675 1.0141627 1.0011976 1.0071895
1.0095543 0.98795336 0.9988259 0.99605596 1.0283856 1.0049958 1.0168895 1.0021266
0.98222965 0.97950894 1.0027405 0.996871 1.0135001 1.0033389 1.0007163 1.0043676
0.98770297 1.0135825 1.0196539 0.97552687 0.98173976 0.978204 0.996439 0.96648514
0.9751129 0.9971566 0.99715716 0.99223524 1.0276245 0.9822748 0.9792309 0.9993091
1.007827 0.9692591 1.0130662 0.97684586 0.960616 0.99175376 0.9986345 0.9971029
1.0216845 0.9898299 1.0002964 0.9742745 0.9914052 0.993262 1.0260053 0.9555031
0.9975701 1.0101452 1.0000879 0.97101635 1.0139838 1.0110052 0.97720146 0.9600305
0.96666676 1.0131323 0.988729 1.0034267 1.038252 0.9929702 1.0229763 1.0102395
0.9882827 0.99315304 0.9829999 0.97955984 1.0054113 0.9907397 0.99726593 1.0026745

layers.1.bias f4 [128]
00000000: 7242 6abd b458 c9bc ed13 b3bc 98de 30bd
00000010: 6b85 54bd 3c0e f0b9 462c b1bd 4aa5 03bd
00000020: 8140 a83c 7a84 29bd 6aeb 3ebd 8c3a 76bd
00000030: faf1 38bd 712b bfbd e9fd 843c e773 c9bc
00000040: 22ce c3bc 21ff aabd dfc3 3abd d27b c8bc
00000050: db4b 11bd 1df5 99bd 968c aebc a892 a3bc
00000060: b314 12bd 473e 1dbd 8fb5 ab3b 22a1 40bd
00000070: 0891 e2bc d29a d3bc 48e4 46bd f188 cdbc
00000080: 8bf4 9d3c c2b8 75bd b2eb ffbb 29c5 3dbd
00000090: 3212 1ebd 0a72 07bc c95d 5bbd a3eb eabc
000000a0: 0216 c3bc 2ca2 1dbd 71d3 2abd d623 f73b
000000b0: da2b a63c 4e4c 0fbd 0c03 f6bc cb0e eebc
000000c0: 7a62 0dbd 6fcc 5ebc ac8a 3cbd 1514 5bbc
000000d0: 984d 2abc 6a11 86bd 1e4f 1dbd 2994 14bd
000000e0: cad7 fbbc 28e6 91bc 296f 49bd 4b4e e9bc
000000f0: 8752 463c b0c3 acbc ef3a 3abd f6a5 70bc
00000100: 5b77 533b 45d0 81bd 60ff 1ebd 529c 12bd
00000110: d207 7fbd d157 34bd ad3d 263b 14a5 99bc
00000120: 7abf 62bd b66a 3cbd bd8d 17bd 239b 29bd
00000130: 5e1e 343c 094b c0bc 4e81 dfbc 773d 5fbd
00000140: 9e08 64bd 1217 16bd 0337 a1bd 7b6e 57bd
00000150: 5260 0dbc 177d f3bc f550 47bd a1b6 18bd
00000160: 9859 edbc d32e 73bd 9cbd 2dbd a319 9fbd
00000170: c8e8 66bd ad28 a8bc 7836 85bd 1f1b 463c
00000180: af74 e9bb 51e7 12bd a8d4 9dbd 6275 8dbd
00000190: 2235 25bc f130 94bc 87d6 8e3c cbab aabd
000001a0: adfd 08bd 9958 9ebb 8f41 c4bc 08a3 49bd
000001b0: 872e 80bc 0ec0 f2bb 1739 67bd 26fc 04bd
000001c0: a0bc 5cbd 52f3 65bd 7fe8 46bd 6ced 34bd
000001d0: ae3c 68bc 977b 9fbc 2966 1dbd 5456 aabc
000001e0: d370 88bd 96b5 47bd dee8 2abd 193f 76bd
000001f0: 7533 9ebc 4a99 1dbd 52b8 c4bc 8ead 06bd
-0.057192273 -0.02457843 -0.021860087 -0.043181032 -0.05188505 -0.00045786973 -0.086510226 -0.032140054
0.02053857 -0.041386105 -0.046611227 -0.06011443 -0.04515264 -0.09334458 0.016234355 -0.0245914
-0.023902003 -0.08349443 -0.045596953 -0.024473105 -0.035472732 -0.07517455 -0.021307271 -0.019967392
-0.03566427 -0.03838947 0.0052401493 -0.04702867 -0.027657047 -0.02583066 -0.04855755 -0.025089713
0.019281646 -0.059990652 -0.0078100795 -0.046330605 -0.03859157 -0.008266935 -0.053556237 -0.028676813
-0.023814205 -0.038484737 -0.041705552 0.007542114 0.020284582 -0.03498488 -0.03003075 -0.029059788
-0.034517743 -0.013598545 -0.046030685 -0.013371487 -0.010394476 -0.0654629 -0.03840553 -0.03627411
-0.030742545 -0.017809942 -0.049178276 -0.028479716 0.012104637 -0.021089405 -0.04546636 -0.014688006
0.0032267186 -0.063385524 -0.038817763 -0.03579361 -0.062263317 -0.04402906 0.0025366351 -0.018755473
-0.055358388 -0.046000205 -0.037000407 -0.041407716 0.010993568 -0.02347328 -0.027283337 -0.054501977
-0.05567228 -0.036643095 -0.07871821 -0.052595597 -0.008628922 -0.029722733 -0.04866119 -0.037283543
-0.028973386 -0.059370827 -0.042417154 -0.07768562 -0.05637434 -0.020527208 -0.0650453 0.012091427
-0.0071245055 -0.03586513 -0.077065766 -0.069071546 -0.010083469 -0.018089743 0.017436279 -0.08333548
-0.03344505 -0.004832339 -0.023957042 -0.049227744 -0.015647186 -0.0074081486 -0.05645093 -0.03246703
-0.053890824 -0.05614025 -0.04856157 -0.044171736 -0.014174623 -0.019468112 -0.038427506 -0.020793118
-0.066621445 -0.04875716 -0.041725986 -0.06011877 -0.019311646 -0.038476266 -0.024013672 -0.03288036

layers.1.running_mean f4 [128]
00000000: d668 aebc 8af5 e4bb c5ad 2e3c 3585 f4ba
00000010: e7e9 adbc 7758 92bb f8c0 d13b ac42 a73b
00000020: 1dd0 0e3b 4cd8 563a 0e09 c53b c251 373c
00000030: fa82 993c 929a 113c 628b df3b 5deb 51bb
00000040: 3674 1bbc bba1 593c d452 d0ba 121f 403a
00000050: ed2f 2cbb 6f4e dd3b 5296 da3c 0362 8b3b
00000060: ac0c a43c f643 21bb 08fc 37bc 8a49 f0bb
00000070: 91cf 9d3b 47b4 c1ba ded2 83bc 63aa 083c
00000080: 021d 2239 38db 573c 0ca4 24bc 1a14 1a3b
00000090: efba 6abb 3776 a03b 4147 cfb8 ab1d 9f3c
000000a0: 3394 603c 5195 afbc e30f 8abb 2c5a b9bb
000000b0: d6a1 1c3c 2848 10bb 1b59 00bc 005f da36
000000c0: c087 4cbc e7f9 a0bb 6675 453a 8ea9 063c
000000d0: 1c4f e9bb 9daf f53b 4ef6 7839 0666 4a3c
000000e0: 6b29 babb fd83 b93b 3638 1a3c d4fb 9d3c
000000f0: c311 fdbc 5ebf 803c bab6 1cbc f677 ce3b
00000100: bbcf 2a3b 9a8a 563b acb8 05bc 9ee0 243c
00000110: 916c 4f3c 2c25 c0bb 52b4 4f3c d836 a3bc
00000120: 0e87 2a3b 525c 90bb a13f da3c d46d b0bc
00000130: b060 df3b c9b4 e03b 2086 ba3b 7666 1a3c
00000140: 8973 e3bc 60a5 81bb 0a69 d7bb 7317 893c
00000150: 4ec0 133a 3e09 b9bc 1c91 efbb 8caa 9c3c
00000160: d092 333c d5fb 41bc df00 113c 47d5 3c3c
00000170: a256 983b 6ba1 e7bb 008d 5c3b 28d9 0ebb
00000180: 94ec bb3b b8a5 98bc 5e95 9cbc 25d5 953c
00000190: 6345 823c 1fa6 f63c 0c52 e0bb 293a 0fbc
000001a0: 40e7 083c ae26 33bc 6d4f 50bc f5a3 363c
000001b0: 3f90 723c e8b1 983c f503 a8bc 4b98 febc
000001c0: 6f5b b73b 181f a43c 7e73 30bb 11f5 e33b
000001d0: e731 323c 481b 343c 40ba 933c 4285 28bc
000001e0: fc8c 9f3c 33a7 b73c ccc3 6fbc 55ca 833c
000001f0: 6ef2 1d3c b14a 1c3c 38af 783b 4d7b 613b
-0.021290224 -0.0069872783 0.010661547 -0.0018655421 -0.021229697 -0.0044661122 0.0064011775 0.0051043835
0.0021791526 0.0008195683 0.0060130423 0.011188926 0.018739212 0.00888695 0.0068220356 -0.0032031157
-0.009488156 0.013283188 -0.0015893825 0.00073288486 -0.0026273683 0.006753735 0.026683006 0.0042536273
0.020025574 -0.0024607158 -0.0112295225 -0.0073329853 0.0048160036 -0.0014778458 -0.01609176 0.008341405
0.0001546033 0.013174824 -0.010048877 0.0023510517 -0.0035816988 0.004896905 -9.883801e-05 0.019423326
0.013707208 -0.021433504 -0.0042133196 -0.0056565013 0.009560069 -0.0022015665 -0.007833744 6.5079657e-06
-0.012483537 -0.004912603 0.00075324473 0.008219136 -0.0071200263 0.0074977414 0.00023742879 0.012353426
-0.005681207 0.005661486 0.009412816 0.01928512 -0.030892259 0.015716251 -0.00956505 0.0063009216
0.0026063758 0.0032736422 -0.008161705 0.010063319 0.012660162 -0.005863806 0.012677269 -0.019923612
0.002602044 -0.0044055367 0.026641669 -0.021536745 0.006816946 0.006857489 0.0056922585 0.009423843
-0.027765052 -0.003956482 -0.006573801 0.016734814 0.00056362606 -0.022587415 -0.0073109996 0.019124292
0.010960296 -0.011839827 0.008850305 0.011525459 0.0046489993 -0.007068803 0.0033653378 -0.0021796916
0.0057349894 -0.018633708 -0.019114193 0.018290112 0.015902227 0.03010851 -0.0068457182 -0.008741894
0.008355916 -0.010934515 -0.012714249 0.011147489 0.014804899 0.01863952 -0.0205097 -0.031078478
0.0055956165 0.020034358 -0.0026924307 0.0069567044 0.010876155 0.0109928325 0.018033147 -0.010285677
0.019476406 0.022418594 -0.014634084 0.01608769 0.009640319 0.009539292 0.0037946235 0.0034405768

layers.1.running_var f4 [128]
00000000: 805b ac3a c1f2 a73a 3266 913a f423 a43a
00000010: 2e47 ea3a 42ec c03a ebc1 a33a 7faa 9c3a
00000020: 2c58 d23a 3bab c33a 44a5 9f3a 15e9 b43a
00000030: fd01 f03a d7a3 a43a 88fa 0a3b 9a8a a53a
00000040: 0d88 8c3a 0455 993a 61ef 9a3a 846a a73a
00000050: 42ec 833a 02fd 9b3a 8031 9d3a 2606 873a
00000060: 6d95 ba3a 43d6 af3a b7a0 cb3a 9f03 c93a
00000070: e339 8d3a 95c7 c23a a8ac 883a 8c02 aa3a
00000080: 09ac be3a 73e9 753a 5d20 ab3a af21 ba3a
00000090: af94 cd3a 6db2 8e3a c895 a43a 3828 903a
000000a0: 4f1e 873a 811d 983a 650c 953a 5f63 a73a
000000b0: 05c4 033b b389 b03a d10d 9f3a 49ee 8c3a
000000c0: a8ee 983a ea6a c43a 5a59 a63a 6374 b33a
000000d0: 8e2a 983a f8cf 883a 07de a33a 0fe6 a83a
000000e0: eba8 be3a 4af4 9f3a 9968 d13a 9925 ca3a
000000f0: 3bea bd3a 4efa af3a 83cc a53a 791a b83a
00000100: 8bc2 d43a 3a75 903a 971a c13a 913d b43a
00000110: 0be2 933a 04c8 a63a b615 be3a df3e fc3a
00000120: c464 cb3a e556 863a 8739 8e3a 6f63 8a3a
00000130: 05e8 da3a 22f9 a13a d07b a13a 3821 e43a
00000140: ff7d 943a bdd2 913a cf44 a13a 9349 9b3a
00000150: e74b b63a be02 933a 7470 d03a 3733 9a3a
00000160: bcaa a13a 2f68 cb3a d124 8e3a 9275 8c3a
00000170: 365e c13a 3e76 ba3a 2b42 ab3a a26a c23a
00000180: 95b1 943a 4442 993a fd94 823a 319d 8d3a
00000190: e3fa 0b3b 074d ba3a 5b0f a33a 4303 b53a
000001a0: 8dec b13a 0c0b a53a dd62 cf3a 5fbb 9f3a
000001b0: 7eab 8c3a 2eee d53a 6c05 943a 678d e53a
000001c0: 4478 b83a 44a7 643a 86a1 963a 92da ba3a
000001d0: 68f8 943a bd33 ce3a 21af 833a 8dc5 8c3a
000001e0: 48f1 c73a 095d af3a 1091 b33a d21d d23a
000001f0: 8798 9f3a f26a b23a 93ce 8e3a b403 a03a
0.0013149828 0.0012813435 0.0011093079 0.0012522922 0.0017873996 0.0014718848 0.0012493705 0.0011952667
0.0016048006 0.001492835 0.001217999 0.0013802374 0.001831114 0.0012561035 0.0021206457 0.0012629807
0.0010721699 0.001169831 0.0011820608 0.0012772833 0.0010064917 0.0011900964 0.0011992902 0.0010301515
0.0014235206 0.0013415295 0.0015535568 0.0015336162 0.0010774698 0.0014860505 0.0010427432 0.001297073
0.001454712 0.0009380795 0.001305591 0.0014200712 0.001568457 0.0010886915 0.0012556845 0.0010998314
0.0010308715 0.0011605473 0.0011371492 0.0012770704 0.002010585 0.0013468772 0.0012134855 0.0010752167
0.0011667805 0.0014985476 0.0012691424 0.0013691302 0.0011609362 0.0010437956 0.0012502082 0.0012885946
0.0014546191 0.0012203541 0.0015976607 0.0015422582 0.0014489362 0.0013426037 0.001264945 0.0014045975
0.0016232295 0.0011021264 0.0014732656 0.0013751258 0.0011282576 0.0012724404 0.001450232 0.0019244811
0.0015517701 0.0010249285 0.0010850885 0.0010558198 0.0016701227 0.0012357573 0.0012320224 0.001740492
0.0011329054 0.0011125427 0.0012303832 0.0011847488 0.0013908119 0.0011216027 0.0015902654 0.0011764531
0.0012334208 0.001551872 0.0010844712 0.0010716191 0.0014752808 0.0014225913 0.0013065984 0.0014832804
0.0011344427 0.0011692722 0.0009962615 0.0010804293 0.0021359257 0.001421363 0.0012440489 0.0013810176
0.0013574526 0.0012591793 0.001582231 0.0012186578 0.0010732261 0.0016321593 0.001129312 0.0017513455
0.0014073928 0.0008722434 0.001149223 0.0014255813 0.0011365535 0.0015731972 0.0010046699 0.0010740027
0.0015254403 0.0013379167 0.0013699848 0.0016030616 0.0012176194 0.0013612194 0.0010895304 0.0012208135

layers.4.weight f4 [256, 128]
00000000: f801 2f3c c0b4 77bd 871e 90bd 0b68 f73d
00000010: 9175 243b f711 78bc 43c2 883d 7375 f63d
00000020: 74c1 08bd cbce afbd 3ca3 a1bc b709 c1bc
00000030: e596 833d 008c 833c 2ecc 7fbc 0b49 b83d
00000040: 51ad 8ebd 74bb 853b f7e7 ee3c 19bb 85bc
00000050: 69e8 55bc 9873 70bd a824 26bd 30eb 433d
00000060: 3b7d 523d 2779 df3c 5867 e2bc 834a f0bd
00000070: ded4 b03c e8ff 4f3d 3f9d 71bd 21b4 a0bd
00000080: e71d 8a3c 65ae c33c f6fa 99bd 5256 ccbd
00000090: 94ef d2bc a8f7 b4bd 0fc7 a3bc 2294 f2bc
000000a0: ad2f 0a3e 2d9a b13d d707 33bd a735 a53d
000000b0: 7977 643d 620c 3ebc 88b7 4b3d e164 203c
000000c0: 0b80 53bd bbd2 0dbd 859b 4bbd e800 2a3c
000000d0: 0dd4 94bb a5cc 043d 54e8 b2bd e3e0 6a3d
000000e0: 3a11 b73d 8d3d 5b3c 52da 9c3d 9630 0f3d
000000f0: 884a 27bd c228 f9bc 8659 6f3d 8e14 b63c
00000100: 0b66 3fbd c99e d23c 9010 a3bd 8c24 61bc
00000110: 62d0 73bb 3d50 8cbc dcf9 803d ec48 953c
00000120: d5f5 d3bb 5ee7 69bc caab 383c e61b 3f3d
00000130: 7d7a 823c 2fb9 903d 857c 41bd fcc0 c0bb
00000140: a0f9 3d3d 4de1 99bd f1ee 89bc 74eb 1dbd
00000150: d3aa 9cbc 2a0b 0dbd d3fb d23c 1c82 eebd
00000160: 814e 77bd a387 80bd 968e 003d 2245 73bd
00000170: 66c5 b33d 8d46 5bbd a243 84bc 9076 bcbd
00000180: f03b da3d 29f8 9cbb 1073 6dbd b86c 9d3d
00000190: f4c8 4dbd d4d8 d03d 68e4 1a3d f365 8ebc
000001a0: 27ec 39bd 0b75 573d 6ccf 913d 68ae adbd
000001b0: d1bd ddbd 6f89 bebd ff60 c8bc dabd 22bc
000001c0: 3556 c23c 5ec6 dabb 9552 dfbd e5ad 993b
000001d0: 45a7 043c 2d2f a03d 230e 763b c347 683c
000001e0: 6b0e f23c f29f a83a 6b75 d73b 45e3 133d
000001f0: 5e10 3dbc 03ea d03d def9 3bbd 6c8d 823d
00000200: 077a 91bc bf9b acbc 0053 74bb a681 2e3d
00000210: 3ffa 9a3c 0319 d7bd d74c a83d de25 50bd
00000220: 8486 28bc 761b 5ebc 0419 6fbd 8198 fcbd
00000230: 59b9 dabd 2278 9dbd 9648 173d 704b e2bb
00000240: 781e 133d 9b71 813d 4350 333d 76b3 473d
00000250: 43f1 13bc 58fc 83bd 83ab 09bc a178 37bd
00000260: 2add 063d e361 27bc 15bb fbbd ed6b 93bd
00000270: 6465 583d aa6b f4bd 3e4f 68bc 308e a03d
00000280: 63f8 dabd 3615 b43c 8045 373d 0715 a33c
00000290: e4a6 433d e83f 6f3c 89b3 113d 5e1f 8ebd
000002a0: 06b1 173d ce86 78bd 257e 5ebc eab3 aebd
000002b0: 493b 34bd 8d9b 0f3d 7c7d afbc 38bf 13bc
000002c0: 9ff7 7cbc 31bd 7ebd 243d d6bd e239 98bd
000002d0: 905f 54bd 9002 273d 13c8 6dbd 9eee f6bc
000002e0: 42f3 e83c 8638 9fbd c028 5ebd 0e35 19bd
000002f0: cdd7 56bd 54af a73b f1eb 083d d07d 373b
00000300: dc37 62bb b027 1ebc 3df1 86bd 0879 bd3d
00000310: 33bf 37bc c13b 37bd bf68 173d 1e4a 783d
00000320: 549a f5b9 e3d6 b73d 178c 5b3d 9feb 0f3d
00000330: 24b0 d93d 32bf 163d 0518 a73c 6579 943c
00000340: a485 973c 3885 c5bc 6673 0b3d 0e4a 8b3b
00000350: d127 49bd 6eb7 073d 167b a23b b0aa 62b9
00000360: 51f2 03bc cd78 50bd 702d d6bd f2f7 303d
00000370: 05e7 3f3d b492 20bd 6ddb aabd 624d 103d
00000380: c3c9 3fbd 7daa 9abd 6de3 e7bc 73ed d5bc
00000390: 96ee 943c d597 533d f41a e3bd 5898 923d
000003a0: e56b a0bd 9b6f 82bd e7e8 243c 913e ac3c
000003b0: 7620 683b ef80 aebd ccb8 e43c afeb 52bd
000003c0: d810 6bbd 5f40 bf3d 45a7 3dbd bac2 9c3d
000003d0: 8a4d aebd 4b17 d13d 017b 863d 145f bd3c
000003e0: 89b7 09be de01 a7bd 4a5f 5e3c 9a1b 16be
000003f0: 8810 ae3d ef92 93bd a9f8 fdbc 8bbe 85bd
0.010681622 -0.06047511 -0.07037073 0.120803915 0.002509449 -0.015141002 0.066776775 0.120341204
-0.033387616 -0.085843645 -0.019731157 -0.023564203 0.06425265 0.016057968 -0.015612645 0.08998307
-0.06966651 0.004081184 0.029163344 -0.016324567 -0.013055899 -0.05870399 -0.040562302 0.047831714
0.05138896 0.02727945 -0.027637169 -0.11732962 0.021585878 0.05078116 -0.058987852 -0.07846857
0.016859962 0.023886869 -0.0751857 -0.09977402 -0.025749005 -0.08836299 -0.01999238 -0.02961165
0.1349475 0.08671985 -0.04370865 0.08066874 0.055778 -0.011599632 0.049735576 0.009789676
-0.051635783 -0.034624796 -0.04970886 0.010376193 -0.00454188 0.032421727 -0.08735719 0.057343375
0.089388326 0.013381374 0.07658829 0.034958445 -0.040842563 -0.030414943 0.058434986 0.022226598
-0.046728175 0.02571048 -0.079621434 -0.013741624 -0.0037203063 -0.017128104 0.06297657 0.018223248
-0.0064685144 -0.014276354 0.011271426 0.046657465 0.015927548 0.07066571 -0.04723789 -0.0058823805
0.04638064 -0.07513676 -0.016837569 -0.038554624 -0.019124424 -0.034434475 0.025754845 -0.1164591
-0.0603776 -0.06275871 0.03138598 -0.059392102 0.08777885 -0.05353408 -0.016145531 -0.092023015
0.106559634 -0.004790325 -0.05797106 0.07686752 -0.050240472 0.10197607 0.03781548 -0.017382598
-0.045391228 0.052601855 0.07119641 -0.08480531 -0.1082722 -0.09303557 -0.024460314 -0.009932959
0.023722747 -0.0066764792 -0.10904423 0.0046899193 0.008096521 0.07821498 0.0037545047 0.014177266
0.02954789 0.001286505 0.0065752766 0.036105413 -0.011539547 0.10200884 -0.04589259 0.0637463
-0.017758382 -0.02107036 -0.0037280917 0.04260411 0.018918155 -0.105028175 0.08217781 -0.050817363
-0.010285977 -0.013556352 -0.058373466 -0.12333775 -0.106798835 -0.07688929 0.036934458 -0.0069059655
0.03591773 0.06320497 0.043777715 0.04875513 -0.009029689 -0.06444615 -0.008402708 -0.044792775
0.032925762 -0.010216209 -0.122915424 -0.071983196 0.05283107 -0.11934598 -0.014179049 0.0783962
-0.10691907 0.02198277 0.044744015 0.019907488 0.04776658 0.014602639 0.03557161 -0.069395766
0.037034057 -0.060675435 -0.01357988 -0.0853041 -0.04400185 0.035060454 -0.02142214 -0.009017758
-0.015439897 -0.062192146 -0.104608804 -0.07432915 -0.051848948 0.04077393 -0.058052134 -0.030143078
0.028436307 -0.07774453 -0.05423808 -0.037404113 -0.052451897 0.0051173363 0.033428136 0.0027998574
-0.0034518158 -0.009653017 -0.06588981 0.092516005 -0.011215019 -0.04473472 0.036965128 0.06061756
-0.00046845025 0.08976533 0.053600397 0.035136815 0.10629299 0.03680343 0.020397196 0.018124292
0.018496342 -0.024111375 0.0340456 0.0042507714 -0.049110238 0.033133917 0.0049585206 -0.00021616626
-0.008053378 -0.050896455 -0.10457885 0.04320521 0.046851177 -0.039202407 -0.083426334 0.035230048
-0.046823274 -0.07552049 -0.028306687 -0.026114201 0.018180173 0.05165847 -0.11089125 0.071579635
-0.07833079 -0.06368943 0.010065294 0.021025928 0.003541974 -0.08520686 0.02792015 -0.051494297
-0.05738911 0.0933845 -0.0463021 0.07654329 -0.08510883 0.10209521 0.0656643 0.023116626
-0.1344892 -0.08154653 0.013572523 -0.14658967 0.08499247 -0.0720576 -0.03100236 -0.06530484

layers.4.bias f4 [256]
00000000: f037 b034 621f 2434 847e 10b2 01dd 09b2
00000010: 0782 62b4 901a e7b4 3ee0 f5b4 a839 3cb5
00000020: 6880 36b4 cc9b 92b4 1980 bbb3 00a0 4234
00000030: afda e9b3 28ad 3434 4262 beb3 ddfe 8f34
00000040: 04a4 2bb5 de94 3535 5fb0 5634 0e30 0934
00000050: 86cf 72b3 6438 b234 bd46 0234 72f5 1535
00000060: e1d2 2f34 cce2 33b4 7c10 f134 38cb cbb4
00000070: a660 acb4 ae33 3434 dc38 6f34 94c4 0eb4
00000080: 7f65 25b4 4fa1 03b4 9f3a 4bb4 9b81 9cb4
00000090: e4e4 c0b4 5363 08b5 2220 a2b4 95e1 b334
000000a0: d02a bbb4 19b6 0a35 3534 e3b4 d72a 48b5
000000b0: c888 d1b3 a8e3 5734 d88a 98b4 0e03 cbb4
000000c0: f387 b3b4 1b6d 0433 8cd7 89b5 f2a3 0335
000000d0: b9bd dd33 5c0d 3cb4 98c4 8f35 68a8 a334
000000e0: b668 e4b4 fc2d e7b3 828e 9134 0ba9 d2b4
000000f0: bd60 f433 5f35 4f34 9004 8f34 b2f0 d734
00000100: ad95 c434 b887 b5b3 4517 9c34 21a0 2534
00000110: 252b 98b2 e9eb cab3 8b8f 4d33 a84b 8cb3
00000120: 7a09 2034 4fd2 0234 e55b 48b4 fb1a 6434
00000130: 2a7f 4e35 f61e a8b3 321f 3b35 625d bbb4
00000140: e733 81b3 826f 08b3 97b9 63b4 0eef 3335
00000150: 2d85 30b3 2658 a334 617c 9134 6835 9733
00000160: ef8b 6234 519e b8b3 1425 6e35 ee40 e334
00000170: c783 f434 6659 f2b2 71fd a833 15d1 88b4
00000180: 305f 3b35 48b8 0fb5 a566 2835 554d 0e34
00000190: 626b 2db5 0891 32b5 1584 6f34 9992 da34
000001a0: 0736 e231 4d18 d033 8901 1533 9c4c 13b4
000001b0: 2699 4f34 78db 9bb3 4042 3734 f40a 9cb4
000001c0: 49ef 01b4 6f00 5bb4 f926 29b2 e02e d233
000001d0: 60b0 b334 202c 9fb4 5182 a433 298d a833
000001e0: 2489 8a33 c073 9034 c294 afb4 f343 eeb4
000001f0: e4a1 5db3 df5b 0f35 6a3f a034 5e96 dc34
00000200: 14e4 9a34 5d92 7db5 fad0 12b4 f54b 78b5
00000210: b79d 41b4 6072 43b4 f1f1 8734 a8ef 3833
00000220: 331a 2b34 2c4a 75b3 0ab2 02b5 b847 8433
00000230: 386e 34b4 5b83 1cb3 fb1d 0235 9850 dc34
00000240: 8b06 92b4 613e 3833 b8c2 d133 cc2e d134
00000250: 5a5c d034 8f8e 8533 735e e834 0ce8 c2b4
00000260: 97a4 15b4 35b8 9ab4 2055 a934 2418 4a34
00000270: 6c9e 32b5 ed48 00b5 c40a 7fb4 282b 9933
00000280: e61f c534 bc47 8234 48fc 3fb4 98da 5ab4
00000290: 7b94 cbb3 1be6 d730 ca55 bcb3 a6de 50b4
000002a0: a916 c6b3 61c6 d2b4 913d fbb2 8321 09b5
000002b0: 894b 52b4 fce4 8833 4396 fe34 90ca 37b5
000002c0: 947f 19b5 3dee dfb3 a21b c6b1 ece6 c4b4
000002d0: 7ec6 b3b4 3004 10b2 a235 3333 5de7 1cb4
000002e0: 66ff 1634 e51c c8b4 93c8 e634 6105 1435
000002f0: b78a bb33 43c1 1b34 93e7 7cb3 0087 c7b4
00000300: d4f8 d0b3 8739 56b3 b2ac 2cb5 f16a 4435
00000310: c8c3 e834 04cd 7f32 5fe0 26b3 5214 2cb3
00000320: b485 c934 473b 8732 d2c6 0b34 4210 ac33
00000330: ca36 af34 9383 a134 ed0f d5b4 90bf b5b4
00000340: ef42 30b5 415a 0a35 0809 16b4 2988 8d34
00000350: d831 4e35 66ea 8e34 eda0 2d34 367c 57b4
00000360: e445 5f34 fb65 d334 2bfe d631 836f aa34
00000370: b652 dbb4 2d32 8a34 2ce3 03b5 b24e d0b3
00000380: 8a4b 1fb3 272e e3b3 8244 4b34 9916 c534
00000390: 748f 8c34 5ed6 a934 60d3 5eb4 5d70 08b5
000003a0: 0a02 18b5 dcdb 89b4 ee1b 9fb4 bb7f 6034
000003b0: 7e62 fdb4 282e b0b3 338b c6b3 86c7 c133
000003c0: 0b30 bd33 e654 1235 9d41 9233 e215 4b34
000003d0: c9d5 2135 c6fa 75b4 b28a 5d34 b1f8 9034
000003e0: 0399 0d34 ad75 8eb3 e475 9a34 b1f9 20b5
000003f0: df7a edb4 fc7f 9832 36d0 20b5 d75b 1935
3.2823255e-07 1.5285107e-07 -8.4106695e-09 -8.0247e-09 -2.1095194e-07 -4.304643e-07 -4.5797964e-07 -7.011936e-07
-1.6996785e-07 -2.7307976e-07 -8.731167e-08 1.8125866e-07 -1.0889686e-07 1.68268e-07 -8.8654375e-08 2.6821263e-07
-6.394114e-07 6.7644385e-07 1.9994467e-07 1.2776601e-07 -5.6533757e-08 3.3196113e-07 1.2132928e-07 5.5863995e-07
1.6374862e-07 -1.6753182e-07 4.4901742e-07 -3.7959558e-07 -3.2107818e-07 1.6782607e-07 2.2279295e-07 -1.3296295e-07
-1.5403747e-07 -1.225901e-07 -1.8927174e-07 -2.9151565e-07 -3.5929327e-07 -5.0808484e-07 -3.019823e-07 3.350548e-07
-3.4862614e-07 5.1673993e-07 -4.232003e-07 -7.4568146e-07 -9.757201e-08 2.0106256e-07 -2.8413228e-07 -3.781392e-07
-3.3440264e-07 3.0832876e-08 -1.0270028e-06 4.9039875e-07 1.0325625e-07 -1.7513725e-07 1.0711547e-06 3.0483648e-07
-4.2544497e-07 -1.076514e-07 2.7112043e-07 -3.9238543e-07 1.1379732e-07 1.9297794e-07 2.6639145e-07 4.0222e-07
3.6616748e-07 -8.4531564e-08 2.9074195e-07 1.5425077e-07 -1.7714749e-08 -9.44927e-08 4.7860834e-08 -6.53302e-08
1.4904609e-07 1.2183703e-07 -1.8659883e-07 2.124397e-07 7.692603e-07 -7.8287414e-08 6.9708324e-07 -3.489941e-07
-6.0164716e-08 -3.1766383e-08 -2.120854e-07 6.7030567e-07 -4.1099316e-08 3.0425252e-07 2.7098852e-07 7.0412e-08
2.1098798e-07 -8.596965e-08 8.8715865e-07 4.2329287e-07 4.5544422e-07 -2.8213162e-08 7.86921e-08 -2.54841e-07
6.9801445e-07 -5.3539816e-07 6.2734244e-07 1.3252914e-07 -6.4603785e-07 -6.6521216e-07 2.230666e-07 4.0712328e-07
6.583608e-09 9.690175e-08 3.4693162e-08 -1.3718312e-07 1.9334092e-07 -7.257671e-08 1.7067305e-07 -2.9065234e-07
-1.2101113e-07 -2.0396122e-07 -9.845956e-09 9.7874135e-08 3.3469678e-07 -2.9648163e-07 7.6605495e-08 7.8487865e-08
6.4510715e-08 2.690631e-07 -3.2704526e-07 -4.4380394e-07 -5.160281e-08 5.340534e-07 2.9848462e-07 4.10876e-07
2.8850684e-07 -9.446283e-07 -1.3673335e-07 -9.249773e-07 -1.8031902e-07 -1.82024e-07 2.5321745e-07 4.3058805e-08
1.5935147e-07 -5.7110967e-08 -4.8687855e-07 6.1597746e-08 -1.6803904e-07 -3.6441048e-08 4.84724e-07 4.1036833e-07
-2.719938e-07 4.289757e-08 9.76774e-08 3.8963333e-07 3.8810214e-07 6.2192264e-08 4.3282088e-07 -3.6304152e-07
-1.3936584e-07 -2.8818764e-07 3.154064e-07 1.8821498e-07 -6.65407e-07 -4.7789837e-07 -2.3752642e-07 7.132468e-08
3.671732e-07 2.426658e-07 -1.788004e-07 -2.0382356e-07 -9.4799326e-08 1.5708709e-09 -8.770037e-08 -1.9452509e-07
-9.224215e-08 -3.9259888e-07 -2.9248243e-08 -5.1085243e-07 -1.9585254e-07 6.3746455e-08 4.7420517e-07 -6.846758e-07
-5.718259e-07 -1.0427582e-07 -5.7657e-09 -3.6675863e-07 -3.348577e-07 -8.382855e-09 4.1725464e-08 -1.4612802e-07
1.4062752e-07 -3.7273927e-07 4.2986775e-07 5.5142124e-07 8.733098e-08 1.4505808e-07 -5.8883938e-08 -3.7164864e-07
-9.731016e-08 -4.987808e-08 -6.43263e-07 7.317131e-07 4.3355817e-07 1.4889569e-08 -3.885395e-08 -4.0065352e-08
3.753645e-07 1.5743025e-08 1.3017714e-07 8.0123314e-08 3.2636154e-07 3.008432e-07 -3.968593e-07 -3.3853257e-07
-6.566251e-07 5.154034e-07 -1.3973124e-07 2.6362366e-07 7.681351e-07 2.6620108e-07 1.6170425e-07 -2.0068623e-07
2.079392e-07 3.9376013e-07 6.2571153e-09 3.1746103e-07 -4.085211e-07 2.574101e-07 -4.913188e-07 -9.7000694e-08
-3.7088775e-08 -1.0578906e-07 1.8930771e-07 3.671055e-07 2.6181408e-07 3.1634676e-07 -2.0752259e-07 -5.082746e-07
-5.662738e-07 -2.5678207e-07 -2.963638e-07 2.0908094e-07 -4.7196585e-07 -8.2040344e-08 -9.245414e-08 9.023556e-08
8.809737e-08 5.451278e-07 6.81059e-08 1.8913809e-07 6.028827e-07 -2.2908634e-07 2.0632686e-07 2.7003037e-07
1.3187314e-07 -6.6337954e-08 2.8770512e-07 -5.9967994e-07 -4.423409e-07 1.775333e-08 -5.990763e-07 5.7130586e-07

layers.5.weight f4 [256]
00000000: a338 7d3f 4af8 7a3f 3f46 7c3f aaea 7c3f
00000010: 8c19 843f 1e9d 7a3f 0700 7a3f ccef 7f3f
00000020: 2917 763f bd6c 813f ea41 823f ef0f 803f
00000030: aad9 753f 235e 783f 4ded 7b3f 307a 7f3f
00000040: b8da 7d3f 47b8 773f 2378 823f 5e8a 803f
00000050: e583 7f3f 6051 803f 5ad2 763f 22b0 803f
00000060: 8660 783f 3357 7c3f 74d2 813f 4196 813f
00000070: a890 803f a2e2 7c3f 0d85 7f3f 2ffc 783f
00000080: 895c 853f 2b43 803f 23a9 7c3f 550b 803f
00000090: ea18 7a3f 3b74 7f3f a452 773f 7c69 7f3f
000000a0: 3120 803f 52a7 793f 522a 813f 486d 823f
000000b0: 1fce 813f 8a33 7c3f 7950 7d3f 1448 7d3f
000000c0: 6da6 7c3f 4b18 803f d7f4 773f c7fc 803f
000000d0: d27b 763f 58ea 823f 70b0 853f 7078 833f
000000e0: e6c8 823f 1243 803f 2db2 813f a5b9 753f
000000f0: 7b55 7e3f 30a2 7b3f 8150 833f e56b 7f3f
00000100: 5b5c 7f3f 59f5 7a3f 36f7 813f 85c7 823f
00000110: b048 793f d49a 803f 0a4b 803f 0a70 7f3f
00000120: a236 7e3f f42b 793f c822 7e3f 60d5 803f
00000130: 57e9 773f 96b0 753f 6876 7f3f 720d 7d3f
00000140: 921e 803f 32f7 7e3f d51f 7a3f c447 7f3f
00000150: e8f4 783f 8da1 7b3f 1ca8 7b3f 2dcf 7d3f
00000160: b856 7d3f 6526 813f 6619 813f 861b 803f
00000170: 2250 7e3f d74b 7d3f 984a 833f 9add 7d3f
00000180: 6883 823f c14c 803f f40d 833f c540 823f
00000190: 68de 803f 2802 7e3f 03ed 743f 9510 7c3f
000001a0: 13d5 7f3f 73c6 7a3f 2305 803f c07a 803f
000001b0: 58ed 813f 3413 7c3f 3bfc 7c3f b7e5 803f
000001c0: 74c8 843f c7dd 7f3f 3387 793f a3ea 823f
000001d0: 5489 843f 7bf4 7c3f b5c5 7b3f cb92 813f
000001e0: 876f 7c3f a776 823f cfb2 7d3f 28cf 803f
000001f0: 5da4 823f 10ad 7a3f bb5d 813f 29da 803f
00000200: b0ee 7a3f 7b17 833f 6f9e 7e3f a1f1 843f
00000210: 5b59 7a3f 1986 7e3f 8e22 813f 2497 7b3f
00000220: c0bf 7c3f f955 7c3f 3528 823f 9c43 7b3f
00000230: be20 803f a301 763f f6f6 773f f057 7d3f
00000240: 77ae 703f 9a07 783f c521 813f 72d2 7c3f
00000250: 7df0 783f 0867 783f 916d 813f 6e23 823f
00000260: 7c38 763f 9c73 7b3f 7a15 7b3f 5182 7d3f
00000270: 0f72 7c3f fa81 803f 36c3 7e3f 9c41 823f
00000280: 2f46 7e3f 9aed 7b3f 1f79 7e3f e072 7b3f
00000290: b7e5 7f3f a4c4 7c3f 986c 753f f8d5 803f
000002a0: 30ff 833f 5483 823f 1f69 813f 3976 733f
000002b0: a45e 7a3f 54aa 803f 8f48 7c3f 4012 783f
000002c0: e5cc 813f fc04 853f 2cb7 793f a684 773f
000002d0: ee8c 7d3f f1c3 773f dc6a 843f 2fd1 773f
000002e0: b875 803f dfe8 773f 2d01 7f3f d205 7a3f
000002f0: 2332 813f 195d 7c3f f159 7e3f cda0 753f
00000300: f17d 7d3f 389b 7b3f d53b 7a3f 7738 7c3f
00000310: f0ba 793f 4948 833f 3ef1 803f da89 793f
00000320: b61d 803f e2bf 7d3f 6afd 7c3f df5e 843f
00000330: 7350 783f 2627 813f f086 823f 31d0 7b3f
00000340: acb5 823f 783a 823f c057 7e3f 5260 783f
00000350: 5cd7 813f 591a 793f e60b 813f ba6a 823f
00000360: 5d55 7c3f 8315 813f 4077 803f 656c 803f
00000370: b264 7b3f 1589 743f d28a 7f3f ca3e 833f
00000380: dd4b 7b3f dd51 7c3f d25d 7b3f 552b 753f
00000390: d7e9 7c3f edb9 7b3f 601e 7e3f d9d5 783f
000003a0: af6b 833f d029 803f 27ce 813f d40b 7f3f
000003b0: df1b 7e3f 179c 813f d81b 7b3f 2c26 7a3f
000003c0: 36d2 7b3f 3d23 803f ea8d 823f 4812 803f
000003d0: ad34 783f 9ee5 7a3f 76b8 7e3f 55b5 7b3f
000003e0: ab77 7c3f 3564 7d3f 99f0 763f aaef 813f
000003f0: 972d 743f f15f 803f 224a 823f 38f7 7d3f
0.98914546 0.9803511 0.9854469 0.9879557 1.0320296 0.9789599 0.9765629 0.99975276
0.9612909 1.0111309 1.0176365 1.0004863 0.96035254 0.9701864 0.9840897 0.9979582
0.99161863 0.9676556 1.0192913 1.0042226 0.9981063 1.0024834 0.9641472 1.0053751
0.97022283 0.98570555 1.014235 1.0123979 1.0044146 0.98783314 0.99812394 0.972598
1.0418864 1.0020498 0.9869558 1.0003458 0.97694266 0.9978673 0.96610475 0.9977033
1.0009824 0.97520936 1.009104 1.01896 1.0141028 0.9851614 0.98950917 0.9893811
0.98691446 1.0007414 0.9685797 1.0077142 0.96282685 1.0227766 1.044447 1.027113
1.0217559 1.0020468 1.01325 0.95986396 0.9934918 0.98294353 1.0258943 0.9977401
0.997503 0.9803062 1.0153568 1.0217139 0.9737654 1.004725 1.00229 0.99780333
0.99302113 0.9733269 0.9927182 1.0065117 0.96840423 0.95972574 0.9979005 0.9884864
1.0009329 0.9959594 0.9770482 0.9971888 0.972487 0.9829338 0.9830339 0.9914425
0.9896045 1.0089842 1.0085876 1.00084 0.9934102 0.9894385 1.0257139 0.9916626
1.0196352 1.0023423 1.0238633 1.0176016 1.0067873 0.9922204 0.9567415 0.984628
0.999345 0.9795906 1.0001568 1.003746 1.0150557 0.984668 0.98822373 1.0070103
1.0373673 0.9994778 0.9747192 1.0227855 1.0354409 0.9881055 0.9834855 1.0122923
0.9860768 1.019246 0.99100965 1.0063219 1.020641 0.9792032 1.0106729 1.0066577
0.9802046 1.0241541 0.994605 1.0386239 0.97792596 0.99423367 1.008867 0.982775
0.9873009 0.98568684 1.016852 0.9815004 1.0009992 0.9609625 0.9686121 0.98962307
0.9401621 0.968866 1.0088431 0.98758614 0.97241956 0.97032213 1.0111562 1.0167062
0.9617994 0.9822328 0.98079646 0.9902697 0.9861154 1.0039666 0.9951662 1.0176272
0.9932584 0.98409426 0.99403566 0.9822216 0.9995989 0.9873755 0.95868826 1.0065298
1.0312252 1.0196328 1.0110205 0.9510227 0.9780066 1.005198 0.98548216 0.9690285
1.0140654 1.0392146 0.97545123 0.9668678 0.99043167 0.9678336 1.0345111 0.96803564
1.0035925 0.9683971 0.9961117 0.9766513 1.0093426 0.98579556 0.9935599 0.9594849
0.99020296 0.9828372 0.97747546 0.9852366 0.9755087 1.0256435 1.0073621 0.9747597
1.0009067 0.99120915 0.9882418 1.0341452 0.96997756 1.0090072 1.019743 0.9836455
1.0211692 1.0174093 0.99352646 0.97021973 1.0143847 0.9730583 1.0081756 1.018882
0.98567754 1.008469 1.0036392 1.0033079 0.98200524 0.9552167 0.998212 1.0253537
0.98162633 0.98562413 0.98190033 0.95769244 0.9879431 0.98330575 0.992651 0.97201306
1.0267237 1.001276 1.0141038 0.99627423 0.9926128 1.012576 0.9808936 0.97714496
0.9836763 1.0010754 1.0199559 1.0005579 0.96955377 0.9800662 0.99500215 0.98323566
0.986201 0.9898103 0.9646087 1.0151265 0.95382065 1.0029279 1.0178874 0.9920535

layers.5.bias f4 [256]
00000000: 996b e1bb 7df2 d8bd e875 08be e860 aaba
00000010: 9f14 aabd 8d02 debd 6cec 14bd 021a 82bd
00000020: 01ea 2eb9 31a9 a9bd 7b88 16bd e9a4 65bd
00000030: 33d5 0cbd 4ef7 77bd 0c9e 55bb eb54 24bd
00000040: 4dd3 42bd e834 5abd 8de0 ddbc e871 9bbc
00000050: 9cde acbd fbde 52bc b804 d6bd 8e9e 96bd
00000060: 9eb4 823c 8213 aebd 8b37 fcbc ad72 e3bc
00000070: 504b a7bd 9696 5fbd d5a2 d4bb 4aaf 81bd
00000080: 6042 33bd c0da 2fbd 7dee cebd 44a9 82bc
00000090: ad25 32bd 7521 8fbd 5d5b f0bc 8eb3 03bd
000000a0: 4775 afbd 135a 6b3b 8622 78bd bc95 41bd
000000b0: b6c0 c6bd f8a0 a2bd 0226 80bb 7d16 edbc
000000c0: 26d9 cb3b 01cf 2ebd 472a 8fbc ef1f f1bd
000000d0: ca3f e1bc ee56 39bd 155b 6ebc c425 6dbd
000000e0: 50b8 4fbd 97d7 80bd fc4d 4ebd b29c 94bd
000000f0: 2cdd 9bbd f34f 67bd 8cd1 a6bd d3f8 d1bc
00000100: 6a32 2cbc 4e7b 9dbd 79a0 d5bd 3615 a03c
00000110: 5314 2cbd e7f4 afbd b7f5 a4bd 804a f5bd
00000120: 9a5e 80bc bb55 8abd 0d09 e7bd 2604 18bd
00000130: 993a 28bd 4d7c adbd 8050 11bd bbd5 2fbd
00000140: 3597 6dbd d0fb 00be 01b5 7bbc 9edc fcbd
00000150: 820f 27bd 15ef e9bd 8a18 61bd 31eb e3bc
00000160: 7b53 90bd 706b 04bd ea02 9dbd 70d7 91bd
00000170: 5b12 d6bc 2d31 a8bd acd5 71bd 6371 b5bd
00000180: 8dbf 96bd ec16 0abc 5cba 02bc 085c b1bc
00000190: dc8c 15bd dd62 97bd d92a b4bc 6032 5abd
000001a0: 215b c2bd 4f24 18bd 3767 2fbd 35f2 6e3a
000001b0: e8c9 23bd 8348 26bc 30ca f7bd f5dd 9abd
000001c0: 3f60 17bd bbfd c03b 5277 d5bd c9a0 babc
000001d0: d68d efba 4d3e 15bd 8641 22bd 85ae 11bd
000001e0: 01bd 6cbd caf0 bbbd 1c6e c8bd 203c 19bc
000001f0: 8a3a b9bd c78e c7bc 512e 08bc 7c86 36bd
00000200: bda7 cabc 74f9 c6bd 4d25 a83c 4d3e dabd
00000210: 9741 49bd 92c7 babb b538 91bd 61ab 40bd
00000220: 8b34 ddbd 4ed0 9cbd 28db 8dbd a289 1cbc
00000230: 3a7e d4bc af69 b7bd 0742 6dbd c095 b5bd
00000240: 1863 c6bd 7e35 66bd 3d86 d4bc f39d 04be
00000250: 5552 71bd 7a95 57bc f62f 5dbd 38e8 1dbd
00000260: 9ed0 65bd de75 55bd 8d4c c3b9 f973 bcbd
00000270: bcd9 63bd 5741 b9bd 670f 33bc 3a2b 3ebd
00000280: e861 cbbd 2319 c4bc fcbb 4fbd 0850 dd3c
00000290: 50a1 a1bc 7079 a6bc 910f 71bd d903 07bd
000002a0: 24e3 91bc 3c6d eebc 24c9 73bd b6c4 03be
000002b0: 3a75 5cbd 4c0c 51bd 7c1b 41bd 310b 19bd
000002c0: fae2 5ebd 3a9b 89bd 1a87 5bbd 380a 35bc
000002d0: 6637 55bc 7417 01bd f18a 3fbd 1e89 b5bd
000002e0: 496e fdbd 281f fcbc 861e 7abd 6488 a2bb
000002f0: 15f2 42bd f12c 5abd a37d 10bc 6e10 76bd
00000300: 28c9 74bd 7f3c 93bd 74c7 86bd 7665 99bd
00000310: 9ca3 edbc 253f 42bd c7a9 5fbd 34b7 0abd
00000320: 232e 62bd 3730 04bd 8ea7 31bd cdd5 87bc
00000330: adaf a2bd 3974 8cbd 36e4 72bc bbea d3bd
00000340: ee49 03be b154 bebd 74f1 00bd 4d5d f9bb
00000350: 5ad0 8d3b 3a8f 2bbd 1f48 b7bd 2bd9 29bd
00000360: d8a0 aebd 916e 633c 4b8f 0abd 8270 0bbe
00000370: d2c2 5b3b b5e2 4fbd befd c9bd 0840 13be
00000380: c87c 42bd 4b03 bdbd f1bf 44bd 351f 35bd
00000390: fc38 69bd c7e4 bdbc 1f73 5bbd 38b9 39bc
000003a0: a97b 9abd ab6d e53a 8da5 bfbd b8a4 f0bc
000003b0: edfb afbd 2155 e03c 2cc3 eabc a06a febc
000003c0: 9daa a5bd d5b1 14bd 0d99 febc 38ff 40bc
000003d0: be70 e5bc 87bb a9bd 40fa a6bd bf52 a1bd
000003e0: 9bba 00bd 898f 1ebd c21d b0bd 7ecd 46bd
000003f0: 903d 0cbd 1816 9bbd e385 a9bd 08e7 c8bb
-0.0068792817 -0.10593126 -0.13326228 -0.0012998851 -0.083047144 -0.1084033 -0.036358282 -0.06352617
-0.00016681106 -0.08284224 -0.03675125 -0.056065474 -0.03438301 -0.060538583 -0.0032595424 -0.040120047
-0.047564793 -0.05327311 -0.027084613 -0.018975213 -0.08440897 -0.0128705455 -0.10450119 -0.07354461
0.015955266 -0.084998146 -0.030788204 -0.027764643 -0.081686616 -0.05458697 -0.0064891377 -0.06332262
-0.043764472 -0.042933226 -0.10104082 -0.015949853 -0.04349296 -0.06988803 -0.02934044 -0.03215366
-0.08567291 0.0035911843 -0.0605798 -0.04726194 -0.097047254 -0.079408586 -0.003910781 -0.028941387
0.0062209545 -0.042677883 -0.017476214 -0.11773669 -0.027496237 -0.04524892 -0.014548083 -0.057897344
-0.050712883 -0.062911205 -0.05036734 -0.0725645 -0.076105446 -0.05647273 -0.08145437 -0.025631344
-0.0105100665 -0.07689534 -0.10430998 0.019541364 -0.04201157 -0.08591633 -0.08054679 -0.119771
-0.01567011 -0.06754633 -0.11281023 -0.03711333 -0.041071508 -0.08470974 -0.03547716 -0.04292844
-0.05800553 -0.12596059 -0.015362979 -0.12346767 -0.040786274 -0.114225544 -0.054955043 -0.027822109
-0.07047173 -0.032329023 -0.076665714 -0.071211696 -0.0261318 -0.082125045 -0.059041664 -0.088595174
-0.07360754 -0.008428317 -0.007979002 -0.02165033 -0.036511287 -0.073919035 -0.021993088 -0.053270698
-0.09490038 -0.037144 -0.042823043 0.0009115071 -0.039987475 -0.010149124 -0.12099111 -0.07561866
-0.03695702 0.005889622 -0.10423149 -0.022781746 -0.0018276523 -0.036436368 -0.03961327 -0.035566825
-0.057797436 -0.09176786 -0.09786627 -0.009352714 -0.090443686 -0.024360074 -0.008311824 -0.044561848
-0.024738187 -0.09715548 0.020525599 -0.10656414 -0.049134817 -0.00570006 -0.07090894 -0.04703844
-0.108010374 -0.076569185 -0.06926566 -0.009554299 -0.025939096 -0.089557044 -0.057924297 -0.08866453
-0.096868694 -0.056203358 -0.025942916 -0.12950878 -0.05891641 -0.013158197 -0.054000817 -0.03855154
-0.056107156 -0.05211436 -0.00037250333 -0.092018075 -0.05562757 -0.09045666 -0.010928965 -0.046427943
-0.099307835 -0.023937767 -0.050716385 0.027015701 -0.01973024 -0.020321578 -0.058852736 -0.032962654
-0.017808504 -0.029104821 -0.059517995 -0.12868008 -0.053822733 -0.051037118 -0.04714535 -0.03736419
-0.05441568 -0.0671906 -0.05359564 -0.0110498 -0.013013696 -0.031516507 -0.046763364 -0.08864044
-0.12374551 -0.030776575 -0.061064266 -0.0049601067 -0.04759415 -0.053265516 -0.008819017 -0.060074262
-0.05976215 -0.07189273 -0.065810114 -0.07490055 -0.02900868 -0.0474235 -0.05460527 -0.033866122
-0.05521978 -0.032272544 -0.043372683 -0.01658144 -0.07943664 -0.06858105 -0.014824918 -0.10347506
-0.1282117 -0.09293497 -0.031480268 -0.0076099993 0.004327816 -0.04188464 -0.08949303 -0.041466873
-0.08526772 0.013881342 -0.03382806 -0.13617137 0.003353287 -0.050753314 -0.098628506 -0.14379895
-0.047482282 -0.09229144 -0.048034612 -0.044219214 -0.05693911 -0.023180379 -0.053576585 -0.0113356635
-0.075431176 0.0017503997 -0.09357748 -0.029375419 -0.08592973 0.027384343 -0.028657518 -0.031056702
-0.080891825 -0.036302406 -0.03107884 -0.011779599 -0.028007861 -0.08287721 -0.081532 -0.07877111
-0.03142796 -0.038711105 -0.08599426 -0.048535816 -0.034238398 -0.075725734 -0.0827749 -0.0061310567
