data.pth (torch, 712704 bytes, 20 tensors)

layers.0.weight f4 [128, 633]
0	0x3cd474e8	0.025934651
1	0xbbb7feb3	-0.0056150793
2	0xbcd38d1a	-0.025824118
3	0x3c909a26	0.017651629
4	0x3c4144a1	0.011796148
5	0x3c974bae	0.018468704
6	0xbb2a442f	-0.0025980582
7	0x3ce3b20b	0.027794858
8	0x3d224da9	0.039624844
9	0xbc3447a5	-0.0110034095
10	0x3d14a4c7	0.036289956
11	0x3acdfaad	0.0015714966
12	0x3c35f35a	0.011105383
13	0x032daaf8	5.1036393e-37
14	0x3bf6ab9b	0.007527781
15	0x3d090cbf	0.03345942
16	0x3d9e852f	0.077402465
17	0xbc29695a	-0.010340059
18	0xbbaa3499	-0.0051942584
19	0xbbb2f57e	-0.005461394
20	0xbcea6f0d	-0.028617406
21	0x3d37ecdf	0.044903632
22	0x3bd77d1a	0.0065761926
23	0x3d28cd2d	0.041211296
24	0xbd159394	-0.036517695
25	0x3b1b6a32	0.002371442
26	0xbc49e6a0	-0.012323052
27	0xbae3d1f8	-0.0017381301
28	0xbcc6a766	-0.024249744
29	0xbd6785aa	-0.056523956
30	0x3be151cb	0.0068762056
31	0xbd7ee035	-0.06222554
32	0x3d1fa551	0.038976017
33	0xbc659666	-0.014012909
34	0x3be344b5	0.0069356808
35	0x031937e5	4.5026823e-37
36	0x3cdb71bc	0.026787631
37	0x3d008126	0.031373166
38	0x3b4945d7	0.0030711794
39	0x3beec8f4	0.007287139
40	0xbc917880	-0.017757654
41	0xbcd5ca8a	-0.026097555
42	0xbc622b82	-0.013804318
43	0x3cd46658	0.025927708
44	0x3b7875b3	0.003791195
45	0x3cc7ba30	0.024380773
46	0x3d5f5ce9	0.054531965
47	0xbbfd6b75	-0.007733757
48	0x821e6e27	-1.1639619e-37
49	0xbcc336df	-0.023829876
50	0xbc3cecd8	-0.011531077
51	0xbbaae97a	-0.005215821
52	0x3ca12002	0.019668583
53	0x3d87dee5	0.06634311
54	0x3cae45e7	0.021273566
55	0x3cfafd4f	0.030638365
56	0x83423ae6	-5.707909e-37
57	0xbcd74abb	-0.026280751
58	0x3cefa0e4	0.029251523
59	0xba9a459e	-0.0011770015
60	0xbcfcf773	-0.030879712
61	0xbc92fb88	-0.017942205
62	0x3cb9ce00	0.022681236
63	0xba665233	-0.00087860523
64	0x3d1eccfb	0.038769703
65	0xbc062071	-0.008186446
66	0x3d4f3eff	0.050597187
67	0x8374c828	-7.1934924e-37
68	0xba2a6576	-0.0006500104
69	0xb8894574	-6.545606e-05
70	0x3cdba56c	0.026812278
71	0xbbc4964e	-0.005999363
72	0x3b6e7a77	0.0036388913
73	0xbd35aead	-0.044356037
74	0xbcd52d04	-0.026022442
75	0xbc816eea	-0.015799958
76	0xbc105bb2	-0.008810924
77	0xb9b0ea4d	-0.00033743904
78	0xbc8d193c	-0.017223947
79	0x3c5496f3	0.012975442
80	0x3c8aeead	0.016959513
81	0xbccbf9cb	-0.024899384
82	0x3cd5304e	0.02602401
83	0xbb362ed2	-0.0027798903
84	0x3c07d759	0.008291089
85	0xbcca158d	-0.02466848
86	0xbce0151b	-0.027353814
87	0xbcb29ffd	-0.021804804
88	0x3cd34bbf	0.025792954
89	0x3cd24172	0.025665972
90	0xbc40b61b	-0.011762167
91	0x3b5542cd	0.0032541037
92	0x3d153dd8	0.036435932
93	0xb7d6314b	-2.5533742e-05
94	0x3c309b21	0.010779173
95	0xbce600ad	-0.028076494
96	0x3d5f1def	0.054471906
97	0x3d45e559	0.048314426
98	0x3c8a3d4b	0.01687493
99	0xbd27cc45	-0.04096629
100	0xbcdf2bc9	-0.027242558
101	0x3c6c09dd	0.014406648
102	0xbbd4d2ce	-0.0064948564
103	0xbd11d333	-0.035601806
104	0x3cdece9c	0.027198128
105	0x3cb29b4f	0.021802573
106	0xbd5788a9	-0.052620564
107	0xbd3a3057	-0.045456257
108	0x3cdcd8f8	0.026958928
109	0xbc8a96f8	-0.01691769
110	0x3d2dcb07	0.04242995
111	0x3b03e271	0.0020123983
112	0xbbd50559	-0.0065008816
113	0xbcaaf494	-0.020868577
114	0x3be515d5	0.006991128
115	0x3ccb5726	0.024821829
116	0xbd2120ce	-0.039337926
117	0xbd622c2e	-0.055217914
118	0x037fda19	7.518813e-37
119	0xbc9ccdcb	-0.019141098
120	0xbbdaa43a	-0.0066724094
121	0xbc413c34	-0.011794139
122	0x3aa4447d	0.0012532618
123	0xbd0ceb7a	-0.034404255
124	0xbd8b5fac	-0.06805357
125	0x3cac5cfe	0.021040436
126	0xbd018990	-0.03162533
127	0xbcada822	-0.021198336
128	0x3dade27e	0.084904656
129	0xbac67a62	-0.0015142674
130	0x3c88401b	0.01663213
131	0xbbfe9f07	-0.0077704224
132	0xbd05e3be	-0.032687895
133	0x3c1167f8	0.008874886
134	0xbb8e3ad7	-0.0043405103
135	0x03303950	5.1787543e-37
136	0xbbdcb4e8	-0.006735433
137	0xbce2a7eb	-0.02766796
138	0xbc1cb611	-0.009564892
139	0xbbc2cab5	-0.0059445747
140	0x3d7c108e	0.061539225
141	0xbc20a328	-0.0098045245
142	0xbb3b6fb5	-0.0028600518
143	0xbd9a29ea	-0.07527526
144	0x3c8a317b	0.016869297
145	0xbc3d877a	-0.011567945
146	0x3c849ea0	0.01618892
147	0x031c7cb3	4.5987427e-37
148	0x3d8eba77	0.06969159
149	0xbcb90a63	-0.02258796
150	0x3cdb3c50	0.026762158
151	0x3c44f396	0.012020966
152	0x3bdbe1d3	0.00671027
153	0xbc4a7879	-0.0123578245
154	0x3d13e454	0.036106423
155	0xbc2e9511	-0.010655657
156	0x032adc7d	5.021162e-37
157	0x3d6eb075	0.05827375
158	0xba0a095c	-0.0005265677
159	0x3ab8c729	0.001409744
160	0x0387d5dc	7.983687e-37
161	0xba920175	-0.001113935
162	0x3d0fc566	0.035100363
163	0xbbb10c52	-0.00540308
164	0x3cd9e011	0.026596101
165	0x3c8b4dc1	0.01700485
166	0xbc7fd0dd	-0.015613762
167	0x3d2d6ed0	0.042342007
168	0xbc898395	-0.016786376
169	0x3cff582a	0.03116997
170	0xbbde2cf8	-0.006780263
171	0xbbf088c5	-0.007340523
172	0x3cfeada6	0.031088661
173	0x3cbae96e	0.022816386
174	0xbc367dc2	-0.011138381
175	0x3bd99d07	0.0066410336
176	0xbd197360	-0.037463546
177	0x3bb6e6b3	0.0055817007
178	0x3c5f5b28	0.013632573
179	0xbd6d2516	-0.057896696
180	0x395198aa	0.00019988665
181	0x3d3b4a5e	0.04572522
182	0x3c30018f	0.010742559
183	0xbd3aea20	-0.045633435
184	0x3d5b4c2a	0.053539433
185	0xbb61a336	-0.0034429557
186	0xbc802771	-0.015643807
187	0x398716a7	0.00025766084
188	0xbd2c20e8	-0.04202357
189	0x02a7187d	2.45525e-37
190	0xbc67955a	-0.014134729
191	0xbccbcc62	-0.02487773
192	0xbc78809f	-0.015167384
193	0x3d0b9b4d	0.034083653
194	0xbcd9b6f2	-0.026576493
195	0x3ba9df0b	0.0051840595
196	0xb8738e11	-5.8068024e-05
197	0xbc9d91b5	-0.019234518
198	0x3cac1b66	0.021009158
199	0x82eb40d6	-3.456736e-37
200	0xbd0fb630	-0.035085857
201	0x3c612bc4	0.013743345
202	0x836db446	-6.9854984e-37
203	0xbb22c89d	-0.0024838813
204	0xbc1cb9be	-0.009565769
205	0xbc94a53d	-0.018145198
206	0xbb0cd4f5	-0.0021489237
207	0xbb3a15e1	-0.0028394389
208	0x3be7d3eb	0.007074823
209	0xbb413bf6	-0.0029485202
210	0x3cff1919	0.031139897
211	0xbbe6fc8d	-0.0070491494
212	0xbc428e45	-0.01187474
213	0xbd323828	-0.043510586
214	0x3cbc3a88	0.022977129
215	0x3d975313	0.07388892
216	0xbccf939d	-0.025338942
217	0x3d14eec0	0.036360502
218	0x3be04d03	0.006845118
219	0x3ab01904	0.001343519
220	0xbc1491dc	-0.009067979
221	0x3a97696b	0.0011551803
222	0x3c87186b	0.016491136
223	0xbcaab366	-0.020837497
224	0xbd5fd302	-0.054644592
225	0x02efc97e	3.5233545e-37
226	0x3cde30e4	0.027122922
227	0x3c44fec5	0.012023632
228	0x3d56fb7f	0.05248594
229	0x3ca3436a	0.019929606
230	0x3c9bca4a	0.019017357
231	0x3d06a8a0	0.032875657
232	0x3c403ccc	0.011733245
233	0x3be7ad93	0.007070252
234	0x3d0045cf	0.031316575
235	0xba7d00b4	-0.0009651289
236	0xbc6a60d2	-0.01430531
237	0xbcc857ef	-0.024455993
238	0x3d3d577b	0.046226006
239	0xba410ece	-0.0007364572
240	0x3be4fece	0.006988383
241	0x3bd43ede	0.006477221
242	0xbd315190	-0.043290675
243	0xbce7154e	-0.028208401
244	0x3c53bdc9	0.012923666
245	0xbc1b832b	-0.009491722
246	0xbd1b2d72	-0.037885137
247	0xbcaa592a	-0.02079447
248	0x3c0bd827	0.008535421
249	0xbccc1168	-0.024910644
250	0xbce523d0	-0.027971178
251	0xbd85ead1	-0.06538928
252	0xbace2c7a	-0.0015729808
253	0x3c22bc9b	0.009932662
254	0x3acde985	0.0015709853
255	0xbd4aee28	-0.04954353

layers.0.bias f4 [128]
0	0x36465c08	2.9557868e-06
1	0x37804073	1.52888e-05
2	0x369701cb	4.5003594e-06
3	0xb68ba41f	-4.161629e-06
4	0xb6b24437	-5.3127546e-06
5	0xb7044800	-7.884577e-06
6	0x36c8f4de	5.9889708e-06
7	0xb6565ee9	-3.194373e-06
8	0xb742bda3	-1.1607454e-05
9	0xb70de95a	-8.458586e-06
10	0x37010e06	7.692264e-06
11	0xb7d33a97	-2.5180443e-05
12	0xb5cb5b13	-1.5151185e-06
13	0xb689e3ba	-4.109429e-06
14	0xb6273c07	-2.491988e-06
15	0xb6962a0b	-4.475243e-06
16	0x35de23a1	1.6550658e-06
17	0x377bb2f2	1.500243e-05
18	0x36f7a012	7.3798083e-06
19	0xb6404400	-2.864981e-06
20	0x35242a52	6.1156345e-07
21	0x3632db71	2.6651799e-06
22	0xb7197840	-9.1475085e-06
23	0xb80f9264	-3.4230194e-05
24	0x35903053	1.07429e-06
25	0xb67da238	-3.7794362e-06
26	0xb4ba3a79	-3.4687744e-07
27	0xb5b779b1	-1.3669979e-06
28	0x36b3e1d3	5.360905e-06
29	0xb78904d1	-1.6333915e-05
30	0x374f03c9	1.2339043e-05
31	0x374f2ea1	1.2349018e-05
32	0xb70f3e9d	-8.5380425e-06
33	0x372d3407	1.0323717e-05
34	0x36475a57	2.9705895e-06
35	0x3781ba3f	1.5464726e-05
36	0xb7068fce	-8.0205045e-06
37	0xb4029636	-1.216184e-07
38	0x379119a9	1.7297296e-05
39	0xb6adc473	-5.1786715e-06
40	0xb706d903	-8.037549e-06
41	0xb7338960	-1.07012165e-05
42	0x3693e0cd	4.4071116e-06
43	0x378854a6	1.625188e-05
44	0x35faf229	1.8696929e-06
45	0x3781b235	1.5460982e-05
46	0xb77dfa02	-1.5138185e-05
47	0x3763e312	1.3583123e-05
48	0xb6965b2d	-4.4809626e-06
49	0xb634bbc1	-2.6931377e-06
50	0x367d9680	3.778754e-06
51	0x352aad40	6.3582047e-07
52	0x35213cb4	6.006551e-07
53	0x366f9350	3.5699522e-06
54	0xb6860efc	-3.9952556e-06
55	0x37744df6	1.4561685e-05
56	0x37793271	1.4853301e-05
57	0xb707a242	-8.084406e-06
58	0x375d73c7	1.3199583e-05
59	0xb734fd85	-1.0787863e-05
60	0x3747207c	1.1868888e-05
61	0x3657b1b6	3.2140938e-06
62	0x3734f349	1.078548e-05
63	0xb7369c26	-1.08844015e-05
64	0x36a95be2	5.047289e-06
65	0xb60e4f2e	-2.1205738e-06
66	0x371bd462	9.288169e-06
67	0xb45a2c04	-2.0318845e-07
68	0xb74d628e	-1.2241899e-05
69	0x370dd14a	8.452984e-06
70	0xb706d997	-8.037684e-06
71	0xb7432a7f	-1.16328e-05
72	0x374f553d	1.2358008e-05
73	0x35c0c934	1.4363673e-06
74	0xb68253d4	-3.884061e-06
75	0x3787dc28	1.6195772e-05
76	0xb5d2a935	-1.5695465e-06
77	0xb498a375	-2.8431137e-07
78	0x36edff39	7.0928622e-06
79	0x37889b77	1.6284857e-05
80	0x3701082c	7.690902e-06
81	0x37a62d79	1.9809917e-05
82	0x37c1131d	2.3016293e-05
83	0xb6a86bf5	-5.019358e-06
84	0xb64379e2	-2.912821e-06
85	0x36f566bb	7.3135284e-06
86	0x36a202b0	4.828289e-06
87	0x362c9e47	2.5722127e-06
88	0xb6a2b01a	-4.848477e-06
89	0x370437aa	7.880773e-06
90	0xb71fca83	-9.524289e-06
91	0x3780a162	1.5333939e-05
92	0x3785a6a9	1.5932443e-05
93	0x356eba1c	8.8932734e-07
94	0xb70055d2	-7.649376e-06
95	0x37274478	9.969917e-06
96	0xb64a6e57	-3.0164572e-06
97	0xb760e2c1	-1.3404236e-05
98	0xb6beae8f	-5.6827625e-06
99	0x354f6a9f	7.7268663e-07
100	0x37d44250	2.5303249e-05
101	0xb6e4ba37	-6.8166078e-06
102	0x3776831b	1.4693268e-05
103	0x360aa5ed	2.0660184e-06
104	0x3731ad4a	1.0590369e-05
105	0xb61ac2a5	-2.3061086e-06
106	0xb781aa68	-1.545735e-05
107	0x36c0e041	5.7481525e-06
108	0xb78baa1a	-1.6649301e-05
109	0x36338db2	2.6755556e-06
110	0xb73ced1b	-1.1260879e-05
111	0xb69d0495	-4.679498e-06
112	0x376105cb	1.3412394e-05
113	0xb75c0df1	-1.3116268e-05
114	0xb67d8078	-3.7774716e-06
115	0x37adb8ee	2.0709322e-05
116	0x35d18b20	1.5612204e-06
117	0x3616e47f	2.2484744e-06
118	0x37ebaa09	2.8093362e-05
119	0x35cd6cc4	1.5305345e-06
120	0xb7a72fd5	-1.9930225e-05
121	0xb745ccbb	-1.1789783e-05
122	0xb71241a8	-8.717565e-06
123	0x3681304d	3.8501225e-06
124	0xb5e05d6e	-1.6716492e-06
125	0xb722b0db	-9.69713e-06
126	0xb786e85d	-1.6082247e-05
127	0x36df2a82	6.6508665e-06

layers.1.weight f4 [128]
0	0x3f7b21d9	0.9809852
1	0x3f7d8d46	0.9904369
2	0x3f840aeb	1.0315832
3	0x3f792146	0.97316396
4	0x3f78bb2e	0.97160614
5	0x3f7c271b	0.9849717
6	0x3f77d5d7	0.9681067
7	0x3f81eecd	1.0151001
8	0x3f80711a	1.0034516
9	0x3f7d00ec	0.9882953
10	0x3f802527	1.0011338
11	0x3f7b8092	0.9824306
12	0x3f7f3ae1	0.9969922
13	0x3f738add	0.95133764
14	0x3f804939	1.0022346
15	0x3f82686e	1.018812
16	0x3f80d466	1.0064819
17	0x3f7f8c69	0.99823624
18	0x3f80d870	1.0066051
19	0x3f7c220c	0.9848945
20	0x3f835bac	1.0262351
21	0x3f806f5b	1.0033983
22	0x3f7ec903	0.9952547
23	0x3f7adb01	0.97990423
24	0x3f829ca9	1.0204059
25	0x3f759741	0.9593392
26	0x3f7efdec	0.99606204
27	0x3f7ff787	0.9998707
28	0x3f80eef4	1.0072923
29	0x3f80691e	1.0032079
30	0x3f7feebf	0.9997367
31	0x3f7b4662	0.9815427
32	0x3f82e44e	1.0225923
33	0x3f78e52b	0.9722468
34	0x3f8095b7	1.0045689
35	0x3f797eab	0.97458905
36	0x3f77debf	0.9682426
37	0x3f81622a	1.0108082
38	0x3f7d5377	0.9895548
39	0x3f7a0eeb	0.97679013
40	0x3f7ac889	0.9796224
41	0x3f7e3122	0.9929372
42	0x3f82f994	1.0232415
43	0x3f7dcaa8	0.99137354
44	0x3f7de064	0.9917052
45	0x3f7c8e20	0.98654366
46	0x3f79d5da	0.97591937
47	0x3f83bf93	1.0292839
48	0x3f811029	1.0083057
49	0x3f7f5e71	0.9975348
50	0x3f80fa54	1.0076394
51	0x3f7b6856	0.9820608
52	0x3f82c246	1.0215538
53	0x3f81e3db	1.0147661
54	0x3f83c1db	1.0293535
55	0x3f7f50df	0.99732774
56	0x3f845a35	1.0340029
57	0x3f7c9263	0.9866087
58	0x3f7a5bc6	0.97796285
59	0x3f8000f3	1.000029
60	0x3f82aaff	1.0208434
61	0x3f7fbc1d	0.99896413
62	0x3f80f989	1.0076152
63	0x3f829746	1.0202415
64	0x3f7e411f	0.99318117
65	0x3f7ba330	0.9829588
66	0x3f80b5fc	1.0055537
67	0x3f804bef	1.0023173
68	0x3f7bbee8	0.98338175
69	0x3f812699	1.0089904
70	0x3f7b0de2	0.9806806
71	0x3f7e4862	0.993292
72	0x3f808cbc	1.0042949
73	0x3f81c981	1.0139619
74	0x3f7d6c72	0.989936
75	0x3f76158d	0.96126634
76	0x3f820faf	1.0161036
77	0x3f7dff69	0.9921785
78	0x3f7ec743	0.995228
79	0x3f77ab8c	0.96746135
80	0x3f7a9a8c	0.9789207
81	0x3f7fe45f	0.9995784
82	0x3f80bcda	1.0057633
83	0x3f7f1fbf	0.99657816
84	0x3f81356e	1.009443
85	0x3f7e38a9	0.99305207
86	0x3f8168d5	1.0110117
87	0x3f8022fb	1.0010675
88	0x3f7dcbef	0.991393
89	0x3f76778d	0.9627617
90	0x3f847feb	1.0351537
91	0x3f76be25	0.9638389
92	0x3f7293a9	0.9475656
93	0x3f80c9ec	1.0061622
94	0x3f7afc00	0.9804077
95	0x3f812f8e	1.0092638
96	0x3f839653	1.028025
97	0x3f83030d	1.0235306
98	0x3f7f0ef4	0.9963219
99	0x3f7afafd	0.9803923
100	0x3f7cc3a9	0.98736054
101	0x3f81b848	1.0134363
102	0x3f8317ae	1.0241601
103	0x3f7a8b34	0.9786866
104	0x3f82bf96	1.0214717
105	0x3f81bb33	1.0135254
106	0x3f7f5eb4	0.9975388
107	0x3f7f7952	0.99794495
108	0x3f810b8c	1.0081649
109	0x3f818d4c	1.0121245
110	0x3f7b5067	0.9816956
111	0x3f793cfb	0.97358674
112	0x3f7d6033	0.98974913
113	0x3f819d3d	1.012611
114	0x3f7bf531	0.9842101
115	0x3f806fba	1.0034096
116	0x3f820f79	1.0160972
117	0x3f7dfa43	0.99209994
118	0x3f7e391e	0.99305904
119	0x3f81e30f	1.0147418
120	0x3f806b5b	1.0032762
121	0x3f7f80d4	0.9980595
122	0x3f7c1122	0.9846364
123	0x3f7fd941	0.9994088
124	0x3f7c44ec	0.98542666
125	0x3f815f9c	1.0107303
126	0x3f81d927	1.0144395
127	0x3f8095ea	1.004575

layers.1.bias f4 [128]
0	0xbd871043	-0.065948986
1	0xbd0036e6	-0.031302355
2	0xbc249385	-0.010044937
3	0xbd3b0b14	-0.04566486
4	0xbd5063e9	-0.05087653
5	0xbcb5c37d	-0.022187943
6	0xbd96e1e1	-0.07367302
7	0xbd5ba72f	-0.053626236
8	0x3c2182a0	0.009857804
9	0xbd176e9e	-0.036970727
10	0xbc27fefc	-0.010253664
11	0xbd1677be	-0.03673529
12	0xbdc02b5d	-0.09383271
13	0xbd969370	-0.0735234
14	0x3b0a1a9a	0.0021072985
15	0xbcc3dc97	-0.023908896
16	0xbd53b9fb	-0.051691037
17	0xbd996db8	-0.0749163
18	0xbb2810e1	-0.0025644826
19	0xbd5e13ad	-0.054217983
20	0xbccf5e5c	-0.025313549
21	0xbbdc580f	-0.0067243646
22	0xbd08d78b	-0.033408683
23	0xbd823dff	-0.06359481
24	0x3b9c2789	0.004765455
25	0xbd8a731d	-0.06760237
26	0xbb46ed72	-0.003035393
27	0xbd3063e5	-0.043064017
28	0xbd108f8c	-0.035293147
29	0xbcaefa00	-0.021359444
30	0xbd6a723c	-0.05723785
31	0xbd143338	-0.03618166
32	0xbbe67f26	-0.0070342002
33	0xbd82a384	-0.063788444
34	0xbcd40f62	-0.025886241
35	0xbcedb759	-0.029018091
36	0xbd24382d	-0.040092636
37	0xbbdeb07a	-0.00679594
38	0xbd5e9fcd	-0.054351617
39	0xbd6f7dca	-0.05846957
40	0xbd9ade67	-0.07561951
41	0xbccb3a16	-0.024807971
42	0xbc9b8c55	-0.018987814
43	0xbca7b676	-0.020472746
44	0xbce47686	-0.027888548
45	0xbd48284d	-0.04886656
46	0xbd38d436	-0.045124255
47	0xbc664f2d	-0.014056963
48	0x3ccd9bf3	0.025098776
49	0xbc3ab97c	-0.011396762
50	0xbcc4c306	-0.024018776
51	0xbce7c98b	-0.028294345
52	0x3be37ace	0.0069421297
53	0xbd21bc87	-0.039486434
54	0xbc617142	-0.013759913
55	0xbd2025c3	-0.039098512
56	0xbcbce719	-0.023059415
57	0xbcfad31f	-0.030618249
58	0xbce48a55	-0.027897993
59	0xbc4a75f6	-0.012357226
60	0xbc9cc431	-0.01913652
61	0xbcd6aa1b	-0.02620416
62	0xbc7a71e5	-0.015285944
63	0x3caecbf9	0.021337496
64	0xbcb59e86	-0.022170316
65	0xbd7bd6f3	-0.06148429
66	0xbd435a35	-0.04769345
67	0xbcdd89bf	-0.027043222
68	0xbd9720bc	-0.073792905
69	0xbcaf0260	-0.021363437
70	0xbc09ba8b	-0.008406292
71	0xbcec3e05	-0.028838167
72	0xbcec252b	-0.028826317
73	0xbcd80766	-0.026370715
74	0xbc6b9608	-0.014379032
75	0xbd530c96	-0.051525675
76	0xbcbdd39d	-0.023172194
77	0xbc28fb05	-0.010313754
78	0xbd368e0a	-0.044569053
79	0xbdcd2ade	-0.10017942
80	0xbd1a3169	-0.037644777
81	0xbd0d2b37	-0.03446504
82	0xbd40953a	-0.047017314
83	0xbd62ea7c	-0.055399403
84	0xbcb4cb98	-0.022069737
85	0xbd3922d2	-0.045199223
86	0xbb1e6621	-0.002416976
87	0xbd51ae32	-0.051191516
88	0xbd2fa1f6	-0.042879067
89	0xbd9b6d45	-0.07589201
90	0xbbe4a054	-0.0069771204
91	0xbdd8a6fa	-0.10578723
92	0xbd6f2b41	-0.05839086
93	0xbaa74e6d	-0.0012764462
94	0xbd68ace9	-0.056805525
95	0xbd24735b	-0.040149074
96	0x3c17de93	0.009269374
97	0xbd287419	-0.041126344
98	0xbd980d53	-0.074244164
99	0xbd318b63	-0.04334582
100	0xbd728993	-0.059213232
101	0xbc7ecc18	-0.015551589
102	0xbc7ed9eb	-0.015554885
103	0xbd2901e7	-0.04126158
104	0xbc870293	-0.01648072
105	0x3a5491cd	0.0008108884
106	0xbd057c39	-0.03258917
107	0x3b164700	0.0022930503
108	0xbc67f537	-0.014157585
109	0xbb7a7b15	-0.0038220335
110	0xbd8252ec	-0.06363472
111	0xbd130db7	-0.03590175
112	0xbd075ac7	-0.033045556
113	0xbd53c2b3	-0.05169935
114	0xbd019b22	-0.031642087
115	0xbcae0bcd	-0.021245861
116	0xbc9d9486	-0.01923586
117	0xbd19654f	-0.03745013
118	0xbd393cb6	-0.045223914
119	0xbc971f0b	-0.01844742
120	0xbcfea427	-0.031084133
121	0xbcc8743a	-0.024469484
122	0xbdaa7f8f	-0.08325111
123	0xbd905345	-0.070471324
124	0xbcac2a1a	-0.02101617
125	0x39647f02	0.00021791089
126	0xbc447965	-0.011991833
127	0xbc9785d8	-0.018496439

layers.1.running_mean f4 [128]
0	0xbc587be6	-0.013213133
1	0x3bff8acc	0.0077985283
2	0x3ac7d108	0.0015244791
3	0xbcc003c7	-0.023439301
4	0xbc7d0ff8	-0.015445702
5	0xbc1d5592	-0.009602921
6	0x3bb44b94	0.0055021737
7	0xbbe0de64	-0.0068624485
8	0xbb115e12	-0.0022181314
9	0xbbfcfb08	-0.007720355
10	0x3ae25325	0.0017267211
11	0x3cc57ea1	0.024108233
12	0x3c7e3150	0.015514687
13	0x3c5184ed	0.01278804
14	0x3c8fdf12	0.017562423
15	0x3c07b71a	0.008283401
16	0xbbda9a86	-0.0066712527
17	0x3c7be58e	0.015374554
18	0xbb444e7d	-0.002995401
19	0x3be7e90c	0.007077342
20	0x3b3b5de5	0.00285899
21	0xbc043175	-0.008068432
22	0x3cd4beb7	0.025969846
23	0xba186a9e	-0.0005814227
24	0x3c903f5f	0.017608343
25	0xb9e798e6	-0.00044173672
26	0xbc7491f2	-0.014927374
27	0xbc837b17	-0.016049905
28	0x3c50dfea	0.012748698
29	0xba973ad9	-0.0011537924
30	0xbc332f39	-0.010936552
31	0x3c05ab1b	0.0081584705
32	0xba958161	-0.0011406356
33	0x3c898409	0.016786592
34	0x398454c2	0.0002524015
35	0xbc17c35a	-0.009262884
36	0x3c54dfd7	0.012992821
37	0xbb31d8a2	-0.002713718
38	0xbb8a1978	-0.004214462
39	0x3c9ad157	0.01889865
40	0x3c745e62	0.014915081
41	0xbd043aaf	-0.032282528
42	0x3bf28f90	0.007402368
43	0xb9d4430c	-0.00040485745
44	0x3be37834	0.0069418196
45	0x3b7d6f33	0.0038671016
46	0xbbe3c1ac	-0.0069505777
47	0x3a370c6f	0.0006982749
48	0xbc10bdf5	-0.008834352
49	0x3a866ee0	0.0010256432
50	0xbb8588f2	-0.004075163
51	0xbc1b17cc	-0.009466123
52	0xbc2cae6a	-0.01053963
53	0x3bb204ec	0.0054327156
54	0x3b219e23	0.0024660907
55	0x3c76636d	0.015038353
56	0xbb2054b6	-0.0024464554
57	0x3b288885	0.0025716138
58	0xbbb40d97	-0.005494784
59	0x3c122c3b	0.008921678
60	0xbaa41b5b	-0.001252036
61	0x3cd6464e	0.02615657
62	0xbc8b5cf0	-0.01701209
63	0x3c3ba16f	0.011452063
64	0x3b20062a	0.0024417737
65	0xbc91e9a4	-0.017811604
66	0xbafb1d4a	-0.0019158509
67	0x3c7c1c47	0.015387601
68	0x3ca7b7aa	0.02047332
69	0xbba41a6b	-0.005008032
70	0x3c697319	0.014248633
71	0xbc1917b4	-0.00934403
72	0x3b3839d8	0.002811065
73	0xbaf96bb8	-0.0019029295
74	0x3c4511b2	0.012028145
75	0xbce8a1ae	-0.028397407
76	0x3c81b00c	0.015831016
77	0x3bbfbe1e	0.005851521
78	0x3c2122e9	0.009834983
79	0x3ca93248	0.020653859
80	0xbcf632f8	-0.0300536
81	0xbb9b8a4e	-0.004746712
82	0xbc4c1260	-0.012455553
83	0x3c9415e2	0.01807684
84	0x3c018de9	0.007907369
85	0xbc715753	-0.014730292
86	0x3b8fd9dc	0.0043899845
87	0x3cc7c835	0.024387458
88	0x3bd5db8e	0.006526417
89	0xbcb1bfe0	-0.021697938
90	0xbbb93dc5	-0.0056531155
91	0x3c5ba1cd	0.0134052755
92	0xba93bc1c	-0.0011271271
93	0x3b8bb64e	0.004263676
94	0xb91cf7aa	-0.00014969581
95	0xbbd637ae	-0.0065373993
96	0x3c1e2020	0.009651214
97	0xba8e1808	-0.0010840902
98	0xbc7747e4	-0.015092824
99	0x3c86551b	0.016398003
100	0x3c9626e9	0.0183291
101	0x3cd92212	0.026505504
102	0x3be58db3	0.0070054173
103	0x3a6cc336	0.0009031774
104	0x3be7faac	0.007079443
105	0x3bdda155	0.006763617
106	0xbadeb151	-0.00169901
107	0x3c11cb10	0.0088985115
108	0x3b3fa294	0.0029241191
109	0x3cb54132	0.022125814
110	0xbcb6f7bc	-0.022334926
111	0xbca541d9	-0.020173
112	0x3b78c2c4	0.0037957886
113	0x3c500af1	0.012697921
114	0xbc6c3c04	-0.014418606
115	0xbbe9c25c	-0.007133765
116	0x3b094bab	0.0020949643
117	0x3c33b7ed	0.010969144
118	0x3c2b3e1f	0.010451823
119	0xbb9c06b6	-0.004761542
120	0x3c6afead	0.014342946
121	0x3c356185	0.011070614
122	0x3ab9ce26	0.0014175817
123	0x3bb1f446	0.005430731
124	0x3c473ca5	0.012160455
125	0x3bd20bff	0.0064101215
126	0xbad53656	-0.0016266804
127	0x3c2cdc81	0.010550619

layers.1.running_var f4 [128]
0	0x3aa0d80c	0.0012271418
1	0x3abc7bf4	0.0014380203
2	0x3a803096	0.0009780105
3	0x3abf065d	0.001457404
4	0x3ade45b3	0.0016958028
5	0x3ab06a93	0.0013459496
6	0x3aab445e	0.001306664
7	0x3a9eab69	0.0012105528
8	0x3ad0aa5c	0.0015919912
9	0x3acbd343	0.0015550632
10	0x3ab4caa7	0.0013793305
11	0x3ab8be95	0.0014094884
12	0x3ab81a86	0.001404599
13	0x3aaf1727	0.001335834
14	0x3ac7f0b3	0.0015254229
15	0x3aa1cdfd	0.0012344714
16	0x3a7faa75	0.0009752878
17	0x3a922d4f	0.0011152419
18	0x3ab7e85c	0.001403104
19	0x3a9d10e0	0.0011983179
20	0x3a82aadb	0.0009969132
21	0x3ab32746	0.0013668321
22	0x3aa61ffc	0.0012674327
23	0x3a82595d	0.0009944845
24	0x3ab8257c	0.0014049257
25	0x3aa5b391	0.0012642016
26	0x3aa2152a	0.0012365927
27	0x3ac2c040	0.001485832
28	0x3a85a051	0.0010194873
29	0x3abeb7e9	0.0014550659
30	0x3a8ce5fb	0.0010749692
31	0x3aa14558	0.0012303991
32	0x3aaee67f	0.001334384
33	0x3a8e6185	0.0010862803
34	0x3a92ee68	0.0011209967
35	0x3af32c55	0.0018552641
36	0x3ab67fbd	0.0013923567
37	0x3a9ca9b6	0.0011952433
38	0x3a9e6b34	0.0012086392
39	0x3a8b4652	0.0010625815
40	0x3a85e75e	0.0010216048
41	0x3ac98ce0	0.0015377067
42	0x3a666bd9	0.0008789874
43	0x3ab85254	0.0014062622
44	0x3ac85cfc	0.00152865
45	0x3ac485cc	0.0014993488
46	0x3a8ae666	0.0010597229
47	0x3a8815f2	0.0010382517
48	0x3aa81932	0.0012824892
49	0x3ac2a88e	0.0014851259
50	0x3abf68f6	0.0014603424
51	0x3a9de312	0.0012045822
52	0x3ad7737c	0.0016437615
53	0x3a9fd232	0.001219338
54	0x3a7e5477	0.00097019173
55	0x3ab58354	0.0013848343
56	0x3ab522d5	0.0013819585
57	0x3a8baeb5	0.0010656925
58	0x3ad4b05d	0.0016226877
59	0x3ab137f7	0.0013520707
60	0x3a860b8f	0.0010226833
61	0x3aacb939	0.0013177759
62	0x3aaf1cdb	0.001336004
63	0x3abb136e	0.0014272758
64	0x3aa924e9	0.0012904677
65	0x3a9e01d8	0.0012054993
66	0x3a8f8dc9	0.001095229
67	0x3aa6172d	0.0012671702
68	0x3aaee3a8	0.0013342993
69	0x3ac2fdf0	0.0014876705
70	0x3acc7cf3	0.0015601203
71	0x3ac44784	0.0014974927
72	0x3aad0e93	0.0013203196
73	0x3a8a79b9	0.0010564841
74	0x3aa22909	0.0012371849
75	0x3acd8911	0.0015681108
76	0x3a84f174	0.001014276
77	0x3aaf5ae4	0.0013378528
78	0x3a9405a6	0.0011293187
79	0x3ad375cb	0.0016133128
80	0x3adbde25	0.0016774578
81	0x3a91fdb7	0.0011138235
82	0x3aa7e6db	0.0012809889
83	0x3a87870b	0.0010339929
84	0x3aa200fa	0.001235991
85	0x3a853584	0.0010163044
86	0x3aaf5d81	0.0013379307
87	0x3aa65d7c	0.0012692655
88	0x3aad1160	0.0013204031
89	0x3a98181b	0.0011603864
90	0x3a88128b	0.0010381503
91	0x3a98295b	0.0011609005
92	0x3ad9b499	0.0016609608
93	0x3aaf581c	0.0013377699
94	0x3ab3e554	0.0013724961
95	0x3a90623c	0.0011015604
96	0x3a84859f	0.0010110623
97	0x3a6c9e5e	0.0009026284
98	0x3a802020	0.0009775199
99	0x3a9c3c9f	0.0011919922
100	0x3ac1b6ae	0.0014779174
101	0x3ab836ff	0.0014054476
102	0x3a97ec22	0.0011590759
103	0x3aabeb68	0.0013116421
104	0x3aa200d0	0.0012359861
105	0x3aa050f0	0.0012231153
106	0x3ab20dbc	0.0013584415
107	0x3ab7e63d	0.0014030408
108	0x3aa98cc5	0.0012935629
109	0x3abb45a1	0.0014287719
110	0x3a75345e	0.00093538116
111	0x3ac87a5b	0.0015295254
112	0x3a98a16a	0.0011644785
113	0x3a83ec90	0.0010065008
114	0x3ab07541	0.0013462679
115	0x3ab439f6	0.0013750184
116	0x3aa661fb	0.0012693995
117	0x3ad87de1	0.0016517007
118	0x3a8bd545	0.0010668418
119	0x3a97a174	0.0011568503
120	0x3ad7ae83	0.0016455207
121	0x3a9de6a6	0.0012046888
122	0x3aac6338	0.0013152128
123	0x3a8ec21b	0.0010891588
124	0x3aa7badb	0.0012796776
125	0x3ab47693	0.0013768248
126	0x3aaedbf1	0.0013340694
127	0x3aa8d8b9	0.0012881971

layers.4.weight f4 [256, 128]
0	0xbcf6f6b5	-0.030146936
1	0xbd1ba8c3	-0.03800274
2	0xbdadf01a	-0.08493061
3	0x3db157c3	0.08659317
4	0x3d0ed67e	0.034872524
5	0xbc92c4cf	-0.017916111
6	0x3d3c9ded	0.046049047
7	0x3dc03f02	0.09387018
8	0xbd01c8ff	-0.031685825
9	0xbdeda6f9	-0.11604113
10	0xbda597e5	-0.08085612
11	0x3cad5665	0.02115936
12	0x3d03b4a0	0.03215468
13	0xbcf808b5	-0.03027759
14	0x3c70470c	0.014665376
15	0x3da2b0d5	0.07943884
16	0xbd69c643	-0.057073843
17	0x3bd7a73a	0.0065812143
18	0x3d26e360	0.040744185
19	0xbbcd7156	-0.006269614
20	0x3c16801a	0.009185815
21	0xbddf5998	-0.109057605
22	0xbd1c9455	-0.038227398
23	0x3de75bdf	0.1129682
24	0x3d80c8e8	0.0628832
25	0x3d335428	0.04378143
26	0x3c66e453	0.014092523
27	0xbdc25efd	-0.09490774
28	0x3cd179e4	0.025570817
29	0x3d480f2e	0.0488426
30	0x3d159a5d	0.036524165
31	0xbdb48f1e	-0.0881636
32	0x3d437112	0.047715254
33	0x3a7c5b08	0.0009626602
34	0xbb59b669	-0.0033220297
35	0xbd88bdff	-0.06676864
36	0x3cbdcc65	0.023168752
37	0xbe1030ba	-0.14081088
38	0x3c90ebae	0.017690506
39	0xbc4f6f00	-0.012660742
40	0x3ce251d4	0.02762691
41	0x3d0a8607	0.033819225
42	0xbd17a010	-0.037017882
43	0x3d89e494	0.06733051
44	0x3d0096c9	0.0313938
45	0xbd4e54fb	-0.050374012
46	0x3ce568e6	0.028004121
47	0x3d351c7c	0.044216618
48	0xbd75bf37	-0.05999681
49	0xbd35c76e	-0.044379644
50	0xbd564943	-0.05231596
51	0x3b822a9c	0.0039723646
52	0xbc887ca9	-0.016661005
53	0x3d0a429a	0.033754922
54	0xbd9da97d	-0.07698343
55	0x3d87f26b	0.066380344
56	0x3d8dbcd4	0.06920782
57	0x3d186801	0.03720856
58	0x3d9da265	0.0769699
59	0x3b064016	0.0020484976
60	0x3b9b0e6a	0.004731943
61	0xbca14a77	-0.019688828
62	0x3d22dd6b	0.039761942
63	0xbc336499	-0.010949277
64	0xb99b0972	-0.0002957094
65	0x3d1c95fe	0.03822898
66	0xbcb2a1fe	-0.02180576
67	0xbda3ff2b	-0.08007654
68	0xbd8eeae7	-0.06978398
69	0xbbd97daa	-0.006637295
70	0x3dad11a4	0.0845063
71	0xbcdaf6f1	-0.026729079
72	0x3c1a22a7	0.009407676
73	0xbb14ccb0	-0.002270501
74	0xbd42ad56	-0.047528587
75	0x3d99d48c	0.07511243
76	0xbc9c2497	-0.019060416
77	0x3da2a0e9	0.079408474
78	0xbc81ebec	-0.015859567
79	0xbc4ac693	-0.012376445
80	0x3cd85a19	0.02641015
81	0xbd093ee5	-0.033507247
82	0x3c211b1a	0.009833122
83	0xbd90e980	-0.070757866
84	0xbbfc5560	-0.007700607
85	0x3c20548f	0.009785785
86	0x3d993a4d	0.07481823
87	0xbde6d54a	-0.112711504
88	0xbd60b385	-0.054858703
89	0xbdc4b626	-0.096050546
90	0x3d0591d0	0.03260976
91	0xbc8b7997	-0.017025752
92	0x3d82f285	0.06393913
93	0xbd3fc590	-0.04681927
94	0x3ce3bed2	0.027800951
95	0xbd99aa9b	-0.075032435
96	0x3e07c160	0.1325736
97	0x3d275800	0.040855408
98	0xbd01359b	-0.031545263
99	0x3d22ecf9	0.039776776
100	0xbda7985a	-0.08183356
101	0x3de13a77	0.109974794
102	0x3d70cd79	0.058789704
103	0xbd7d9607	-0.061910655
104	0xbdab22c3	-0.0835624
105	0x3d218795	0.03943594
106	0x3d56ab17	0.052409258
107	0xbdaf1e0c	-0.08550653
108	0xbe0f27f1	-0.1398008
109	0xbda00fcd	-0.07815514
110	0xbd0de3c8	-0.034641057
111	0xbd4bb204	-0.049730316
112	0x3c0b5392	0.008503811
113	0x3d0ecbb6	0.034862243
114	0xbd8f4b10	-0.06996739
115	0xbd012080	-0.031525135
116	0x3d59cb29	0.053172264
117	0x3db90b0e	0.09035312
118	0x3a8e6df7	0.0010866512
119	0x3d3d8990	0.046273768
120	0x3d247ce8	0.040158182
121	0x3d35f68d	0.044424582
122	0x3cebba73	0.02877543
123	0x3d78bf62	0.060729392
124	0xbc60e48a	-0.013726363
125	0x3d7d6e30	0.06187266
126	0xbd4b0ffa	-0.049575783
127	0x3d8362c4	0.064153224
128	0xbbe4939e	-0.006975605
129	0x3af06719	0.0018341272
130	0xbd520f51	-0.051284138
131	0x3d6ced2a	0.057843365
132	0x3cbcdb2f	0.023053734
133	0xbda22641	-0.079174526
134	0x3d7286c0	0.05921054
135	0xbd63cf36	-0.055617534
136	0x3a7cd0b1	0.00096441346
137	0xbdab447f	-0.08362674
138	0xbcb6ea82	-0.022328619
139	0xbdb302b2	-0.087407485
140	0xbcd8d47d	-0.02646851
141	0xbd7d46ab	-0.061834972
142	0x3cb13db3	0.021635866
143	0x3d966c2f	0.07344853
144	0x3ce42f78	0.027854666
145	0x3d0fb653	0.035085987
146	0x3d526085	0.05136158
147	0x3d634a7e	0.055490963
148	0xbca76780	-0.020435095
149	0xbdc298d4	-0.09501806
150	0xbbd965ff	-0.0066344733
151	0xbd86b8bc	-0.06578204
152	0x3d16e72f	0.036841568
153	0xbcf9bd36	-0.03048573
154	0xbd88c55a	-0.06678267
155	0xbd908ecc	-0.07058486
156	0x3c933292	0.01796845
157	0xbdc43639	-0.09580655
158	0xbd39918e	-0.045304827
159	0x3caf3f9d	0.021392638
160	0xbcedb8af	-0.029018728
161	0x3ce467d2	0.027881537
162	0x3cd762f1	0.026292296
163	0x3c79288a	0.015207419
164	0x3d74d3af	0.05977219
165	0xbbb09738	-0.0053891204
166	0x3c389951	0.011267022
167	0xbd8130ca	-0.06308134
168	0x3d5d74cf	0.054066475
169	0xbdcbd5e2	-0.09952904
170	0xbcfffecd	-0.031249428
171	0xbd891326	-0.066931054
172	0xbca41ff9	-0.020034777
173	0x3d511fe4	0.051055804
174	0xbd132c3f	-0.03593087
175	0xbcc23890	-0.023708612
176	0x3be35d6e	0.006938628
177	0xbc9c5cf3	-0.01908729
178	0xbd59f687	-0.053213622
179	0xbd1808e1	-0.037117843
180	0xbd99f0dd	-0.07516644
181	0x3d392fa0	0.045211434
182	0xbd98267b	-0.074292146
183	0xbd97c317	-0.07410257
184	0x3cb3d7db	0.021953514
185	0xbe05ce50	-0.13066983
186	0xbcfcdd64	-0.030867286
187	0xbd499938	-0.049218386
188	0xbd86b2c5	-0.06577066
189	0x3c5b4520	0.01338318
190	0x3d3612aa	0.044451393
191	0xbb5ab232	-0.0033370373
192	0x3c346c61	0.011012168
193	0xbd5758c7	-0.0525749
194	0xbdd897fb	-0.10575863
195	0x3e016a08	0.12638104
196	0x3cd2cde7	0.025732948
197	0xbdf18353	-0.11792626
198	0x3d8992fd	0.06717489
199	0x3d341d4d	0.043973256
200	0xbc4e46c8	-0.012590118
201	0x3d7d2725	0.06180491
202	0x3ceb8181	0.028748276
203	0xbc8d0ad9	-0.017217087
204	0x3d6525b1	0.05594415
205	0x3b7304f9	0.0037081821
206	0xbdae6db2	-0.085170165
207	0x3d099646	0.033590578
208	0x3d189623	0.037252557
209	0xbd9d567b	-0.076825105
210	0xbd084098	-0.033264726
211	0xbca52602	-0.020159725
212	0xbd2bffaf	-0.041991886
213	0x3ce38de4	0.02777762
214	0x3c4475aa	0.011990944
215	0x3cbed7c4	0.023296244
216	0xbc612147	-0.013740844
217	0xbcb46f5d	-0.022025758
218	0xbdc3a589	-0.09553058
219	0x3d32f9bb	0.043695193
220	0x3d86ea1b	0.06587621
221	0xbc9a1b77	-0.018811924
222	0xbd5ca318	-0.053866476
223	0x3aac9ab9	0.001316867
224	0xbd80dec2	-0.06292488
225	0xbc8e4f8d	-0.017371917
226	0xbba8b60d	-0.0051486553
227	0xbc1d8351	-0.009613828
228	0x3d4dfd91	0.050290648
229	0x3dc8d647	0.09806495
230	0xbdf8b8d4	-0.12144628
231	0x3d3adb3b	0.04561923
232	0xbc28ece3	-0.010310384
233	0xbe03c5dc	-0.12868446
234	0x3b146822	0.0022645076
235	0x3d982fdd	0.07431004
236	0xbcfa00c3	-0.030517941
237	0xbe00c701	-0.12575914
238	0xbcedd7e6	-0.029033612
239	0xbd89264d	-0.066967584
240	0xbd87867c	-0.06617448
241	0x3c7f775b	0.015592421
242	0xbd34cd16	-0.044140898
243	0x3d5d25a6	0.053990982
244	0xbdcbc097	-0.09948843
245	0x3d82cdb5	0.06386892
246	0x3d71d700	0.05904293
247	0x3cc7c262	0.024384681
248	0xbe089d50	-0.1334126
249	0xbd92ccca	-0.07167967
250	0xbd6123cd	-0.054965783
251	0xbdd132b2	-0.102147475
252	0x3d8f627b	0.070012055
253	0xbdc03a5c	-0.09386131
254	0xbdb270c1	-0.08712912
255	0xbdb40e20	-0.08791757

layers.4.bias f4 [256]
0	0x32c37186	2.2752612e-08
1	0xb4f2995d	-4.51876e-07
2	0x35334d55	6.679523e-07
3	0xb4e36d17	-4.2361418e-07
4	0xb470a544	-2.2411865e-07
5	0x3484ded9	2.474906e-07
6	0x34605b0c	2.0894748e-07
7	0x34c5e5aa	3.6861212e-07
8	0x33efe791	1.11714265e-07
9	0x345f230e	2.0781246e-07
10	0xb4a20f9f	-3.0186217e-07
11	0x345cc34f	2.056015e-07
12	0xb4e503c5	-4.2657317e-07
13	0x352f6933	6.5345665e-07
14	0xb49e93eb	-2.9537418e-07
15	0xb40feda3	-1.3404365e-07
16	0xb4fe72f0	-4.7394815e-07
17	0x3374c1d6	5.698697e-08
18	0xb46d8e90	-2.2124209e-07
19	0xb29cd07d	-1.82556e-08
20	0xb4ad7c72	-3.2314307e-07
21	0x34c88514	3.734973e-07
22	0x33951bdc	6.943421e-08
23	0x3442bf0e	1.8137163e-07
24	0xb3b1f566	-8.2868425e-08
25	0xb4813cfe	-2.40725e-07
26	0xb5198109	-5.718471e-07
27	0xb4182269	-1.4168621e-07
28	0xb4b12a58	-3.2999628e-07
29	0xb1a2c051	-4.7366844e-09
30	0xb3c43067	-9.1357656e-08
31	0xb2f3e576	-2.839327e-08
32	0xb4a65132	-3.0978987e-07
33	0x3447d398	1.8610297e-07
34	0x33fd5381	1.179642e-07
35	0xb39baace	-7.248819e-08
36	0x330e45c9	3.312542e-08
37	0x3514f462	5.548992e-07
38	0x353bd842	6.9977625e-07
39	0x3404ccf6	1.2368022e-07
40	0xb4fd2884	-4.71544e-07
41	0x34e18eb6	4.2013352e-07
42	0xb51674e5	-5.604946e-07
43	0x34900597	2.6826157e-07
44	0xb4ce72ba	-3.8453965e-07
45	0xb48b24df	-2.5917595e-07
46	0x3219d70a	8.954666e-09
47	0xb4d59a99	-3.9786826e-07
48	0x34962f7a	2.797422e-07
49	0x3425c8af	1.5439831e-07
50	0x3483d20d	2.4553484e-07
51	0xb3897684	-6.4011175e-08
52	0xb439ddaa	-1.7310109e-07
53	0x3228e3a9	9.830651e-09
54	0x3541a5d8	7.213944e-07
55	0xb313e3f4	-3.4433427e-08
56	0xb2f1f260	-2.8166312e-08
57	0x32a3b7e6	1.9059325e-08
58	0xb4118f58	-1.3556325e-07
59	0xb3a4b0da	-7.669014e-08
60	0xb547c02e	-7.4412935e-07
61	0x338ef10f	6.6562386e-08
62	0xb3c45d7c	-9.143966e-08
63	0x340fb5fa	1.3384116e-07
64	0xb525fbc8	-6.183368e-07
65	0xb465a048	-2.1385597e-07
66	0xb4e3640e	-4.2354844e-07
67	0x3543c025	7.292277e-07
68	0x33a258bc	7.5598535e-08
69	0x3297749e	1.7631745e-08
70	0x34953ac9	2.7796185e-07
71	0x352f4734	6.5296194e-07
72	0xb43ca0b2	-1.7567325e-07
73	0xb4dd130c	-4.1178316e-07
74	0xb5550018	-7.934882e-07
75	0xb31888f8	-3.551483e-08
76	0xb4f1ebf0	-4.5061415e-07
77	0xb52ac154	-6.3611265e-07
78	0xb4623f1b	-2.1070848e-07
79	0xb38d5337	-6.580961e-08
80	0xb4eccce4	-4.4107503e-07
81	0xb4f8a339	-4.631236e-07
82	0xb4d26f6c	-3.9196618e-07
83	0x330767ce	3.1526547e-08
84	0x33082e3d	3.170702e-08
85	0xb41ac2a5	-1.4413179e-07
86	0x343c57ef	1.7540854e-07
87	0xb35d1151	-5.147132e-08
88	0xb3bdb4f3	-8.833913e-08
89	0x353180dc	6.6125153e-07
90	0x3508919b	5.087583e-07
91	0xb4db6800	-4.08676e-07
92	0x352e849f	6.501304e-07
93	0x345e4320	2.0699781e-07
94	0xb49d989c	-2.9354567e-07
95	0xb4b6e486	-3.4066414e-07
96	0x33f65c25	1.1472029e-07
97	0xb1a75be4	-4.8707864e-09
98	0x34d01f32	3.8765717e-07
99	0xb30ba203	-3.251081e-08
100	0x3407472c	1.2598747e-07
101	0x33aad1e5	7.9544215e-08
102	0x333a6bef	4.3404665e-08
103	0x3483b178	2.4529777e-07
104	0xb544b190	-7.327408e-07
105	0x345b9c6c	2.045287e-07
106	0x33f60d8c	1.1457732e-07
107	0x3330fc6b	4.1207766e-08
108	0xb3e63a1a	-1.0720778e-07
109	0xb48548de	-2.4826198e-07
110	0x34e53b77	4.269784e-07
111	0x34154356	1.3901203e-07
112	0x35081fe0	5.071033e-07
113	0x3462d54a	2.1125484e-07
114	0x351444e6	5.5234557e-07
115	0x34651e96	2.1338414e-07
116	0xb51dcb5e	-5.8782996e-07
117	0xb261496e	-1.311342e-08
118	0x356e492d	8.8768394e-07
119	0xb2c71ff5	-2.3181181e-08
120	0xb461aae3	-2.1016926e-07
121	0xb4966bca	-2.8018104e-07
122	0x349dcd7e	2.9393044e-07
123	0x34685755	2.1638455e-07
124	0xb4c7755f	-3.7152037e-07
125	0xb3e1f358	-1.0521643e-07
126	0xb4951e7d	-2.7775596e-07
127	0xb3bd77cb	-8.8227885e-08
128	0xb4286156	-1.568163e-07
129	0xb4dc1944	-4.0996576e-07
130	0xb440338b	-1.7900145e-07
131	0x344886e4	1.8675524e-07
132	0x35103bfa	5.373146e-07
133	0xb3b7f2a9	-8.565741e-08
134	0x345af59a	2.0392181e-07
135	0xb4dc036b	-4.098068e-07
136	0xb3384806	-4.2906343e-08
137	0x33b02519	8.202387e-08
138	0xb4c3509e	-3.6380237e-07
139	0xb53fc46c	-7.1438876e-07
140	0x34a3151a	3.037647e-07
141	0xb3a03f63	-7.4621106e-08
142	0xb31cbe11	-3.6494445e-08
143	0x340bb1b0	1.3010026e-07
144	0xb306343b	-3.124681e-08
145	0x348d8694	2.6361215e-07
146	0xb495bdd5	-2.7891534e-07
147	0x34dc500c	4.1036435e-07
148	0x34a71b0c	3.1125853e-07
149	0xb5057cc5	-4.9727925e-07
150	0x3365d944	5.351582e-08
151	0x329446b4	1.726162e-08
152	0xb4c9a93d	-3.7562305e-07
153	0x34b9d75a	3.4615624e-07
154	0x34cd212f	3.820837e-07
155	0xb4861eb7	-2.4981793e-07
156	0x349234c6	2.7233017e-07
157	0xb3015d17	-3.0119818e-08
158	0xb3da814a	-1.01749336e-07
159	0xb32ff08e	-4.0964146e-08
160	0x345e95f4	2.0729914e-07
161	0x34d3f391	3.947903e-07
162	0x35258d4d	6.167291e-07
163	0xb288d460	-1.592906e-08
164	0x3496b877	2.8073893e-07
165	0x328b39f7	1.6208089e-08
166	0x33594c93	5.0593894e-08
167	0xb3c0bf15	-8.975454e-08
168	0x348126b5	2.4056285e-07
169	0x34705798	2.2383608e-07
170	0x3515597d	5.563705e-07
171	0xb3d3d8b3	-9.8648705e-08
172	0xb5090a7d	-5.105174e-07
173	0xb3353fa1	-4.2200217e-08
174	0xb447c169	-1.8603681e-07
175	0x3488d298	2.54852e-07
176	0x34e7471a	4.3078836e-07
177	0xb4108e93	-1.3462913e-07
178	0x350edab2	5.3217366e-07
179	0xb5119b99	-5.4243134e-07
180	0xb42637fd	-1.5480323e-07
181	0x352ddf6f	6.477266e-07
182	0xb3e5d067	-1.0701552e-07
183	0xb45956df	-2.0241303e-07
184	0x34d06495	3.8816202e-07
185	0xb22664d1	-9.685395e-09
186	0x33e3a807	1.0601075e-07
187	0xb5843a97	-9.851818e-07
188	0xb3ed798c	-1.1058282e-07
189	0xb3a3cf7a	-7.628019e-08
190	0x34807e8b	2.393393e-07
191	0x32e9d0b1	2.7219672e-08
192	0xb31648d8	-3.4990848e-08
193	0xb480cec8	-2.399231e-07
194	0xb51596e1	-5.5726383e-07
195	0x32c8b2ce	2.3364375e-08
196	0x346e77c3	2.2209046e-07
197	0x34a78168	3.120033e-07
198	0x34e70fe3	4.3038662e-07
199	0x32f05276	2.7977176e-08
200	0x35299fb8	6.318983e-07
201	0xb4c99dba	-3.755393e-07
202	0x34fef944	4.749255e-07
203	0x34cde54a	3.8351055e-07
204	0xb44779cd	-1.857763e-07
205	0xb347c2f7	-4.6510618e-08
206	0x34d4bcda	3.9625485e-07
207	0x3501b826	4.8324216e-07
208	0xb4734ecd	-2.2659806e-07
209	0x34916848	2.708423e-07
210	0x347fb1f3	2.3813463e-07
211	0x33839c39	6.1285796e-08
212	0xb4b9c74b	-3.460394e-07
213	0xb469d8c9	-2.1778682e-07
214	0x34c20e60	3.6145775e-07
215	0xb30afcd6	-3.236058e-08
216	0x313ad907	2.7189928e-09
217	0xb512328f	-5.446281e-07
218	0xb49c41e1	-2.9105198e-07
219	0x34d58404	3.9770396e-07
220	0xb38cf628	-6.5640336e-08
221	0x33e3bd3a	1.0604931e-07
222	0x34f2ddf2	4.52375e-07
223	0xb543062a	-7.265213e-07
224	0xb4acdaf9	-3.219682e-07
225	0xb4b16b0f	-3.3046715e-07
226	0x34561b24	1.9940177e-07
227	0x33c1d6fb	9.0263676e-08
228	0xb509bacd	-5.130831e-07
229	0x341ec37e	1.4786016e-07
230	0xb517031c	-5.625641e-07
231	0x33e0764b	1.045233e-07
232	0x350dae43	5.278018e-07
233	0xb48bb508	-2.6022485e-07
234	0x340c941c	1.3092398e-07
235	0x34a00d93	2.98122e-07
236	0xb4b6f104	-3.4075504e-07
237	0x33b7c5d8	8.557589e-08
238	0x34f6767e	4.5907285e-07
239	0x345f0991	2.0771974e-07
240	0x33b435d3	8.391694e-08
241	0xb4811e90	-2.405036e-07
242	0xb506bbc2	-5.0192114e-07
243	0xb4926ab9	-2.727227e-07
244	0xb439f3b9	-1.7318133e-07
245	0xb3cc19b8	-9.5041685e-08
246	0x346f9b15	2.2315028e-07
247	0xb541def9	-7.222257e-07
248	0xb54ae036	-7.5577134e-07
249	0x347771f8	2.3045129e-07
250	0xb3b7c450	-8.5573106e-08
251	0x3454e831	1.982851e-07
252	0xb3249430	-3.8319e-08
253	0x34c79d5c	3.7181132e-07
254	0xb4983fb1	-2.8358548e-07
255	0x3465e2b1	2.1409757e-07

layers.5.weight f4 [256]
0	0x3f818644	1.01191
1	0x3f7ff6c3	0.99985904
2	0x3f81857a	1.0118859
3	0x3f825f5a	1.0185349
4	0x3f7cff35	0.98826915
5	0x3f7e32ba	0.9929615
6	0x3f7dc681	0.9913102
7	0x3f81a359	1.0127975
8	0x3f7a9b51	0.97893244
9	0x3f819c05	1.0125738
10	0x3f7f3e71	0.99704653
11	0x3f7feaf5	0.9996789
12	0x3f78983a	0.9710728
13	0x3f780af5	0.9689172
14	0x3f7e5a15	0.99356204
15	0x3f7de2f8	0.9917445
16	0x3f7bbc4e	0.98334205
17	0x3f78a650	0.9712877
18	0x3f8128ca	1.0090573
19	0x3f78a4e6	0.97126615
20	0x3f7de065	0.99170524
21	0x3f8269d9	1.0188552
22	0x3f7ec5eb	0.9952075
23	0x3f7fc426	0.99908674
24	0x3f7908df	0.9727916
25	0x3f8145c1	1.0099412
26	0x3f781f1e	0.9692248
27	0x3f7673b2	0.9627029
28	0x3f8029ac	1.0012717
29	0x3f79cc81	0.97577673
30	0x3f799d1b	0.9750535
31	0x3f7d1463	0.9885923
32	0x3f82746e	1.0191782
33	0x3f7c44fe	0.98542774
34	0x3f8137a2	1.0095103
35	0x3f7f147b	0.99640626
36	0x3f7b1065	0.9807189
37	0x3f7a07b3	0.97668
38	0x3f7caddb	0.9870278
39	0x3f80eca0	1.0072212
40	0x3f803dfd	1.0018917
41	0x3f7d0b15	0.98845035
42	0x3f848a67	1.0354737
43	0x3f7e6baf	0.9938306
44	0x3f8347e3	1.0256313
45	0x3f7f6162	0.9975797
46	0x3f79c3f5	0.9756463
47	0x3f7dc1cb	0.9912383
48	0x3f7fa079	0.99854237
49	0x3f7d58d4	0.98963666
50	0x3f7c6e21	0.98605543
51	0x3f7653c1	0.9622155
52	0x3f7d7e2e	0.9902066
53	0x3f7eccdc	0.9953134
54	0x3f83b75a	1.029033
55	0x3f800efa	1.000457
56	0x3f822c86	1.0169837
57	0x3f823ce1	1.0174829
58	0x3f827cc4	1.0194325
59	0x3f78b77f	0.9715499
60	0x3f7d29d9	0.9889198
61	0x3f7915ee	0.9729909
62	0x3f803afd	1.0018002
63	0x3f81e225	1.0147139
64	0x3f828598	1.019702
65	0x3f7b5ca1	0.98188215
66	0x3f7d3ee8	0.9892411
67	0x3f7ef63b	0.9959447
68	0x3f7ba543	0.98299044
69	0x3f83b420	1.0289345
70	0x3f7d7dbe	0.9901999
71	0x3f7e64b8	0.99372435
72	0x3f806c16	1.0032985
73	0x3f752988	0.95766497
74	0x3f801879	1.0007468
75	0x3f849383	1.0357517
76	0x3f791640	0.97299576
77	0x3f7f2235	0.9966157
78	0x3f80a51e	1.005039
79	0x3f8113fc	1.0084224
80	0x3f772bc0	0.9655113
81	0x3f7b0043	0.98047274
82	0x3f7eb6da	0.9949776
83	0x3f7a64f9	0.9781032
84	0x3f7c5566	0.9856781
85	0x3f7cd2ef	0.9875936
86	0x3f827ceb	1.0194372
87	0x3f819e53	1.0126442
88	0x3f7f842a	0.9981104
89	0x3f7fff33	0.9999878
90	0x3f8100ea	1.0078404
91	0x3f804eb3	1.0024017
92	0x3f7b4004	0.98144555
93	0x3f800b4f	1.0003451
94	0x3f808bc5	1.0042654
95	0x3f813b53	1.0096229
96	0x3f8165f3	1.0109237
97	0x3f7de6ef	0.991805
98	0x3f827432	1.019171
99	0x3f7e3aa8	0.9930825
100	0x3f7fb3d8	0.99883795
101	0x3f822cf3	1.0169967
102	0x3f79c500	0.97566223
103	0x3f7f0da2	0.9963018
104	0x3f814815	1.0100123
105	0x3f7d9972	0.99062264
106	0x3f7618de	0.96131694
107	0x3f812f9b	1.0092653
108	0x3f79c1ce	0.9756135
109	0x3f7deb8c	0.9918754
110	0x3f751b14	0.9574444
111	0x3f7c8f3a	0.98656046
112	0x3f7af6b9	0.9803272
113	0x3f7a518e	0.9778069
114	0x3f75bc8b	0.9599082
115	0x3f806931	1.0032102
116	0x3f841ce6	1.0321319
117	0x3f7cd10e	0.9875649
118	0x3f82376f	1.0173167
119	0x3f7b9dd0	0.9828768
120	0x3f7cff6c	0.9882724
121	0x3f81397e	1.009567
122	0x3f7869b8	0.97036314
123	0x3f82670c	1.0187697
124	0x3f7cc3dd	0.98736364
125	0x3f75dc38	0.9603915
126	0x3f8377ea	1.027097
127	0x3f7c922c	0.9866054
128	0x3f80f306	1.0074165
129	0x3f844b4c	1.0335479
130	0x3f7e5651	0.9935046
131	0x3f83a250	1.0283909
132	0x3f81f858	1.0153913
133	0x3f7c0d4d	0.98457795
134	0x3f7cd19d	0.98757344
135	0x3f75eeb3	0.9606735
136	0x3f80852f	1.0040644
137	0x3f768321	0.96293837
138	0x3f815587	1.0104226
139	0x3f7fe541	0.9995919
140	0x3f7d978e	0.9905938
141	0x3f7a3798	0.9774108
142	0x3f80a456	1.0050151
143	0x3f7ddad7	0.9916205
144	0x3f72d6eb	0.9485919
145	0x3f78c651	0.97177607
146	0x3f7fbd57	0.99898285
147	0x3f80c2e0	1.0059471
148	0x3f7cd616	0.9876417
149	0x3f810d92	1.0082266
150	0x3f80b28d	1.0054489
151	0x3f80875d	1.004131
152	0x3f7a7184	0.9782946
153	0x3f7f7cc7	0.9979977
154	0x3f77a605	0.967377
155	0x3f7c1fe9	0.9848619
156	0x3f828867	1.0197877
157	0x3f81e111	1.014681
158	0x3f7c1903	0.98475665
159	0x3f7ed19e	0.995386
160	0x3f80a285	1.0049597
161	0x3f7c8740	0.98643875
162	0x3f7ceef5	0.9880212
163	0x3f7ed902	0.9954988
164	0x3f80fe4d	1.0077606
165	0x3f7a282f	0.97717565
166	0x3f810255	1.0078837
167	0x3f7c93f1	0.9866324
168	0x3f832271	1.0244886
169	0x3f7f9a84	0.9984515
170	0x3f8193e0	1.0123253
171	0x3f7b5c6e	0.9818791
172	0x3f68a4b0	0.90876293
173	0x3f7d1949	0.9886671
174	0x3f76eab4	0.9645188
175	0x3f7f8182	0.9980699
176	0x3f7f5ec5	0.9975398
177	0x3f85b291	1.0445119
178	0x3f7cb361	0.9871121
179	0x3f701ae6	0.93791044
180	0x3f82e1f4	1.0225205
181	0x3f822857	1.0168561
182	0x3f81c037	1.0136784
183	0x3f7a8b98	0.97869253
184	0x3f7936aa	0.97349036
185	0x3f7ecb1b	0.99528664
186	0x3f8170f4	1.0112596
187	0x3f756ec7	0.9587216
188	0x3f801774	1.0007157
189	0x3f801746	1.0007102
190	0x3f775c11	0.9662486
191	0x3f729bf6	0.9476923
192	0x3f76ed95	0.9645627
193	0x3f798182	0.9746324
194	0x3f816b6b	1.0110906
195	0x3f7dacf8	0.99092054
196	0x3f7a6187	0.97805065
197	0x3f7a3e33	0.9775116
198	0x3f80d46b	1.0064825
199	0x3f8147b9	1.0100013
200	0x3f81ad5f	1.0131034
201	0x3f72997f	0.94765466
202	0x3f84285a	1.0324814
203	0x3f7e8d32	0.99434197
204	0x3f784dd6	0.9699377
205	0x3f801867	1.0007447
206	0x3f7e8767	0.9942536
207	0x3f836336	1.0264652
208	0x3f8471cf	1.0347232
209	0x3f831e7b	1.0243677
210	0x3f80faea	1.0076573
211	0x3f7dcd66	0.9914154
212	0x3f8151e8	1.0103121
213	0x3f7849dc	0.969877
214	0x3f800e19	1.0004302
215	0x3f81d0b9	1.0141822
216	0x3f7f9a04	0.99844384
217	0x3f838e4a	1.0277798
218	0x3f81eec8	1.0150995
219	0x3f7e90f1	0.99439913
220	0x3f788f8a	0.97094023
221	0x3f767106	0.9626621
222	0x3f82f0e9	1.022977
223	0x3f7e4994	0.9933102
224	0x3f811f39	1.0087653
225	0x3f7e4717	0.99327224
226	0x3f78643b	0.9702794
227	0x3f80df0e	1.0068071
228	0x3f79706e	0.9743718
229	0x3f7d7765	0.99010307
230	0x3f818348	1.0118189
231	0x3f781744	0.969105
232	0x3f7c1573	0.9847023
233	0x3f7f5fd8	0.9975562
234	0x3f802efd	1.001434
235	0x3f7c76d9	0.9861885
236	0x3f77dd2c	0.96821856
237	0x3f83b0eb	1.0288366
238	0x3f7d0654	0.9883778
239	0x3f7962e9	0.9741655
240	0x3f78c180	0.9717026
241	0x3f83036a	1.0235417
242	0x3f79600b	0.97412175
243	0x3f808182	1.0039523
244	0x3f7fe84d	0.9996384
245	0x3f7c25a8	0.9849496
246	0x3f7a4260	0.9775753
247	0x3f80370b	1.0016798
248	0x3f84676f	1.0344065
249	0x3f78845e	0.97076976
250	0x3f80ef6a	1.0073063
251	0x3f82e8f7	1.0227345
252	0x3f73d36a	0.9524447
253	0x3f7d8037	0.99023765
254	0x3f7f5b0e	0.99748313
255	0x3f806321	1.0030252
